mountain_car_policy.pt (torch, 5232 bytes, 4 tensors)

fc1.weight f4 [128, 2]
000000 9b 2b af 3e 65 49 2b 41 5e 46 2f 3e cf 75 5d 3e
       0.34212956 10.705419 0.17116687 0.21626972
000010 b4 45 3a 3f f2 6e dc be d3 a3 1c 3e b9 29 b4 3e
       0.7276261 -0.43053395 0.15296869 0.35188082
000020 6e 67 0d 3f 56 60 d2 3f ed 80 93 3e 50 6a 2f 3f
       0.55235946 1.6435649 0.288093 0.68521595
000030 13 13 0f 3f 44 d7 80 bf a0 f2 16 3f 7a 4e 50 3f
       0.5588848 -1.0065694 0.58963966 0.81369746
000040 a9 dd cc 3e cc c3 8f 3f f6 50 00 3f fb 57 33 bd
       0.40012863 1.1231627 0.50123537 -0.043785077
000050 47 1e 37 3e 9c 52 13 40 1f 19 03 3e d4 36 40 bf
       0.17882644 2.301917 0.12802552 -0.7508366
000060 50 c8 47 bf 9d 37 48 3e 8f 1f 49 3e e4 88 0f 3e
       -0.7804003 0.19552465 0.19640945 0.14017063
000070 56 2d d2 3e 74 c5 45 c1 a1 74 20 3f f3 02 b2 c0
       0.41050214 -12.360706 0.6267796 -5.56286
000080 76 da 8d be 19 b8 2d bf de 72 7f be 2a 9c 99 40
       -0.27705735 -0.67859036 -0.24946162 4.800313
000090 b7 ba bf 3c 22 ea 47 3f b2 92 32 be 15 01 8d 3e
       0.023404462 0.78091633 -0.17438772 0.27539888
0000a0 60 f1 59 3d 45 12 cb be 9e 92 b4 bd d7 29 df be
       0.05320871 -0.39662376 -0.088170275 -0.4358661
0000b0 8d 13 3f 3e 10 8e 9d 3f cf dc 9c bf 0a 68 a0 3f
       0.18659802 1.2308979 -1.2254885 1.253175
0000c0 3e 1d 60 3d f6 b5 37 3f e9 ff 82 bd cf 48 98 be
       0.054715388 0.71762025 -0.06396467 -0.2974305
0000d0 1c 74 dc 3e ba 0d 31 bd 60 56 25 bd 03 0c 5b be
       0.43057334 -0.04322598 -0.040365577 -0.21391301
0000e0 f8 80 c4 3e 9f 0c c1 bd 65 c0 c0 3e 08 90 3c c1
       0.38379645 -0.094262354 0.37646785 -11.785164
0000f0 f4 93 7c bf ef 2e 04 40 9b 2e 2b 3f cc 12 2a be
       -0.9866326 2.0653646 0.6686799 -0.16608733
000100 a6 9e 7b bf 03 d0 63 40 aa 8f cc bd f1 24 29 3e
       -0.98288953 3.559571 -0.09988339 0.16517998
000110 98 50 4c 3f e8 44 c9 3e 0d 32 83 3f d0 ae b3 be
       0.79810476 0.39310384 1.0249649 -0.3509431
000120 52 fd 27 3f 7c 61 32 bd 27 df 0b 3f 86 7f fc be
       0.6562091 -0.04355 0.5463738 -0.49316043
000130 14 33 d3 3e c3 48 b4 c0 e2 39 0a 3f d9 c3 7b 3f
       0.41249907 -5.633882 0.5399457 0.98345715
000140 fc e5 f7 3e b1 15 ae c0 ba 9f d6 3f bb 26 1e c0
       0.48417652 -5.440148 1.6767495 -2.471114
000150 6a db 93 3f f6 74 ed bf 78 36 31 3f de fe be bf
       1.1551335 -1.8551319 0.6922374 -1.4921529
000160 0a 0c 4b be f6 85 16 bf ef fc 78 3e eb bf d5 3f
       -0.19828811 -0.5879816 0.24315237 1.6699194
000170 27 da 96 3f 61 ca 55 bf 95 21 76 3f e6 a9 58 bf
       1.1785325 -0.8351193 0.9614499 -0.84634244
000180 bb 9a 32 3e b2 de 0f bf 0f d3 2c 3f 63 89 d9 bf
       0.17441837 -0.5619918 0.6750955 -1.6995052
000190 e5 30 d2 3e 08 fa 2a 41 62 8a 00 3f e9 c7 d4 be
       0.4105293 10.686043 0.50211155 -0.4155877
0001a0 fd 7a b6 3e 1e 4d c4 be 6c 10 8b 3f d3 fe 80 c0
       0.35640708 -0.38340086 1.0864387 -4.0311065
0001b0 26 fc fa 3e 93 e5 20 c0 90 cb 0b 3f c3 3c 01 3f
       0.490205 -2.514012 0.54607487 0.5048334
0001c0 b3 11 b7 be f9 ea bd be 1d c9 d9 3e f1 99 78 3f
       -0.3575569 -0.37093332 0.4253625 0.97109896
0001d0 09 14 f2 3e 97 ad 8c 3f bc b6 ef 3e 16 f0 17 3d
       0.4728091 1.0990475 0.46819103 0.0370942
0001e0 b8 de ae 3f 01 e8 53 c0 71 e3 d4 3e 82 cc 46 41
       1.3661718 -3.3110354 0.41579774 12.424929
0001f0 e6 76 21 3e 7c bc a7 3e 46 51 7c 3f f9 ae 06 3e
       0.15768012 0.3276099 0.98561513 0.13152684
000200 56 45 f1 3e 13 80 0a bf 4a 83 12 3f 8e 37 b0 3d
       0.47123212 -0.54101676 0.5723158 0.08604346
000210 cc dc 7c 3e 26 6a 8c be c0 b8 f5 3e ed 81 15 bf
       0.24693602 -0.27424735 0.47992516 -0.58401376
000220 f4 94 01 bf 0a 76 02 3f 29 b1 a7 3d cf 11 0a 3f
       -0.5061791 0.50961363 0.081880875 0.53933424
000230 96 85 9a 3d 58 e5 d7 3e af 6c 89 be bf 67 34 bf
       0.07545011 0.42167163 -0.26840732 -0.70470804
000240 ff 9a af be 96 31 5f 3d 8d 92 03 bf 37 0b 00 40
       -0.3429794 0.05449065 -0.51395494 2.0006845
000250 dc d4 06 3c 59 d9 8b 3f 5c 70 96 3e 4d 4d 14 bf
       0.008229461 1.0925704 0.29382598 -0.5793045
000260 69 b5 a1 bc 99 37 bf 3f 63 4d 45 3e 1d fa 4f 3e
       -0.019739823 1.4938842 0.19267802 0.20310254
000270 4a 57 bb bf cb 0d d1 3f b8 46 3a 3f f6 25 b1 3f
       -1.4636014 1.6332334 0.7276416 1.383971
000280 5c 89 fc bc fd 89 04 be bf de ba 3e 86 90 3a c1
       -0.030827217 -0.12943263 0.36498067 -11.660284
000290 7e 22 87 3a 09 09 c6 3d 86 9f b4 bd 2a 24 58 3c
       0.0010309962 0.09669692 -0.08819489 0.013192216
0002a0 d2 0e 44 3f aa 19 20 be 19 5e 49 bd 98 71 2b 3e
       0.76585114 -0.1563479 -0.049162004 0.16742551
0002b0 1d c8 f0 3e 03 86 b2 3f 0f 79 ae 3f 3a 85 98 c0
       0.47027674 1.3947147 1.3630694 -4.766263
0002c0 7f a9 7a bd af ff 20 be 10 3d b3 3e 3a 70 71 3f
       -0.0611968 -0.15722536 0.35007524 0.9431187
0002d0 38 6d 0f 3f e3 0c 02 3e 62 b8 c7 3e a4 cf 9a bf
       0.5602603 0.12700228 0.3900786 -1.2094617
0002e0 90 40 cf 3e e0 1a 35 3f 0f a8 06 3f 25 c9 8c 3e
       0.40478945 0.70744133 0.5260019 0.2749721
0002f0 ef 9b e4 3e 5e f5 b5 3d dd 43 46 3f 70 86 41 c0
       0.44650218 0.08884691 0.774473 -3.0238304
000300 e4 42 24 3f 4d dc 96 bf 46 a9 ac 3f 79 ff 8d c0
       0.64164567 -1.178598 1.3489158 -4.4374356
000310 77 9d fc 3d ca 82 98 be 3a dd e9 be d7 aa b8 be
       0.123347215 -0.29787284 -0.45676595 -0.3606784
000320 a6 2e ce 3e 2e a7 7e 3d 4a ab 15 be 76 0f 2d 3f
       0.40269965 0.062171154 -0.14616123 0.67601717
000330 d0 a4 9c bf a9 8c 35 bd 01 f4 08 3f 41 ff 11 bf
       -1.2237797 -0.044323597 0.5349732 -0.5703011
000340 a1 26 2c 40 64 c3 09 c0 83 51 94 bb 3f 2e 0a bf
       2.6898577 -2.1525507 -0.0045263185 -0.53976816
000350 12 f5 1d 3f ac 9d 95 bd be 8a 89 bf 09 20 89 bf
       0.6170207 -0.07305464 -1.0745466 -1.0712901
000360 c3 d0 94 3f d5 b5 ad 3f 06 c9 7f 3f 3b 9b 14 bf
       1.1626209 1.3571116 0.9991611 -0.5804936
000370 ea 1a 46 3e 4d f2 0a 3d 32 46 42 3f 10 2d 26 3f
       0.19346204 0.033922482 0.7588836 0.6491251
000380 9c 5f c6 3e 0a c4 39 c0 cf b0 48 be c8 f2 93 40
       0.3874482 -2.9025903 -0.19598697 4.6233864
000390 1b ff ba 3e d2 3b 56 be 7b d5 f0 3e 12 48 0b 3f
       0.36522755 -0.20921257 0.47037873 0.54406846
0003a0 16 65 b0 3e 3a 55 5d bf 12 16 7c be 1a f7 9a 40
       0.34452122 -0.8645817 -0.24617794 4.842664
0003b0 26 ed 02 3f 86 c9 ad 3d a3 2f a5 bd 70 3e 17 3f
       0.5114311 0.08485703 -0.080657266 0.5907965
0003c0 fb 06 17 bc df 0c 3b be 6d cf 8b 3e 44 e2 08 3d
       -0.009217973 -0.18266629 0.2730669 0.03341891
0003d0 21 cf 81 bd 2c 5f e5 3e 35 2f 03 3e af fc c5 3f
       -0.06338335 0.44799173 0.12810977 1.5467738
0003e0 3c e9 ec 3e 7c 1c 8f be 24 ef f5 3e e7 09 5d be
       0.46271694 -0.2795142 0.48034012 -0.21585809
0003f0 e2 ca 99 bf 45 df 83 bf 18 a7 3f 3f 7e ce 38 be
       -1.201504 -1.0302511 0.7486434 -0.1804752

fc1.bias f4 [128]
000000 6d c0 53 3e 8c de a7 bd 6b 5d 06 bf 1d 3e 0b bf
       0.20678873 -0.08196744 -0.52486295 -0.5439165
000010 be 8f 7c be 6a 9a 0f be 94 15 1c bf 5f d4 56 bf
       -0.24664208 -0.14023748 -0.60970426 -0.839178
000020 b7 5e 86 be b4 d0 da be 15 46 18 bf 1f cf 80 bf
       -0.26244137 -0.42737353 -0.59481937 -1.0063208
000030 a3 f9 86 be 14 4c 06 bf 34 f2 ac 3e b6 4b 76 3e
       -0.26362333 -0.52459836 0.33778536 0.24052319
000040 09 65 ad be 56 57 d6 bc e7 14 5a bf a9 fa 0e bf
       -0.33866146 -0.026164692 -0.85188144 -0.5585123
000050 85 d6 21 bf a7 72 fa be c3 b6 84 bf 71 87 e0 be
       -0.63217956 -0.48915598 -1.0368274 -0.43853334
000060 a9 01 85 bf 93 74 d0 be d8 ac 62 bf bc ac 14 bf
       -1.0391132 -0.4071394 -0.8854499 -0.5807607
000070 f0 3b 48 be 0c 15 aa 3e e9 e5 a6 be c9 b9 de be
       -0.19554114 0.33219182 -0.32597283 -0.43501118
000080 45 04 31 3e 57 7e 1c bf 3c 84 0b bf 7f 4f 3f bf
       0.17286785 -0.6113028 -0.5449865 -0.74730676
000090 c1 65 2d bf 54 ed 88 be 4d bb 1a 3e d9 5b 26 bf
       -0.6773339 -0.26743567 0.15110512 -0.649839
0000a0 c3 8a 36 3e f1 fb b8 3e d8 e0 78 3e 86 c8 53 be
       0.17826371 0.36129716 0.24304521 -0.20681962
0000b0 62 45 fb be 40 ce 33 bf 67 c5 0f bf 35 4c 00 bf
       -0.49076372 -0.7023659 -0.5616059 -0.5011628
0000c0 38 05 97 bf 18 f6 e0 be 02 da 80 3e fa 24 1b bf
       -1.1798468 -0.43937755 0.25166327 -0.60603297
0000d0 70 e4 2e bf 4e 3f 64 3e e1 4c ac 3e c0 58 15 bf
       -0.6831732 0.22289774 0.33652404 -0.58338547
0000e0 24 96 17 bf ba 7a 63 bf e9 cf 62 bf 0e e9 ab be
       -0.5921347 -0.8885914 -0.88598496 -0.33576244
0000f0 56 de 8b 3e b8 0c 78 3e ec d6 0d bf 1b de 21 bf
       0.27318066 0.24223602 -0.5540607 -0.6322953
000100 da f4 0c bf 92 43 29 bf 51 a9 d1 be 07 7b 4d be
       -0.55061114 -0.6611873 -0.4094949 -0.20066462
000110 b7 51 30 bf 6c 64 d8 bd 84 60 e2 be 51 85 1c bf
       -0.68874687 -0.10566029 -0.4421426 -0.61140925
000120 a6 52 d8 be 07 ed 29 bf ee 4f 44 bf 4a d3 67 bf
       -0.42250556 -0.663773 -0.76684463 -0.90556777
000130 43 f8 7d bf 77 a8 03 be 63 0a 60 bf cb c0 34 bf
       -0.9920694 -0.12857233 -0.8751585 -0.7060668
000140 fb 77 e0 be 8a e6 a5 3e da a4 fb be 6d 3f 66 be
       -0.43841538 0.3240245 -0.4914921 -0.22485133
000150 da 88 0a bf 92 25 5e bf 7f 25 81 be 3f 19 9f 3e
       -0.5411507 -0.8677608 -0.2522392 0.3107395
000160 33 e9 fb bd 1f 40 4c bf 13 0a 9c be 11 75 98 be
       -0.123003386 -0.7978534 -0.30476436 -0.29776815
000170 a4 34 5f bf 7f 7d 28 bf 10 c6 fb be 75 11 40 3e
       -0.871897 -0.6581649 -0.49174547 0.1875666
000180 79 d1 0f bf 53 f5 89 3e 60 20 3d be 18 a7 15 bf
       -0.56179005 0.2694498 -0.18469381 -0.5845809
000190 93 a5 02 bf d8 5d 7d be 08 57 f7 be e3 82 77 be
       -0.51033896 -0.2474283 -0.48308587 -0.24171023
0001a0 5b bf a8 3e 5a a3 33 be 64 d1 91 be 38 27 c7 be
       0.32958493 -0.17542782 -0.28480065 -0.3889711
0001b0 43 f8 ea be ec ab a9 be 95 f2 8d be af 2f cb be
       -0.45892534 -0.33138978 -0.27724138 -0.39684817
0001c0 84 50 10 3f 90 fe 83 3c 6c 21 1e bd 3b c0 44 be
       0.5637286 0.016112596 -0.038606092 -0.19213955
0001d0 98 f5 6c bf a6 69 15 3c b2 72 e5 bd cb 89 83 be
       -0.92562246 0.009119427 -0.11203517 -0.25691065
0001e0 57 8b 82 bf 46 42 0b bf ee 65 9f bf dd 28 6e bf
       -1.0198773 -0.54398 -1.2452981 -0.930311
0001f0 c8 f5 cb bd d2 ed 2d bf 72 47 2c bf 2a a6 2c bf
       -0.099589884 -0.6794101 -0.67296517 -0.67441046

fc2.weight f4 [3, 128]
000000 dd 36 0c bf 8f d2 a9 bc d8 f4 29 3f ee 9b 58 3c
       -0.54771215 -0.020730285 0.66389227 0.01322077
000010 d7 8b e7 bd 67 0a 88 3d 95 02 aa 3e c6 08 ff bc
       -0.11305969 0.06642609 0.33205095 -0.031132113
000020 b5 bb 43 be 87 ea 05 3f d3 a7 b3 be 28 70 16 bf
       -0.19114573 0.52310985 -0.35088977 -0.58764887
000030 95 15 81 be f3 ee 2a 3c dc b4 a9 3e 05 25 2c 3f
       -0.25211778 0.0104329465 0.33145797 0.6724399
000040 e6 8a e0 bc 83 b5 a0 be b4 6c 4a 3d f4 0a 30 bd
       -0.027409982 -0.31388482 0.049420074 -0.042979196
000050 64 56 a9 bd bc 63 bb bc 18 f1 52 ba b1 0d 19 bf
       -0.08268431 -0.022874705 -0.000804679 -0.59786516
000060 3c 56 a8 be 74 90 a1 3d 23 db 03 bf a7 9c 1c 3f
       -0.32878292 0.0788888 -0.5150625 0.6117653
000070 e1 dd 65 3d a5 5a 62 3e 0a eb 82 be d7 b3 7a bb
       0.056119803 0.2210489 -0.25569946 -0.0038254166
000080 9e 0f 20 bf ef 67 d9 bb f0 d6 18 3f 9e a0 59 3e
       -0.6252383 -0.0066347043 0.5970297 0.21252677
000090 3a 37 89 bd d3 16 72 3d 42 f4 a5 3e 4f 28 fa bd
       -0.06699987 0.059103798 0.32412916 -0.122147195
0000a0 90 61 fd 3e 24 56 43 3f 11 42 71 3e 59 ee 8a 3e
       0.49488497 0.76303315 0.23560359 0.2713497
0000b0 df fe 1b bc 5f 02 aa 3d f1 e0 0b 3f 04 07 a9 3e
       -0.009521215 0.083012335 0.5464011 0.33013165
0000c0 7d 22 12 bf 06 80 d2 3d 75 f2 2c bf f8 22 bc be
       -0.57083875 0.10278325 -0.6755746 -0.3674543
0000d0 28 ba 0d 3d 06 70 37 3f e9 a9 31 3f d9 80 a5 bd
       0.03460136 0.7165531 0.6939989 -0.08081216
0000e0 a1 70 89 3d a9 2a 23 be f1 81 54 3e 44 f4 1b 3c
       0.067109354 -0.15934242 0.20752694 0.009518687
0000f0 27 0e 42 3f 96 e7 3d bf 59 30 72 3d a0 38 35 3e
       0.75802845 -0.741815 0.05912814 0.17697382
000100 96 21 8f bc a9 83 16 3a 7d 86 95 3d 1d 54 84 bd
       -0.01747207 0.0005741665 0.07301042 -0.06461356
000110 cb e1 77 3d b3 77 78 bd 60 b4 60 3d a0 35 27 3d
       0.060518067 -0.06066103 0.05485952 0.040822625
000120 d5 57 83 3c a3 66 9f be 8a 55 92 3a 03 b3 01 bf
       0.016033093 -0.31132993 0.0011164409 -0.50663775
000130 0e 54 a9 be 98 6c 6c bd 79 9f fd bf 5d 5d ea 3d
       -0.3307194 -0.05772075 -1.9814292 0.11443589
000140 a8 26 ab 3c e2 27 23 3f 81 fd d1 bc 35 63 a5 3d
       0.020892456 0.6373273 -0.025633575 0.08075563
000150 1c ad 0f 3f 0a 43 f6 be 35 50 0d be 21 27 72 3f
       0.5612352 -0.48098022 -0.13800128 0.94590956
000160 3a 2e df 3c 98 64 3e 3e 3c c2 83 bd b2 55 5b 3e
       0.027243722 0.18593061 -0.06433532 0.21419409
000170 02 d9 44 3e 3f 8e 7d 3d 68 14 4a 3d 76 c6 e2 3e
       0.19223407 0.061903235 0.049335867 0.4429204
000180 d7 05 d6 bd 0b dd 8b 3f f4 ba d4 3c e9 c0 94 bd
       -0.104503326 1.0926832 0.025968052 -0.07263357
000190 7b 9a 1c 3c 1e 81 d6 bb b8 9b 47 bf a7 0b 99 3d
       0.009558315 -0.0065461537 -0.7797198 0.07472926
0001a0 76 21 63 3f 88 b5 9b bd 8f 99 f6 bd 82 d3 e1 be
       0.8872293 -0.07602984 -0.12041008 -0.4410668
0001b0 e4 7a f3 3e f1 91 22 3f 4c 9f 0b bd 72 3e 05 3e
       0.47554696 0.6350394 -0.034087464 0.13012102
0001c0 9a 59 8a 3f 08 50 84 be 33 df be 3c 18 17 65 bd
       1.0808594 -0.2584231 0.023299789 -0.055930227
0001d0 36 67 0f bf 05 8f bc be 45 dd 81 bd 9e 1e 85 3d
       -0.5601686 -0.36827865 -0.06341032 0.064999804
0001e0 82 2e 16 bf 2c 6b 3b 3d 16 be 0a bf 99 1d 01 be
       -0.58664715 0.045756504 -0.541963 -0.12608947
0001f0 fb 47 20 3d d2 2a 06 bf ec 6f 43 bf 2e 13 f1 be
       0.039131146 -0.5240909 -0.76342654 -0.47084945
000200 ec ce 3b 3f 5d f4 a6 39 81 0e 0a 3f 1c 55 9c bd
       0.7336261 0.00031844052 0.5392838 -0.07633421
000210 f8 b4 6c 3e e9 2a 2b 3d fa de 94 bd 3c ed ea bd
       0.23115909 0.04178897 -0.07269092 -0.1147103
000220 38 e2 38 3e 90 af fb be 67 a0 56 3e 93 a7 d2 bd
       0.18055046 -0.4915738 0.20959626 -0.102858685
000230 d1 a8 dd bc 03 25 39 3c 2f bb 3b 3f f6 56 ec bd
       -0.027058037 0.011300328 0.73332494 -0.11540024
000240 14 14 50 bd a0 62 d8 3d ec 83 13 be 78 b6 76 bc
       -0.050800398 0.10565686 -0.14405793 -0.015058152
000250 13 83 b0 3d 79 49 8b bc 6b e8 86 be 3a f4 e7 bc
       0.086187504 -0.017002808 -0.26349196 -0.028314698
000260 5d ef e1 be 41 9f 15 3d e4 43 31 3d b3 b2 05 bf
       -0.44127932 0.03652883 0.043277636 -0.522258
000270 d3 cf fc 3c a3 e7 14 3f 43 e9 54 bc 12 82 a3 3d
       0.030860817 0.5816595 -0.012995067 0.07983793
000280 77 99 f9 bd ee c4 00 bd 7a 6e 21 3f 7f 0e 50 be
       -0.12187474 -0.031437807 0.630592 -0.2031803
000290 9a 0a f1 3c 5d c5 93 bd d2 9a fa 3b b6 f3 24 be
       0.029424 -0.072153784 0.0076478506 -0.16108593
0002a0 43 7a 4a 3c 1c 7b 4a 3e a3 4d e1 3c 94 42 c4 bd
       0.012358251 0.19773525 0.02750284 -0.09583011
0002b0 62 f3 4d bc 8b 36 1a be 52 9a 21 bf 8e c4 9d 3d
       -0.012570234 -0.15059869 -0.631261 0.077035055
0002c0 24 d1 fa 3b 00 40 82 3b af 57 1b 3f 45 1d 86 3d
       0.007654326 0.0039749146 0.6068067 0.065485515
0002d0 7d 94 a8 bd f2 33 56 be 1f 37 af bd 08 61 9b bd
       -0.08231447 -0.20918253 -0.085554354 -0.075868666
0002e0 f2 c6 23 bd dc 12 39 be 28 3b b8 be 3e 17 ec 39
       -0.03998465 -0.180736 -0.35982633 0.00045030745
0002f0 99 3d 36 3d c5 3b 5c 3f c7 63 aa 3d 19 76 fe 3e
       0.044492338 0.860287 0.08319812 0.49699476
000300 d6 2b 4f 3b 24 ed 47 3d db 53 53 3b 71 a1 44 3e
       0.0031611822 0.04881014 0.0032246027 0.1920221
000310 46 a1 89 3c 14 0b 88 bd 3d 4a 00 bd 2d 5a ae 3d
       0.016800534 -0.06642738 -0.0313208 0.085132934
000320 80 84 62 bc 9a 65 52 3c 95 7d a0 bd e8 5a 4f 3d
       -0.013825536 0.0128416065 -0.07836453 0.050623804
000330 0e f4 be be 3d f1 83 bd a9 b6 cc 3f 2b 8a f2 bd
       -0.37295574 -0.06442497 1.5993243 -0.1184276
000340 c0 2d 96 3b f6 5f 7c 3f 0f 1e 16 bd 3d 12 12 bc
       0.0045830905 0.98583925 -0.03664976 -0.008915481
000350 70 5b 0b 3f 0d 0c a5 bd 2c a7 76 3e 19 08 25 be
       0.544364 -0.08058939 0.24087209 -0.1611637
000360 96 04 4e 3d 4e 3f 08 be c7 04 b5 3d 6b 95 64 bc
       0.050297342 -0.13305399 0.08838802 -0.01395164
000370 00 7a 5b be 50 e9 80 bc 61 2c 87 3d e7 a8 3a bd
       -0.21433258 -0.015736252 0.066002615 -0.045571234
000380 c9 e2 ee bd 16 a7 54 be e0 9a 55 bd 9e 1e aa bb
       -0.116643496 -0.20766863 -0.052149653 -0.005191638
000390 f2 68 a9 bd 7f 1f 86 bd 0d fd 7f 3d a4 78 8f 3d
       -0.0827197 -0.06548976 0.062497187 0.07005432
0003a0 db 9b ed 3c 39 1b ad bd 9c 76 5e 3e 3f 53 b9 3c
       0.029004982 -0.08452458 0.21724933 0.022622703
0003b0 16 75 0c bd 14 a5 3f be 6c 55 4d 3d f4 29 21 bd
       -0.03429135 -0.18715316 0.050130293 -0.03934665
0003c0 34 10 0e bf 38 4f 5b 3e e9 6b 0d 3d 77 6f 81 3c
       -0.55493474 0.21416938 0.03452674 0.01580022
0003d0 6d 10 0b 3e c1 73 36 3e 93 af 87 bd ab 50 7e bd
       0.13580485 0.17817594 -0.06625285 -0.06208865
0003e0 5f 1d c3 bd 2e c0 8c 3d fc 99 16 bf 5f 60 64 be
       -0.095270865 0.06872593 -0.5882871 -0.22302388
0003f0 67 c5 0d bc 4f 28 16 3f 3c 54 36 3e ed a4 e6 3e
       -0.008653021 0.58655256 0.1780557 0.45047703

fc2.bias f4 [3]
000000 89 61 a4 bc 6e 32 3c 3e 41 aa c4 be
       -0.02006604 0.18378612 -0.38411143
