mountain_car_policy_bco.pt (torch, 5328 bytes, 4 tensors)

fc1.weight f4 [128, 2]
0	0x3f098206	0.53714025
1	0xbf0f2e59	-0.55930096
2	0xbf484a04	-0.7823794
3	0x3dc5c1c5	0.09656099
4	0x3ded737e	0.11594294
5	0xbd2e19bc	-0.04250501
6	0x3eafc865	0.34332576
7	0xbf5dc3db	-0.86626977
8	0x3f012578	0.504478
9	0xbe80535d	-0.250636
10	0x3f5bb6b5	0.85825664
11	0xbf1857c3	-0.59508914
12	0xbf25dbae	-0.6478833
13	0x3f5647f5	0.8370355
14	0x3f80675c	1.0031543
15	0x3f9adedf	1.2099265
16	0x3e3d8326	0.1850706
17	0xbe904759	-0.28179434
18	0x3de96445	0.11396078
19	0xbecd63e8	-0.40115285
20	0x3ebb7cdc	0.36618698
21	0xbea1cacd	-0.31600037
22	0x3de18e7b	0.11013504
23	0xbf65c957	-0.89760345
24	0xbefb8741	-0.49126628
25	0x3e4a3481	0.19746591
26	0xbf04e9e6	-0.519194
27	0x3fa45990	1.2839832
28	0x3f8a28f1	1.0793744
29	0xbf05055c	-0.519613
30	0xbed441dc	-0.41456497
31	0x3fa9ae06	1.3256233
32	0x3fa2c3bf	1.2715987
33	0x3f873572	1.0563185
34	0x3e2a5761	0.16634895
35	0x3d03a601	0.032140736
36	0x3e787a1d	0.24265333
37	0xbe86ab02	-0.26302344
38	0x3e0dad4c	0.13835639
39	0xbe1ca970	-0.1529901
40	0xbec9bad6	-0.39400357
41	0xbe64ac16	-0.2233127
42	0x3ec309b5	0.38093343
43	0xbf7ce493	-0.98786277
44	0xbf22df75	-0.6362222
45	0x3f83f410	1.0308857
46	0xbf8eb550	-1.1149082
47	0x3ed260d6	0.41089505
48	0xbf9d92c5	-1.2310416
49	0x3f927318	1.1441374
50	0x3f0680e6	0.52540433
51	0xbef06ca5	-0.4695789
52	0xbd914626	-0.07093458
53	0xbedd7cb1	-0.43259194
54	0xbf441fb0	-0.7661085
55	0xbf9d8e69	-1.2309085
56	0xbfa3dcd6	-1.2801769
57	0x3f857ec7	1.0429314
58	0xbe2bdcf8	-0.16783512
59	0x3f3d37af	0.7391309
60	0xbee61d45	-0.44944206
61	0xbb9c29dd	-0.0047657327
62	0xbf92a64c	-1.1457
63	0xbf90b00d	-1.1303726
64	0xbd4cc25b	-0.04999004
65	0xbeb9b0be	-0.36267656
66	0x3dbd5431	0.09244574
67	0xbe3c800f	-0.18408225
68	0xbe3d0417	-0.18458591
69	0x3fa7adcd	1.3099915
70	0x3edfb006	0.43688983
71	0xbf52541e	-0.821596
72	0x3f92313e	1.1421278
73	0xbe064b73	-0.13114719
74	0x3e592703	0.21206288
75	0xbf941af5	-1.1570727
76	0x3e1fac73	0.15593128
77	0x3f2a3c1e	0.6649798
78	0x3aa211c8	0.0012364918
79	0xbcf2118d	-0.029549384
80	0x3f853ac6	1.0408561
81	0x3f58292b	0.8443782
82	0xbf6d5391	-0.9270564
83	0x3ca3e918	0.020008609
84	0x3e2da8ee	0.16958973
85	0xbf17e9b5	-0.59340984
86	0xbfa0680a	-1.253175
87	0x3f40ab7d	0.7526167
88	0xbeed6728	-0.46367764
89	0xbd0df09f	-0.034653302
90	0x3d9647b1	0.07337893
91	0x3e4af2d9	0.19819202
92	0x3eac8c1f	0.33700654
93	0xbf0e54ea	-0.5559832
94	0xbf9968fe	-1.1985166
95	0x3cde4d8e	0.02713659
96	0x3f81cfd0	1.0141544
97	0x3e143c25	0.14476068
98	0x3f2d2b80	0.676445
99	0xbedbaf6e	-0.4290728
100	0x3fa42a19	1.2825347
101	0xbf5dab39	-0.8658939
102	0xbebbb0ee	-0.36658424
103	0x3fbbf872	1.4685194
104	0x3f2c1821	0.6722432
105	0xbf017ac2	-0.5057794
106	0xbe31dab1	-0.1736858
107	0xbf169ce7	-0.58833164
108	0x3f99564a	1.1979458
109	0xbe82b113	-0.25525722
110	0xbe9ea9d3	-0.3098894
111	0x3f186465	0.5952819
112	0xbe12a94b	-0.14322393
113	0xbeac30c7	-0.33630964
114	0xbfa4759b	-1.284839
115	0xbf5f0a9c	-0.87125564
116	0xbf9981cc	-1.1992736
117	0x3f96d7af	1.1784571
118	0xbf04a1d3	-0.51809424
119	0x3e677803	0.22604375
120	0x3eb1d561	0.34733108
121	0xbe3ab0a4	-0.18231446
122	0x3e12b0d7	0.14325272
123	0xbf23fa36	-0.64053667
124	0x3e9b10a3	0.3028613
125	0xbbce5597	-0.006296824
126	0xbf3d2507	-0.73884624
127	0x3f3773ed	0.71661264
128	0x3f873b42	1.0564959
129	0xbf4352bc	-0.7629812
130	0xbfa5617e	-1.2920377
131	0x3dd7ace5	0.10531024
132	0x3f1a14a3	0.6018774
133	0x3dd65415	0.10465256
134	0xbf97ff78	-1.1874838
135	0x3ef503da	0.478545
136	0x3e29e50f	0.16591285
137	0x3e1d4d72	0.15361574
138	0xbf9e859b	-1.2384523
139	0x3facf5d1	1.3512517
140	0xbe55bff2	-0.20874003
141	0x3e85c3ca	0.26125938
142	0x3dd447ce	0.10365258
143	0xbed92602	-0.4241181
144	0x3fa3692e	1.2766473
145	0xbf8df99d	-1.1091801
146	0x3f0e3f16	0.5556501
147	0x3eec7cf5	0.46189085
148	0xbca54b64	-0.02017755
149	0x3e2bdf7a	0.16784468
150	0x3e267aa1	0.16257717
151	0x3f23f28b	0.64041966
152	0xbe338315	-0.17530473
153	0xbe8df73d	-0.2772769
154	0xbfa212bf	-1.2661971
155	0x3f131037	0.57446617
156	0xbe158882	-0.14602855
157	0xbeea531c	-0.45766532
158	0x3f8a8ca1	1.0824167
159	0x3d0da6c6	0.034582876
160	0x3fa6db20	1.3035622
161	0x3eba6bbf	0.3641033
162	0xbf346946	-0.70473135
163	0x3df3300f	0.11874401
164	0x3f6d2525	0.92634803
165	0xbf475593	-0.7786495
166	0xbf92d83e	-1.1472242
167	0x3fa0bc35	1.2557436
168	0xbf97280b	-1.1809095
169	0x3f1af948	0.60536623
170	0xbf9ec7dc	-1.2404742
171	0x3f9f60fa	1.245147
172	0xbf948b4c	-1.160501
173	0x3f67fec0	0.9062309
174	0xbe50fee1	-0.20409729
175	0xbf050f62	-0.519766
176	0x3f1b4772	0.6065589
177	0xbec5ba8e	-0.38618892
178	0x3c59df6d	0.013297898
179	0xbf32424a	-0.696324
180	0x3e8170d2	0.25281388
181	0xbea3663a	-0.3191393
182	0x3f32aa57	0.6979117
183	0xbe3ef0d3	-0.18646555
184	0x3d4d8a62	0.0501808
185	0x3f22ee49	0.63644844
186	0xbf940ef8	-1.1567068
187	0x3f8db599	1.1071044
188	0x3d858ea9	0.06521351
189	0xbf52c9ef	-0.82339376
190	0x3e8d77a7	0.2763035
191	0x3dbfd29e	0.09366344
192	0xbed1ce46	-0.40977687
193	0xbf34ce93	-0.7062771
194	0x3f0aeb69	0.5426546
195	0xbe8bcd01	-0.27304843
196	0xbf851b77	-1.0399007
197	0x3f845acc	1.0340209
198	0x3e46fe80	0.19433022
199	0xbf10de38	-0.5658908
200	0x3f105840	0.5638466
201	0x3e711cb3	0.23546104
202	0xbf53df9f	-0.82763094
203	0xbcfdff23	-0.031005448
204	0xbf1c14bf	-0.60969156
205	0x3f979589	1.184251
206	0x3ea75d43	0.3268834
207	0xbf5d1cab	-0.8637187
208	0x3e938b8e	0.2881741
209	0xbf0797a8	-0.52965784
210	0x3f993446	1.1969078
211	0x3cbd04c6	0.023073565
212	0xbf75a080	-0.9594803
213	0x3ef3d2a0	0.47621632
214	0xbe0f06b2	-0.13967398
215	0xbee32597	-0.44364616
216	0xbe94bd0f	-0.2905049
217	0xbebe56a0	-0.37175465
218	0xbf432dad	-0.7624157
219	0x3f9ec368	1.2403383
220	0x3e982b32	0.29720455
221	0xbeb6d60f	-0.3571019
222	0xbf8ad1e6	-1.0845306
223	0x3f031335	0.5120118
224	0x3f332e90	0.69992924
225	0xbf96ec5e	-1.1790884
226	0x3f1c2a53	0.6100208
227	0xbea6dbb2	-0.3258949
228	0xbc30686f	-0.010767086
229	0xbf04ab8e	-0.5182427
230	0xbf123e10	-0.5712595
231	0x3f87d785	1.0612646
232	0x3f98b9ba	1.1931679
233	0x3e87f70c	0.2655567
234	0x3f5ab7df	0.85436815
235	0x3c93b133	0.018028831
236	0xbe8ea6f0	-0.27861738
237	0xbbf406c3	-0.007447095
238	0xbf1e8212	-0.6191722
239	0x3f8fc6ca	1.1232541
240	0xbe1d950f	-0.15388893
241	0xbf0509a0	-0.5196781
242	0xbeb1ed6b	-0.34751448
243	0x3f496e6b	0.7868411
244	0x3f1a4361	0.6025906
245	0xbece93a8	-0.40347028
246	0xbf2f9d84	-0.68599725
247	0x3e8f1cd0	0.2795167
248	0x3ea57c6c	0.3232149
249	0x3d8c2c41	0.06844378
250	0x3ccdb986	0.025112879
251	0x3ecffc07	0.4062197
252	0xbf4433d3	-0.7664158
253	0x3ea1f802	0.31634527
254	0x3e9b17a2	0.30291468
255	0xbd78952f	-0.060689148

fc1.bias f4 [128]
0	0xbee19dbb	-0.4406565
1	0x3f74b530	0.9558897
2	0xbeddf281	-0.43349078
3	0x3e15fac3	0.14646439
4	0xbf0c66f6	-0.54844606
5	0xbe2d9481	-0.16951181
6	0x3f2acc3f	0.66717905
7	0x3f299d65	0.6625579
8	0xbe523870	-0.20529342
9	0xbec02982	-0.37531668
10	0xbf58f1a0	-0.8474369
11	0xbf40f1f6	-0.75369203
12	0xbf2c5e41	-0.6733132
13	0x3f87904b	1.059091
14	0xbe199c14	-0.15000945
15	0x3f9af0f7	1.2104787
16	0x3f362f8a	0.7116629
17	0xbf5b775c	-0.85729
18	0xbeaae417	-0.33377144
19	0xbee7ac56	-0.4524867
20	0xbf326b52	-0.6969501
21	0xbf12886c	-0.57239413
22	0x3f2258f8	0.63417006
23	0x3f7ec294	0.9951565
24	0x3f8dcb59	1.1077682
25	0xbe4e4a7c	-0.20145601
26	0xbed90e62	-0.42393786
27	0x3f0bca47	0.54605526
28	0x3f8228ef	1.0168742
29	0x3f997f79	1.1992027
30	0x3f5d9960	0.86562157
31	0x3df2fbd6	0.1186444
32	0xbed28cb4	-0.41122973
33	0xbea88c02	-0.32919317
34	0x3f4cb35d	0.79961187
35	0xbd88b786	-0.06675629
36	0x3ce2f8b9	0.02770649
37	0xbf200de3	-0.6252119
38	0xbf1709eb	-0.5899951
39	0xbeefcb1b	-0.46834645
40	0x3f1140ec	0.5673969
41	0x3f7e9517	0.99446243
42	0xbf0d8aaa	-0.5528971
43	0x3f10029f	0.56254
44	0x3fa06b42	1.2532732
45	0xbdcde5ba	-0.100535825
46	0xbf2f2cab	-0.6842753
47	0x3f478dc9	0.7795072
48	0x3f18028a	0.59378874
49	0xbeb1a6bb	-0.34697518
50	0xbec46252	-0.38356262
51	0x3f815463	1.0103878
52	0xbf1eab13	-0.6197979
53	0xbf0366c5	-0.5132869
54	0xbe45aaf8	-0.193035
55	0xbee06af7	-0.43831608
56	0xbf221583	-0.63314074
57	0x3e766a6a	0.24064031
58	0x3eeefd02	0.46677405
59	0xbf333400	-0.7000122
60	0xbf0ee0fe	-0.5581206
61	0x3dc51d1e	0.09624694
62	0xbf2e7c45	-0.6815837
63	0x3f8072b9	1.003501
64	0x3d4eb448	0.0504649
65	0x3f24d109	0.6438146
66	0xbec0dc3d	-0.37668028
67	0x3f8be2d2	1.0928595
68	0xbf6b36a9	-0.9188028
69	0x3f91eb54	1.1399941
70	0x3f9d7ea7	1.2304276
71	0xbf517036	-0.81811845
72	0xbdcfe422	-0.10150935
73	0xbf116643	-0.56796664
74	0xbed1c64c	-0.409716
75	0xbf22f613	-0.6365673
76	0xbf3898ba	-0.7210804
77	0x3f96cc63	1.1781124
78	0xbf1c5ce8	-0.61079264
79	0x3d7193a6	0.0589787
80	0x3f498bdc	0.78729033
81	0x3f285687	0.6575703
82	0x3dd53c74	0.10411921
83	0x3ea9743a	0.33096486
84	0x3fa263fd	1.2686764
85	0x3a8f9e67	0.0010957242
86	0x3ec1d0af	0.37854525
87	0xbecd1543	-0.40055284
88	0xbeaaf710	-0.3339162
89	0xbdb52da6	-0.088465974
90	0xbf1bd831	-0.60876757
91	0xbd833670	-0.064068675
92	0xbf897581	-1.0738984
93	0x3f2a15ed	0.66439706
94	0xbf007a77	-0.50186867
95	0xbf6d75dd	-0.9275797
96	0xbf203f46	-0.6259655
97	0xbee301c5	-0.44337288
98	0x3f7dbb31	0.99113756
99	0xbea26ce6	-0.31723708
100	0xbf26bd39	-0.6513248
101	0x3f985dcf	1.1903628
102	0x3f437dbd	0.76363736
103	0xbefb1e89	-0.49046734
104	0xbefce400	-0.493927
105	0xbebc0779	-0.3672445
106	0x3f5bd67c	0.8587415
107	0xbf21e9dd	-0.6324747
108	0xbf128191	-0.5722895
109	0x3fb1f04b	1.3901457
110	0xbf15060a	-0.5821234
111	0x3f86963a	1.0514596
112	0xbe0067c4	-0.12539583
113	0x3dd45636	0.10368006
114	0xbee8e760	-0.45489025
115	0x3f9a1ab3	1.2039398
116	0x3f400774	0.7501137
117	0x3f28d73d	0.6595343
118	0xbf1cf82c	-0.6131618
119	0x3f96747a	1.1754296
120	0xbf168601	-0.58798224
121	0x3f93c9ac	1.154592
122	0x3d24d248	0.040239602
123	0x3f586ee2	0.84544194
124	0xbe3b0a88	-0.18265736
125	0x3f896abb	1.0735697
126	0x3fa7ab03	1.3099064
127	0xbf6f0fd0	-0.933835

fc2.weight f4 [3, 128]
0	0xbd80785c	-0.06272957
1	0x3f1b41a8	0.6064706
2	0xbda96d96	-0.08272855
3	0x3f0e4e86	0.5558857
4	0x3d3c48f3	0.045968007
5	0x3f08b4f1	0.53401095
6	0x3f2bf156	0.67165124
7	0x3f302ab2	0.6881515
8	0x3b87b76d	0.004141739
9	0x3d1eea8f	0.03879791
10	0x3f065aaa	0.5248209
11	0x3f040645	0.51572067
12	0xbd127418	-0.035755247
13	0x3f283e3b	0.65719956
14	0x3f0ea357	0.55717987
15	0x3f1a7c3e	0.6034583
16	0x3f2ffa4f	0.68741316
17	0x3f0f6cda	0.5602547
18	0x3f0f0df8	0.5588069
19	0x3d0d5214	0.034502104
20	0x3d804597	0.06263273
21	0x3f0b2ddc	0.5436685
22	0x3f216ed1	0.6305972
23	0x3f2d8348	0.67778444
24	0x3f29dc55	0.66351825
25	0x3f07f6dd	0.5311106
26	0x3c135617	0.008992693
27	0x3f2858ea	0.6576067
28	0x3f2e3a89	0.6805807
29	0x3f23324c	0.6374862
30	0x3f18a8d2	0.596326
31	0x3f2a3d4b	0.66499776
32	0x3a79a723	0.00095235015
33	0xbd7d91ce	-0.06190663
34	0x3f20ee1a	0.62863314
35	0x3f198401	0.59967047
36	0x3f124813	0.57141227
37	0x3f0cb6f8	0.5496669
38	0x3db24b29	0.08705742
39	0x3f11d608	0.5696721
40	0x3f2aeb7c	0.6676557
41	0x3f249bd9	0.64300305
42	0xbd855820	-0.06510949
43	0x3f26471a	0.6495224
44	0x3f230947	0.6368603
45	0xbcd7c20e	-0.02633765
46	0x3cb595e8	0.022166207
47	0x3f219438	0.6311679
48	0x3f26dc13	0.65179557
49	0x3f0df3dd	0.5545023
50	0x3f0f8f34	0.56077886
51	0x3f1235c5	0.57113296
52	0x3c9427af	0.018085329
53	0x3daa6f10	0.08321965
54	0x3f0e4a24	0.5558188
55	0xbd1371ab	-0.035997074
56	0x3f169378	0.5881877
57	0x3f66c81d	0.901491
58	0x3f11a962	0.5689908
59	0xbd29fa58	-0.041498512
60	0x39689ae0	0.0002218294
61	0x3f14fe31	0.58200365
62	0x3f22f1e6	0.6365036
63	0x3f28eebd	0.65989286
64	0x3f070fd8	0.5275855
65	0x3f2ff2fd	0.68730146
66	0x3b6b6d8a	0.0035923445
67	0x3f2ada20	0.6673908
68	0x3f170938	0.5899844
69	0x3f0f4d55	0.55977374
70	0x3f2f85e8	0.685637
71	0x3f04bc6e	0.5185002
72	0x3f050c03	0.51971453
73	0x3da8b483	0.08237555
74	0x3d07aa17	0.033121195
75	0xbd1e8f0b	-0.038710635
76	0x3f0c2d28	0.547564
77	0x3f2582c6	0.6465267
78	0x3f112a52	0.567052
79	0x3f18b9f3	0.59658736
80	0x3f2853c3	0.6575281
81	0x3f158281	0.5840226
82	0x3f11150a	0.5667273
83	0x3f2a1c57	0.66449493
84	0x3f2f0dd0	0.6838045
85	0x3f191ec8	0.59812593
86	0x3f23f628	0.6404748
87	0x3cf74504	0.030184276
88	0x3f0a5739	0.5403934
89	0x3f091476	0.53546846
90	0x3f0b0587	0.5430531
91	0x3f1a5f11	0.6030131
92	0x3f077d30	0.52925396
93	0x3f0e21a1	0.55520064
94	0x3f0882f1	0.533248
95	0x3f154e96	0.5832304
96	0x3d66a5ab	0.056310337
97	0x3bcfa77e	0.0063371053
98	0x3f2d9a16	0.6781324
99	0x3f05ad3d	0.52217466
100	0x3af3b5cc	0.0018593608
101	0x3f21672d	0.6304806
102	0x3f24b854	0.6434376
103	0x3f0b042e	0.5430325
104	0xbbb3a2f4	-0.005482072
105	0x3f163e70	0.5868902
106	0x3f2da8d1	0.6783572
107	0x3cea539a	0.028604317
108	0x3f03d35f	0.514944
109	0x3f2a8d66	0.66622007
110	0xbd4d7abf	-0.050165888
111	0x3f2e6343	0.6812021
112	0x3f05fcbf	0.52338785
113	0x3f1e7813	0.6190197
114	0xbd0671fe	-0.032823555
115	0x3f309ee0	0.68992424
116	0x3f25ecc4	0.648144
117	0x3f2baa86	0.67057073
118	0xbda24d1d	-0.079248644
119	0x3f2eacd4	0.68232465
120	0xbd77d15b	-0.06050239
121	0x3f232f0a	0.6374365
122	0x3f1666b9	0.5875049
123	0x3f185704	0.59507775
124	0x3d765af9	0.060145352
125	0x3f14f6fa	0.58189356
126	0x3f2c1def	0.67233175
127	0x3f0c20ec	0.54737735
128	0x3d01cd0f	0.0316897
129	0xbf2fc208	-0.68655443
130	0x3d0d77a5	0.03453793
131	0xbf2cda56	-0.67520654
132	0x3b90f8da	0.0044241967
133	0xbf281897	-0.6566252
134	0xbf247fc3	-0.6425745
135	0xbf277492	-0.6541225
136	0xbd722065	-0.059112925
137	0xbd4c52a8	-0.049883515
138	0xbf2e4af7	-0.6808314
139	0xbf191a83	-0.5980608
140	0xbd5c1a14	-0.053735808
141	0xbf2881f4	-0.6582329
142	0xbf2d2a9e	-0.67643154
143	0xbf30a9e1	-0.69009215
144	0xbf095a3e	-0.53653324
145	0xbf2f25f1	-0.6841727
146	0xbf1febe0	-0.6246929
147	0xbd87bf1f	-0.0662825
148	0xbd4a34c2	-0.04936672
149	0xbf2c918a	-0.67409575
150	0xbf19601f	-0.59912294
151	0xbf113858	-0.567266
152	0xbf28290b	-0.65687627
153	0xbf0c4a30	-0.548007
154	0xbd07efa1	-0.033187512
155	0xbf24a6ac	-0.6431682
156	0xbf158d6d	-0.58418924
157	0xbf2f4408	-0.6846318
158	0xbf1db2e5	-0.61601096
159	0xbf0b1d64	-0.5434172
160	0xbda31c49	-0.07964379
161	0x3ce72e9b	0.028220465
162	0xbf2da7f3	-0.67834395
163	0xbf288697	-0.6583037
164	0xbf1afa50	-0.60538197
165	0xbf08fde0	-0.5351238
166	0xbda05ba1	-0.07829977
167	0xbf061bce	-0.52386177
168	0xbf14cb97	-0.58123153
169	0xbf20cfc1	-0.6281701
170	0xbd8d4342	-0.06897594
171	0xbf18e17d	-0.5971907
172	0xbf05cc5f	-0.5226497
173	0xbd89a6ca	-0.067212656
174	0xbd871471	-0.06595696
175	0xbf184ed7	-0.594953
176	0xbf1a5215	-0.602815
177	0xbf0f74b6	-0.5603746
178	0xbf074b78	-0.5284953
179	0xbf2e83b9	-0.6816974
180	0x3d616dbc	0.05503629
181	0x3d0e79a9	0.034783993
182	0xbf21b67f	-0.6316909
183	0x3cf61643	0.030039912
184	0xbf22ff87	-0.63671154
185	0xbf44c5c6	-0.7686428
186	0xbf28d834	-0.659549
187	0xbd6620b9	-0.05618355
188	0x3d401a7b	0.046900254
189	0xbf0d34f4	-0.55158925
190	0xbf0df3d9	-0.55450207
191	0xbf05e6c4	-0.52305245
192	0xbf22b279	-0.6355358
193	0xbf05302f	-0.5202665
194	0xbd78cfde	-0.060745113
195	0xbf041e99	-0.5160919
196	0xbf1c6b7d	-0.61101514
197	0xbf2025ef	-0.6255788
198	0xbf194669	-0.5987306
199	0xbf108c44	-0.5646403
200	0xbf04e653	-0.51913947
201	0x3d89a469	0.06720812
202	0xbce89a31	-0.028393837
203	0xbcfaafaf	-0.03060135
204	0xbf0919e1	-0.53555113
205	0xbf116123	-0.56788844
206	0xbf0c4ba2	-0.54802907
207	0xbf1436a5	-0.5789588
208	0xbf0d4fb9	-0.5519977
209	0xbf241e47	-0.641087
210	0xbf2e7d83	-0.68160266
211	0xbf03dd4f	-0.51509565
212	0xbf1a959e	-0.6038455
213	0xbf2e81e3	-0.6816694
214	0xbf2cb3c4	-0.674618
215	0x3d4aca7c	0.04950951
216	0xbf1f8bf9	-0.62322956
217	0xbf0a833b	-0.5410649
218	0xbf25e6a2	-0.6480504
219	0xbf1598b6	-0.58436143
220	0xbf089ff0	-0.53369045
221	0xbf2e600e	-0.6811532
222	0xbf07065e	-0.5274409
223	0xbf14574f	-0.5794572
224	0xbdb38e54	-0.08767381
225	0xbd6d481b	-0.057930093
226	0xbf2526bd	-0.64512235
227	0xbf0fe20c	-0.56204295
228	0xbcd8dbc5	-0.026471982
229	0xbf30560d	-0.68881303
230	0xbf147f1d	-0.5800646
231	0xbf200dd6	-0.6252111
232	0x3d6e00fe	0.058106415
233	0xbf08c71b	-0.5342881
234	0xbf0d0a2d	-0.5509365
235	0xbd3d2213	-0.046175074
236	0xbf28d1b1	-0.65944964
237	0xbf0c80e8	-0.54884195
238	0xbc7e3d77	-0.015517584
239	0xbf1d0855	-0.6134084
240	0xbf089ebd	-0.53367215
241	0xbf0c5433	-0.5481598
242	0x3d3b4166	0.045716666
243	0xbf1535bc	-0.5828512
244	0xbf2401d3	-0.64065284
245	0xbf2597d7	-0.64684814
246	0xbd6f7f8c	-0.058471248
247	0xbf08e857	-0.5347952
248	0xbcd8286e	-0.026386466
249	0xbf27bf8e	-0.65526664
250	0xbf20fd4f	-0.6288652
251	0xbf181d8d	-0.5942009
252	0x3d43510e	0.04768472
253	0xbf2a4b31	-0.66520983
254	0xbf13e260	-0.57767296
255	0xbf29aa12	-0.6627513

fc2.bias f4 [3]
0	0x3f251c65	0.6449645
1	0xbf05281a	-0.52014315
2	0xbf1b5adb	-0.6068551
