mountain_car_policy_5.pt (torch, 5232 bytes, 4 tensors)

fc1.weight f4 [128, 2]
00000000: 2eef 4a3f d5d7 0dbd ccd8 39bd f91e 58be
00000010: 8ad1 a13f e635 873f 5790 603f be92 df3e
00000020: 0603 0440 92e7 4a40 f701 e63e c2d8 93bf
00000030: e702 60be 04e3 e340 bea2 a53f b157 413f
00000040: e34c 37be b1b4 08bf 9088 733f 2f0d 49bf
00000050: 81b5 9a3f 991a 6dbe d857 423f a7dd 0b3f
00000060: c1cb 693f c2e7 c3be 7c91 1a3f 8c75 6ebf
00000070: eec0 033f 14d9 c63f 36c6 a83e e602 35bf
00000080: b95d 443e 0c7a 49bd 68c7 9c3f dca1 a63e
00000090: 98ac 603e a0a3 8e3e 138b 0e3e c957 a23e
000000a0: 14d5 8e3e 5be6 1fbf 213c ff3e 23e9 1c3f
000000b0: 8933 233e d340 7e3d ba9c c4be 8761 3cbf
000000c0: d6b5 093f 8b73 85be 6395 223f 2fbc 0dbf
000000d0: e7a9 3d3f 0e67 bfbe c15b 0b3f bbc0 91bf
000000e0: ae89 9c3f 636c aa3f e00f e83e 8ecd 66be
000000f0: ad56 a73f f025 f43e b423 4fbc dec9 af3d
00000100: 86d7 d43e 60df ebbe 1d8e bdbe eb5b 40bf
00000110: b7fe 2c3e 1540 02bf ed11 6f3f 24a4 6bbe
00000120: 0c66 723f 5327 83bc 29a2 543e 6f99 a63e
00000130: 744c 123f b79c 97be 1161 f9bd 7ce8 acbe
00000140: a19a 1340 474a 0940 07bf 053f 2129 8c3e
00000150: f8cc 583f d9a6 46bf 600a a53f 6aaf bd3f
00000160: 1be7 cf3e 684f 29be 2f92 463f 1c30 e5be
00000170: 7578 e13e 7f21 383f 8b8e 6c3f b29f b3bf
00000180: c8f9 043f 8216 67be d803 42be 3f90 2841
00000190: 919f b13f 9129 3f40 6496 213f d3ef d6be
000001a0: 7b6e 4f3f a495 09bd 73de 903c 339c 4dbf
000001b0: 6e64 6f3f 1e34 1f3f 7212 aa3e 3267 b93e
000001c0: 10b7 913c d659 163f 2f84 173f d873 3a3f
000001d0: 7d39 f7bd d45b 443f 4748 473f 4a60 1bbd
000001e0: 47cc 1940 5669 8f40 61f7 17be f430 d73e
000001f0: a67f 153f ff51 6e3f 8479 073f 5ed2 193f
00000200: 3cb4 97be d1e4 2841 33ae 66be d397 b940
00000210: 7456 893d c6b6 963e be19 703f 9cbc 7a3f
00000220: 77b2 49be 98a2 0041 0005 233f 86c6 2cbf
00000230: b331 d03e 4871 ee3e 04f6 d9be 33b5 b8be
00000240: a105 9d3e 406f a6be 0fad c93e 758e 183e
00000250: 9a05 913e 5242 3c3e 4ce0 843e 2afb b1be
00000260: 38fd c03f ceb8 7940 6684 3fbd d280 223f
00000270: 28b3 d73e 93b2 83bf f941 0140 0cb2 a93f
00000280: 818a 273f 7e01 b7be 8522 6bbe fa5a 16bf
00000290: f830 423f c0e0 99bd 3d44 843f 8aa9 fa3e
000002a0: 4908 e93e 0987 c1bd 8f4a 1a3f 5f2a 1fbf
000002b0: 8c5d 0640 9f50 c33e 18bd 0240 2a33 d13f
000002c0: 511d 03bc c992 433f 6940 1a3f c972 ed3d
000002d0: eefc 9c3f e6c2 8c40 8db1 763e c7e9 743f
000002e0: aa88 923e 29dc b93d 5a74 c4bd 6a9d 32be
000002f0: 1d18 73bd 4bcd 593e df78 1640 9b63 5640
00000300: 0620 3a3f 901a 21bf a58a c13f fe88 33bd
00000310: 9d44 8a3f d92e 35bf 3e7d 90be 9438 183f
00000320: d07c 55be b6cd 17bf c644 8a3f ce22 d8be
00000330: 17cd 94bd f68b 923f f84e ce3e 0d2e be3f
00000340: 4b40 043f b93b b8be 3c56 863f 1b36 073f
00000350: d187 0d3f 154e 8d3f 46fa dbbc f34c 3a3f
00000360: b30a 9e3f d0d5 11bf 537e 6440 69a7 2040
00000370: daf2 093f e9de b6be 7997 8a3f 13f5 cc3e
00000380: 0315 ea3e a1b5 7abe 6e7b 903d 5667 b33d
00000390: 5367 c23e 3c83 b03e cd25 543e 9b55 063e
000003a0: 4cc1 2e3e c371 1fbf 62f7 003f c35a 9e3e
000003b0: a7f0 8f3e 67c0 53bf efe2 b93b cd7c cd3d
000003c0: 7a9c 5abe 49c8 e240 d366 9d3f 1196 0a3f
000003d0: 5970 1fbe 3333 133e 70f6 583f 1adc b4bf
000003e0: 8b57 65be 2a55 103f 0fda 45bb 6964 e7bd
000003f0: c84b b1be 7a55 9b3d ae9c 393f 3a6b f13d
0.7927121 -0.03462966 -0.04537277 -0.21105565 1.2642071 1.0563323 0.87720245 0.43666643
2.0626845 3.170384 0.44923374 -1.1550524 -0.21876107 7.121462 1.294029 0.7552443
-0.17900424 -0.53400713 0.9513025 -0.7853574 1.2086641 -0.23154677 0.7591529 0.5463509
0.9132653 -0.38262755 0.6037824 -0.9314811 0.5146626 1.5534997 0.32963723 -0.7070755
0.19176377 -0.04918866 1.2248354 0.32545364 0.2194084 0.2785921 0.1392024 0.317076
0.2789694 -0.6246087 0.49850562 0.6129324 0.15937628 0.06207354 -0.38400823 -0.73586315
0.53793085 -0.26064715 0.63509196 -0.5536527 0.74087375 -0.37383312 0.5443688 -1.1386942
1.2229517 1.3314327 0.45324612 -0.2253935 1.3073326 0.47685194 -0.01264279 0.08583425
0.4157068 -0.4606886 -0.37022486 -0.75140256 0.16894041 -0.5087903 0.9338673 -0.23011833
0.9468696 -0.016009962 0.20764984 0.32538936 0.5714791 -0.2961175 -0.12176717 -0.33771122
2.3063128 2.1451585 0.5224461 0.2737513 0.8468776 -0.7759834 1.2893791 1.4819157
0.40606007 -0.16534197 0.7756681 -0.44763267 0.44037214 0.7192611 0.92405003 -1.403311
0.51943636 -0.2256718 -0.18946779 10.535216 1.3876821 2.986912 0.631201 -0.41979846
0.81027955 -0.033589974 0.017684197 -0.80316466 0.9351262 0.621889 0.33217198 0.36211544
0.017787486 0.5873083 0.5918607 0.72833014 -0.12071512 0.7670262 0.7784466 -0.037933625
2.403093 4.4816084 -0.14840461 0.42029536 0.583979 0.93093866 0.52919793 0.6008662
-0.29629695 10.555863 -0.22527389 5.799783 0.06705943 0.2943632 0.9378928 0.97944045
-0.19696985 8.039696 0.63679504 -0.6749042 0.40662917 0.46570802 -0.42570508 -0.36075744
0.30668357 -0.32506752 0.39389846 0.14898093 0.28324586 0.18384674 0.25952375 -0.34761935
1.5077276 3.9019046 -0.046757124 0.63477814 0.42128873 -1.0288872 2.0196517 1.325746
0.65445715 -0.35743326 -0.22962387 -0.5873257 0.7585597 -0.07513571 1.0333325 0.48957473
0.45514134 -0.09449584 0.6027002 -0.6217403 2.0994596 0.38147447 2.0427914 1.6343739
-0.008002595 0.7639585 0.6025453 0.11594159 1.2264688 4.3987913 0.24091168 0.95669216
0.2861989 0.09075195 -0.09592505 -0.17442861 -0.059349168 0.2126972 2.3511274 3.3498294
0.72705114 -0.62931156 1.5120436 -0.043831818 1.0802189 -0.7077461 -0.28220552 0.5946133
-0.20848393 -0.59298265 1.0802238 -0.42214054 -0.0726568 1.1448963 0.40294623 1.4857804
0.51660603 -0.35983065 1.0495067 0.52816933 0.55285364 1.1039454 -0.026852738 0.72773665
1.2347015 -0.56966877 3.5702102 2.510218 0.5388619 -0.35716942 1.0827476 0.40030727
0.45719156 -0.24483348 0.07054792 0.08759944 0.37969455 0.34475124 0.20717545 0.13118593
0.17065924 -0.6228296 0.50377476 0.3092862 0.2811329 -0.8271546 0.0056728045 0.100335695
-0.21348754 7.086949 1.2297004 0.54135233 -0.15570201 0.14375 0.84751034 -1.412967
-0.22396676 0.5637995 -0.0030189788 -0.112984486 -0.3462813 0.07584663 0.725047 0.1178803

fc1.bias f4 [128]
00000000: ae90 38bf b2d2 11bf 7a80 913e 17c4 8cbe
00000010: 7ca2 8239 ad5a 42bf cbb1 dcbd 364c 9abe
00000020: b276 95be 6044 1dbf bf2f adbe 8868 02bf
00000030: 498f 0cbf c7cc 2cbf 3259 15bf ed66 1abf
00000040: 6055 02bf 2eaa bfbe 27c3 69be 0db0 5cbf
00000050: 893d efbe 063b 0fbf 747f e4bd 8a4c 21bf
00000060: 0bb5 86be 8971 34bf 3570 f4be 8ed7 16bf
00000070: 58ef a5bd 8848 8bbe a6d4 a6bd 5f07 f6bd
00000080: 055c 54bf 3365 24bf 71d5 25bf 18a0 45bf
00000090: fc40 19bf f194 27be dbae 8dbe 3589 40bf
000000a0: a6b7 0cbf c847 d5be 8ffd f5be 72d9 f8be
000000b0: 8e66 48bf cbfe 01bf d63b 3cbf c142 15bf
000000c0: a9bd 50bf 0f87 293d 4b48 1cbb 6949 debe
000000d0: a923 17bf 53af 41bf bf9b e23d ce9d 3dbf
000000e0: 7433 5dbe e960 1bbf 0536 93bf f22e 1ebf
000000f0: 3757 e53a 228b 59be c12c f5be 6d4b 0dbf
00000100: 5ff4 f23c fa34 aabd 7954 2abf c142 56be
00000110: 045c 34bd 3feb 2abf 10c3 1dbf 13e3 4cbf
00000120: a7a7 12bf 6556 01bf c2d2 90be 7880 4fbf
00000130: dcd1 58bb 7e48 b0be a460 89bf 9ed7 cabe
00000140: da92 cfbe dc41 0dbf 6c46 29bf 4078 b7be
00000150: 5771 42bf 5c5c 12bf c1e1 00bf 68a4 5fbd
00000160: a80e a4be bd5b 39bf bc34 cabc 8757 4abf
00000170: 705f 7abf f1ba 13bf 62c4 26bf f45a c93b
00000180: 4cd2 51bf 99c7 2f3f 6da7 3bbf 10ea 1abf
00000190: 57ff fdbe ccb8 b0be 3314 8cbf 1277 10bf
000001a0: d462 58bf d5e9 87be c795 19bf db3c 90bf
000001b0: 1178 b4be 34a3 a1bf 1187 0abf f12b a0be
000001c0: 4ae0 22bf ef8c 17bf 99b6 58bf 603e 32bf
000001d0: e987 c3bd ebca 71bf 8428 53bf 7900 96bf
000001e0: 139d f0bd 890a 9abe 695c f2be e933 64bf
000001f0: d5f2 87bf 2bbc a6be 90b8 fbbe b5fa eabe
-0.72095764 -0.5696212 0.28418332 -0.27493355 0.00024916593 -0.7591961 -0.10776099 -0.3013627
-0.2919212 -0.61432457 -0.3382549 -0.5094075 -0.54906136 -0.67499965 -0.58339226 -0.603133
-0.5091152 -0.37434524 -0.22828351 -0.8620613 -0.46726635 -0.5594944 -0.11157122 -0.63007414
-0.2631 -0.7048574 -0.47741857 -0.5892266 -0.08102292 -0.27203774 -0.08146028 -0.12013125
-0.8295291 -0.6421692 -0.6477881 -0.7719741 -0.59864783 -0.1636541 -0.27672467 -0.7520936
-0.54967725 -0.41656327 -0.48045012 -0.48603398 -0.78281486 -0.5077941 -0.735288 -0.58304983
-0.815394 0.041388568 -0.00238468 -0.43415383 -0.5903879 -0.7565815 0.110648625 -0.74068916
-0.21601659 -0.6069475 -1.150086 -0.6179038 0.0017497306 -0.21244481 -0.47885707 -0.55193216
0.02965754 -0.08310886 -0.66535145 -0.20923902 -0.044033065 -0.6676521 -0.61625767 -0.8003399
-0.5728707 -0.5052245 -0.28285795 -0.810554 -0.003308407 -0.34430307 -1.0732617 -0.39617628
-0.40541726 -0.5517862 -0.6612308 -0.3583393 -0.7595419 -0.5717218 -0.50344473 -0.05460015
-0.32042432 -0.72405607 -0.024683349 -0.79039806 -0.97801876 -0.57707125 -0.65143406 0.0061448757
-0.8196151 0.68663937 -0.73302346 -0.605134 -0.4960887 -0.3451599 -1.0943664 -0.56431687
-0.845258 -0.26545587 -0.5999417 -1.1268572 -0.35247853 -1.2627931 -0.54112345 -0.31283525
-0.6362349 -0.5919942 -0.8465362 -0.69626427 -0.09547407 -0.94450253 -0.82483697 -1.1718894
-0.117487095 -0.30086163 -0.47336128 -0.8914171 -1.0620981 -0.32565436 -0.49164248 -0.458944

fc2.weight f4 [3, 128]
00000000: 847e ad3e 6fe1 b9bc b743 743e e20f 543e
00000010: 1bbb 30bf 3ea3 1ebf cefa f4be 07a7 21be
00000020: 832a a63d 5af8 483e 2f7a ca3d d5e0 bb3e
00000030: 8e79 dd3d f358 e83e 23e8 003f 6724 3cbb
00000040: 6ea8 a33d 11ef 303e 743b acbd cda7 cb3e
00000050: 3eaf 11bc e379 ff3e 3c67 993d da79 0fbf
00000060: 1764 67bd e983 d0bc f4de 9c3e f282 0ebf
00000070: 083e bfbd 4786 8fbd d562 19be be7d 423d
00000080: 2046 d23e 17e1 18bf 6f74 ef3c fd6d 873e
00000090: 63b7 2b3e 730f 0a3d f273 fcbc 33ca 0ebf
000000a0: dd04 45bf affc 6b3c a423 ec3e 0f8b 44be
000000b0: ef1a de3e ac5b 9b3d 6035 1a3e e1e9 b63e
000000c0: 671b 13bf 02de c1c0 8fce aabe d440 5e3d
000000d0: 6684 2bbf 31f8 0cbf ff86 e23d fd03 0fbe
000000e0: ccdb 863d 616d cd3e 564d ef3e 0f94 103e
000000f0: 5bb0 17bf 1273 00bc 025d bdbe 8b2b 053f
00000100: b654 c5c0 2f74 97bd 695f 663d c482 933d
00000110: c55a 4ebf 0765 1abd 81ef ea3e 3d7a 24bf
00000120: 1faa 943d 3a93 9abd 9460 933d 48db 03bf
00000130: 5d0e 17be 43bd 393c 263c 05bf 9016 23bf
00000140: 1957 ae3d 8cd8 293d 9143 703e 5e4c 723e
00000150: 4385 14bf 4cfa 0abf f9ca 4cbf 336a 4fbf
00000160: 4530 1a3d 4029 9e3e 2964 00bf afc5 853e
00000170: f907 63be a544 b13d 430a 82bd 4b1f 7bbf
00000180: 60ea 943e e3b6 5a3f 46bc 7a3e 2dcf 083d
00000190: 9311 ab3d 7a4d 853e cbab 393e d290 c23e
000001a0: 7c18 a63e dd94 5bbd 08c5 893e d113 9d3e
000001b0: fb77 913e ed3c 27bf c315 87b9 6761 cf3d
000001c0: 7be7 32bd b1fc fa3c fa02 04bf f0f7 81bd
000001d0: 184e 833d 7841 1dbf 5094 1bbf b308 23bf
000001e0: 724f 05bf 8f46 71bd baa0 00bd b303 7a3e
000001f0: aa4b b83e 35fc 063d 5ea4 ee3c 2d26 8d3e
00000200: bd35 423e bcc5 4a3d 8402 c3be dd54 663e
00000210: ea31 afbe 6469 113f 1d67 5fbf b091 9a3e
00000220: c10f fdbc 02c1 0fbe e6ec 883e f042 a13e
00000230: 694a 20be a009 7e3e 4a2e 133f 7736 2b3d
00000240: efd3 4e3d 9fa4 ed3e e45b 1e3d 6058 ac3e
00000250: 1f9d 26bd 9f7e a53e f5ea 7d3c 231e 16bf
00000260: 39e6 98bd bba4 943d ab43 f43d 5e3f 07bf
00000270: 76ee 293d d39a 22bd 7f8e 0c3d c7ef 7cbd
00000280: 41af 553e 98dc 06bf ef8e 6a3c 4ae8 fc3d
00000290: f0f5 553d ef19 283d 8ada 7fbd d81a 26bf
000002a0: f156 e73f 84e1 ae3d 131f 8f3e d7fc ee3f
000002b0: 8eea 8b3e 02ab e7bd f708 f7bc ca0b c33c
000002c0: 9b66 14bf 20b2 b53f 28a7 84be dd4e 8f3c
000002d0: 893f 18bf a8cf 03bf 844f 36be ea71 a6be
000002e0: b9da 5a3c 8aa0 883e 3a52 133f 0525 f8bd
000002f0: 1ebe 49bf 7b9f b3bd 3ba8 9abe af14 fe3e
00000300: b537 1340 1e75 33bf 35fd ecbc cc42 233e
00000310: b972 0fbf 3644 463c e3ae d73e 372a 04bf
00000320: 59fa a13d 59a5 833d a73b 00bc 8aef 0ebf
00000330: 17a1 f9be d9f7 033d 981d 13bf 01fe 8b3f
00000340: ac86 a0bd 3eab feb9 928b 103d bb16 183e
00000350: 0236 08bf df54 1fbf f22b 8c3f ba8b 913e
00000360: a6e4 14bf 1dca 353e 6f0c 2cbf 68ce 7b3c
00000370: 78e0 d6be d5ab 23bd 1ef1 a13c 4b83 8abd
00000380: ccbb 033c a389 f6be dd49 413d b5d7 b4bd
00000390: 3ca1 a8bd 31af ff3d ce6b 5a3d d347 b83e
000003a0: 6535 533d e65b 97bd bdf8 353e 9086 113e
000003b0: 9b65 573e 3553 6740 46ed 5c3c 0f14 393e
000003c0: 3388 87bd 2b62 373d ec09 1ebf 8d7b 493d
000003d0: 67f5 84bd 1a98 08bf a40d 1abf ebf0 2dbf
000003e0: 3a80 28bf 878a 8b3e 3900 863a 7b9d adbd
000003f0: 2c33 3a3f 3fff 923d a3dd b2bd e7f3 813d
0.33885586 -0.022690503 0.23853956 0.20709184 -0.690355 -0.6196784 -0.478476 -0.15786372
0.08113577 0.19625989 0.09886586 0.3669497 0.108142 0.45380363 0.5035421 -0.002870822
0.0799111 0.17278697 -0.08409777 0.3977646 -0.008891879 0.4989768 0.074903935 -0.56045306
-0.056491937 -0.025453525 0.3063885 -0.55668557 -0.093380034 -0.07008033 -0.14979108 0.0474832
0.41069126 -0.5971846 0.029230325 0.26451102 0.16769175 0.03370614 -0.030817006 -0.5577728
-0.76960546 0.014403506 0.46120942 -0.19193672 0.43379924 0.075858444 0.15059423 0.3572531
-0.5746369 -6.0583506 -0.33360717 0.054261044 -0.669989 -0.5506621 0.11060905 -0.13966365
0.06584892 0.40122512 0.4673869 0.1411898 -0.5925347 -0.007839935 -0.36985022 0.52019566
-6.1665907 -0.07395207 0.056243334 0.07202676 -0.80607253 -0.037694003 0.45885852 -0.6424902
0.072590105 -0.075476125 0.07196155 -0.5150647 -0.14751573 0.011336627 -0.52044904 -0.637063
0.08512706 0.04146628 0.23463275 0.23661944 -0.5801584 -0.5428817 -0.7999721 -0.8102142
0.03764369 0.30890846 -0.5015283 0.26127383 -0.2217101 0.08655671 -0.063496135 -0.98094624
0.29085064 0.85435313 0.24485883 0.033400703 0.083529614 0.26035672 0.1813194 0.38001114
0.32440555 -0.053608764 0.26908135 0.3067918 0.2841185 -0.6532734 -0.0002576542 0.10126
-0.04367779 0.03063807 -0.5156704 -0.063461185 0.064113796 -0.6142802 -0.6077318 -0.6368515
-0.5207435 -0.05890518 -0.03140328 0.24415474 0.35995227 0.032955367 0.02913111 0.27568188
0.18965812 0.04950498 -0.38087857 0.2249331 -0.3421777 0.5680144 -0.87266713 0.30189276
-0.030891301 -0.1403847 0.2674324 0.31496382 -0.15653385 0.24808359 0.57492507 0.04179999
0.050495084 0.46414658 0.038661852 0.33661175 -0.040677186 0.32323167 0.015497913 -0.58639735
-0.074657865 0.07257982 0.11926969 -0.52831066 0.04148718 -0.039698433 0.034315582 -0.061752107
0.20867635 -0.5268035 0.014316305 0.12348993 0.052236497 0.041040357 -0.062464274 -0.6488471
1.8073407 0.085391074 0.27953395 1.8670911 0.2732739 -0.11311914 -0.030155642 0.023809332
-0.57969064 1.4194984 -0.2590878 0.01749366 -0.59471947 -0.51488733 -0.1780377 -0.32508785
0.013357812 0.26684982 0.5754734 -0.12116436 -0.7880572 -0.08770653 -0.30206475 0.49625155
2.300275 -0.7010058 -0.028929332 0.1594345 -0.5603443 0.012101224 0.42125615 -0.51626915
0.07909078 0.06428022 -0.007826722 -0.5583426 -0.48755714 0.032218788 -0.5746703 1.0936891
-0.078381866 -0.0004857424 0.035289355 0.14852421 -0.5320741 -0.6223888 1.0950911 0.28426915
-0.5816139 0.17752881 -0.6720647 0.015369035 -0.4196813 -0.039958794 0.019768294 -0.067633234
0.00804038 -0.48151883 0.047189582 -0.08830205 -0.08233878 0.12484587 0.053325467 0.35992298
0.051564593 -0.07390575 0.17770667 0.14211488 0.21034853 3.6144536 0.013484305 0.18074058
-0.06617775 0.044771355 -0.6173389 0.049190093 -0.06492119 -0.5335709 -0.60177064 -0.67945737
-0.6582066 0.27254125 0.0010223455 -0.08477303 0.7273433 0.071775906 -0.0873368 0.06345349

fc2.bias f4 [3]
00000000: 7640 ee3f 0f3f 88be 750b 84bf
1.8613422 -0.2661061 -1.0315996
