mountain_car_policy_bco.pt (torch, 417902 bytes, 20 tensors)

fc1.weight f4 [256, 2]
00000000: abba 9ebe 280c 483e e222 25be 5d73 23be
00000010: 55d9 b33e 3d75 b9be be74 f5be c3fa 03bf
00000020: fc29 1bbd 8859 19bf 3fd6 483d aaed 333f
00000030: beea 82be 0f21 24bf 4571 853d 7ca2 27bf
00000040: e6bd e4bd 49d7 6a3e 4862 aa3e 85ee c8be
00000050: 17c0 c1be 4c7d 023f b92d 213d 20a6 20bf
00000060: 4b13 773e 4d34 d5bc b57d 94be 36c4 0ebf
00000070: 5a1d 853e 739b e0be d275 b13e 2852 ff3d
00000080: b7e1 0a3e 6238 483d 90dc a13e ab8e 7b3e
00000090: f351 763e 5ce0 c63e ba4e b2be 96fe adbe
000000a0: 5031 bc3e f2bd febe e38a cc3e d00b d0be
000000b0: b47c d73e 7366 c2be ce9f 23be 28c5 0a3e
000000c0: 623d 3b3e 3c95 7ebd 9c9a 6abe 5d96 97be
000000d0: e801 d5be 4015 afbe 2068 c33d 63d0 d0be
000000e0: a233 bbbd add0 abbe e563 a93d 34ef 973e
000000f0: ccc2 593e a2a0 113e 56c5 98be 3290 8fbc
00000100: a091 86ba 3adb f2be c2c9 843c 9c77 74be
00000110: ccce bbbe 2680 f73d 360a e43e e9d2 ec3e
00000120: 07bf f93d 143c 60be dc26 1b3e 98e5 703e
00000130: 6fd0 2bbe b131 9f3e 5a96 52be b92e a73e
00000140: 47b6 363e 9264 883e 697e bb3e 78e1 993e
00000150: 05d7 343e de62 1ebf 8fe7 97be d8cf df3d
00000160: b019 9d3e 9d3c 093e 4bed 98bb f7d1 c3bd
00000170: a259 76be 6b21 02bf 79b4 d0b8 8670 ffbd
00000180: 66a5 16be 6e92 e53c 834f dcbe 7990 d33e
00000190: 490b 06be f459 edbd 46aa 93be 408a 873e
000001a0: cf81 98be c24c 21bf 6815 1dbc b3d7 263f
000001b0: e7a5 8f3e 3057 933e 8ba3 883e 5461 d53e
000001c0: b410 78be b9e5 21bf 6d56 c0be 36ae 88be
000001d0: 3704 88b7 6dd2 a4be fc9a 4c3d bb11 0cbf
000001e0: 9677 7f3e 44fa a3bb fa40 a3be de2d 1cbf
000001f0: efc4 e1be ec57 e83e dcb7 b3be 7f53 133e
00000200: 315d c1be 50fb 10be 605f 8f3d 673e 723e
00000210: cf37 9a3c 3837 153f d1cb c53c 6173 2e3f
00000220: 9397 a33e 1995 debe 22ae 22be 32f1 c53c
00000230: 3c69 d23e 16dc 9e3e 2a40 11be 07d0 f43e
00000240: 0533 dfbd 0454 abbd 80a3 88bd e552 1d3f
00000250: 2ecd 1e3c c9ec 3bbe afe9 563e e993 3e3e
00000260: 352b 8abc 35c7 333f 0828 9eba 3c79 b8be
00000270: 313c 963e 4e91 07bf 1ae3 3e3e 7d5c 0bbf
00000280: bf51 ab3e f5de 163e 0b22 a63e 54ee df3e
00000290: 9f3a 8c3e 0550 04bf 32e4 4e3e cff2 9a3d
000002a0: a616 b33e c3a1 a03e c5af 103e 648b 0cbf
000002b0: 3225 9e3e 25c9 bdbe a74b 22be 092b 713e
000002c0: be39 8fbe 2fcf dcbe 2832 483e 983e c1bc
000002d0: 152d d6be 72f0 a93e 0dee 71bd 80ce 2d3f
000002e0: 8ccf 55bc 3ddf 1bbf f8cb ac3e 2dad bfbe
000002f0: e4a3 14be 91fe dcbc bf66 8c3e fd50 4f3e
00000300: 05ff c23e 394f 953e 51df d4bd 7cef d8be
00000310: bb47 d6be 6bff 8abe c6bb 923e 1b55 81be
00000320: 2374 a13c 05b5 a9be 3d09 953e 45e3 f7be
00000330: 5749 23be 5942 f0be d4fb e6be ea62 d43e
00000340: 8fcc 50be fecc f3be 32a9 ea3d 8bbe e5be
00000350: b550 c7be c95a be3e 4cfb 663b d41d 9b3d
00000360: c10d d0be 33ae 103f eb03 683e 0486 013f
00000370: 7574 a8bd 7c27 a83e 7fd9 f13e f638 d03e
00000380: 8094 b23e f4c0 74be 6677 4fbe 5fd5 36bd
00000390: 83c7 cb3e 743b 97be 290f 2ebd 4f41 24bf
000003a0: 7df7 56be c6cf f2be 1c9b 96bc 57e2 5abe
000003b0: f5c3 1a3e e559 a8be 9aa5 e7bd 2b89 0cbd
000003c0: 43c6 45bc b31e 1b3f 9a3a c0be d981 a5be
000003d0: c0ae 9cbe e3d1 debd 2eeb 0a3d d9f9 0dbf
000003e0: 161b f5be f4a8 a23e a001 023e 6278 74be
000003f0: f62a 41be 2dd9 70be a0b2 d83c e337 d4be
-0.3100179 0.19535887 -0.16126588 -0.15961976 0.3512675 -0.36222258 -0.4794063 -0.51554507
-0.037881836 -0.5990224 0.049032446 0.7028452 -0.2556972 -0.64112943 0.06515745 -0.65482306
-0.11169033 0.22933687 0.33278108 -0.39244476 -0.37841865 0.5097244 0.039350245 -0.62753487
0.24128453 -0.026025916 -0.29002157 -0.55768144 0.25998956 -0.43868598 0.34660202 0.12466842
0.13562666 0.048881896 0.31613588 0.24566142 0.24054699 0.38843048 -0.3482569 -0.33983296
0.36756372 -0.49754292 0.39949712 -0.40634012 0.42087328 -0.37968788 -0.1597893 0.13551772
0.18285134 -0.06215404 -0.22910541 -0.29606906 -0.41603017 -0.341959 0.09541345 -0.40783986
-0.091407076 -0.33557644 0.082710065 0.29674685 0.21265715 0.14221433 -0.29838055 -0.017524812
-0.0010266788 -0.47432882 0.016209487 -0.23873752 -0.3668121 0.12084989 0.4453904 0.46254662
0.12194639 -0.21897918 0.15151542 0.23525083 -0.1677873 0.310926 -0.20565167 0.32652834
0.17842971 0.2663923 0.3661988 0.30054832 0.17660148 -0.6186961 -0.29668853 0.10928315
0.3068366 0.13402028 -0.0046669594 -0.09561532 -0.2405763 -0.5083224 -9.9518285e-05 -0.12472634
-0.14711532 0.028023925 -0.43029413 0.4132116 -0.13090242 -0.11589423 -0.28840846 0.26472664
-0.29786536 -0.6300775 -0.009587623 0.6517288 0.2805626 0.28777456 0.26687273 0.41675818
-0.24225122 -0.63241154 -0.37565938 -0.26695412 -1.6214426e-05 -0.32191792 0.049952492 -0.54714555
0.24947962 -0.005004199 -0.3188551 -0.6100749 -0.4409556 0.4537958 -0.3510121 0.1438732
-0.37766412 -0.14158368 0.07000613 0.23656617 0.01882544 0.5828738 0.024145039 0.68144804
0.3195158 -0.43473127 -0.15886739 0.024162862 0.41095912 0.31027287 -0.14184633 0.47814962
-0.10898403 -0.08365634 -0.0667181 0.6145461 0.009692473 -0.18352045 0.2098758 0.18611111
-0.016866306 0.7022584 -0.0012066374 -0.36029994 0.29342797 -0.5295609 0.1864132 -0.54438
0.33460805 0.14733489 0.32447848 0.43736517 0.27388474 -0.516846 0.20204237 0.07565843
0.34978217 0.31373414 0.14129551 -0.54900193 0.30887753 -0.37067524 -0.15849172 0.23551573
-0.2797374 -0.4312682 0.19550383 -0.023589417 -0.4183127 0.33191258 -0.059064914 0.6789322
-0.013049971 -0.6088751 0.33749366 -0.3743681 -0.14515644 -0.026976855 0.2742214 0.20245738
0.3808519 0.29162005 -0.10394157 -0.42370212 -0.418516 -0.27147993 0.28658885 -0.25260243
0.019708699 -0.3314592 0.2910861 -0.4841558 -0.15945946 -0.4692562 -0.45114005 0.41481715
-0.20390533 -0.47617334 0.11458053 -0.44871935 -0.38928762 0.3717864 0.0035245 0.07574049
-0.40635493 0.56515807 0.22657745 0.50595117 -0.082253374 0.32842624 0.4723625 0.40668458
0.34878922 -0.23901731 -0.2026039 -0.04463708 0.39800653 -0.29537547 -0.042494927 -0.64162153
-0.20992847 -0.47424144 -0.018384509 -0.21375404 0.15113814 -0.32881084 -0.11310883 -0.0343105
-0.012071195 0.6059372 -0.3754471 -0.32325628 -0.30602074 -0.108798765 0.03391569 -0.5545936
-0.47872227 0.31769526 0.12695932 -0.23874047 -0.18864045 -0.23520346 0.026452363 -0.41448888

fc1.bias f4 [256]
00000000: 7932 7fb4 58ed 33b4 e70a 4bbe 687c a733
00000010: 44cc e036 966a e23b dc28 2dbe 37a0 a0bb
00000020: 0168 1fbd 1df6 9634 b08e 66be 6b4a 0eb5
00000030: 9712 3abd e146 0f3e fb6a 7035 571a ad3d
00000040: 92b2 77ba e856 453e f01e 64bc 1a77 c8b4
00000050: 4776 4cb3 5c4a 4abc 1c4c b83d a6d9 66b5
00000060: 2cfc 713d 9acc b3bc 200f 32b5 611e 31bd
00000070: 81f3 96be 7ec8 e237 6ede 3c3e 4bcd 14be
00000080: 517a 0b3e 7dab 7ebd 0c6f 87ba c265 8b3e
00000090: 8301 1d3e f1b8 16bb 7eac 8dbe 6e5d 3ab7
000000a0: cefb 92bb 4f5a 86bd 32ec 70bb 657a 93bd
000000b0: 3488 0abc 78ec c8bd 5ef3 8ab5 a48d c2bd
000000c0: fcba 4bbe d12d e83d 8794 0236 02be c334
000000d0: b5e7 13bd 1111 06be 8084 9834 46f1 8d3e
000000e0: 6405 a73d 3104 da3d 8caa 62bc a7fb 08bd
000000f0: 9b00 abbd 9634 383b 4208 47bd 8de1 82b4
00000100: 201f 94ba 10f5 2a3c 0e8c 763b 0db7 023b
00000110: dae8 07bc 75da 40bc 860b b534 da77 3dbd
00000120: c610 793e 3c39 eebd 77c0 ca3a b7ba 033b
00000130: 1c97 173e 3231 9b3e 324f 9fbd 27b3 26be
00000140: 0ca9 6cbe 2af2 90be 8c9e 653e cf6a 8abd
00000150: 228c 8abd c1b1 383e 5e83 2fb6 f018 403e
00000160: 30b9 45bd e450 c43d 5bce 36be 05b9 5c3d
00000170: e324 c7bc 6aee 7837 392a 7ebe 69be 3439
00000180: d4d9 763c 8e51 ffbc 3811 8bb4 7a31 093c
00000190: 53dd 1d3d 56f9 b534 2d56 84b9 7e48 7639
000001a0: c414 dc34 40e1 2036 6cf7 5b3e 4e3b 69be
000001b0: fd0d d1b4 af3b 8d3e 7be8 4336 d8e3 5dbe
000001c0: eadf 983b 212d 43b5 b50d 0d3e d417 623a
000001d0: 1eb0 99b4 ce0e 9437 4923 253c 48c0 453c
000001e0: 82aa 8c37 fadd 3ebb 82b9 cfbd 6884 3a3e
000001f0: 8c3b 2dbe fe6f 8b35 6c93 95bd fa25 a3bd
00000200: 6c48 46be 372e 81bb 1621 df3d 531f ffb5
00000210: 22b3 7a3c 6916 a935 e3a5 c53b e99a 333c
00000220: 86f5 3038 5755 52be 889c 60be 5063 d33d
00000230: 91f7 de3d 3da3 35be 279b 493e 362b 3535
00000240: e935 813a e0ed 7e3e cf40 8fbe 2c16 06bd
00000250: ada0 20b6 37f5 6ebe dbbc 7d3e fd0e f9b3
00000260: 8ddb c333 7471 0e3d 71cd f7b8 f290 9abe
00000270: 3f7c b33d 6a4d e2b7 07c6 8133 d2cd 1cbc
00000280: f83b 55be 4005 c037 d185 0b36 cb9a 08b9
00000290: ba36 1dbe ac88 7f3a a936 453e 161c d33a
000002a0: df90 e33d 6c03 26bc 6e7a 8bbe a78c f9b2
000002b0: 3c79 0b3b cc85 9cbd 2636 b5b8 b4c0 f3ba
000002c0: 9d6e e2bb 1642 45b9 3059 dc33 053b 6c37
000002d0: 3f0d 22bc d685 67b9 bf5c 9335 67b6 4dbe
000002e0: 1034 9f3e 4e5e 8137 2c4d 49bd 96e3 9f3e
000002f0: 1c9d b5b9 78ef 163e 9d1d 3e3e 0713 3e3e
00000300: 07f0 2a35 4779 9c3e 116b ebbd cf05 7a35
00000310: 411b 03be ec2a 22b3 c2e5 1fbe 5906 2235
00000320: 9ea3 9f3e b6ba eeba dbb6 73bd ddc3 0dbc
00000330: fd01 143e 23c2 12be 9478 85be 7c22 1cba
00000340: 0e12 49b4 399e b2b6 dee4 8b3d a146 2b3e
00000350: 5338 3a3d 229b a3b3 388e abbb 707c aeba
00000360: bb22 ecbd c508 033e 9f02 f8bc 1587 6b3d
00000370: 8e78 40be 956f bb35 a541 e23c dec3 7b3b
00000380: aaf3 903b 3ee6 20b5 6118 873d 85e0 843e
00000390: a163 17bc 3f93 8b3e 38b6 e33c d907 eebd
000003a0: e531 9ebd 75f3 ebb7 968b 33be c81c 2735
000003b0: 2260 bf3d 9979 ac3c 2642 05bd 466e 093e
000003c0: c76a 44b5 a4da cd3d f085 513e 100a f4bb
000003d0: d6dc 8dbd 04f1 87bc 6a3d 08be 8eb7 a03e
000003e0: 4d2c 10bd 6e91 8dbd 795c c9bc 9879 1f3e
000003f0: 9aa0 03be e78b 713e d0af eebd 9e56 9b3d
-2.3767087e-07 -1.6757019e-07 -0.19828378 7.799173e-08 6.6995e-06 0.0069096787 -0.16910118 -0.0049019116
-0.038917545 2.8118748e-07 -0.22515368 -5.3007415e-07 -0.045427885 0.13991882 8.9562644e-07 0.084522896
-0.00094489113 0.19271433 -0.013923392 -3.733956e-07 -4.7605024e-08 -0.01234683 0.08998892 -8.5998397e-07
0.05907838 -0.021948148 -6.6332177e-07 -0.043241862 -0.29482654 2.703466e-05 0.18444225 -0.14531438
0.13620879 -0.062175263 -0.0010332777 0.27226073 0.15332608 -0.0022998417 -0.27670664 -1.1108217e-05
-0.004485584 -0.06560194 -0.0036761877 -0.07201079 -0.008455325 -0.09810728 -1.035263e-06 -0.09499672
-0.19895548 0.11336864 1.9457964e-06 3.645983e-07 -0.036109645 -0.13092448 2.8408613e-07 0.2772314
0.08155325 0.10645331 -0.013834607 -0.03344312 -0.08349725 0.0028107516 -0.04859186 -2.4378497e-07
-0.001130078 0.010434404 0.00376201 0.0019945533 -0.008295262 -0.011770834 3.3722262e-07 -0.046256877
0.24322805 -0.1163201 0.0015468736 0.0020100304 0.14803737 0.3031097 -0.07778777 -0.16279279
-0.23111361 -0.28309757 0.22423762 -0.06758653 -0.067650095 0.18036558 -2.6153498e-06 0.18759513
-0.04827231 0.09585741 -0.17852156 0.053887386 -0.024309581 1.4837462e-05 -0.24820794 0.00017237071
0.015066583 -0.031166818 -2.5903296e-07 0.008373613 0.03854115 3.3895293e-07 -0.00025241208 0.00023487394
4.0993302e-07 2.397297e-06 0.21481103 -0.22776529 -3.8939461e-07 0.27584597 2.9192586e-06 -0.21668947
0.0046653645 -7.270883e-07 0.1377476 0.00086247665 -2.8626613e-07 1.7649869e-05 0.010079213 0.012069769
1.67687e-05 -0.0029124008 -0.10142805 0.18214571 -0.16917247 1.0388901e-06 -0.07303509 -0.07966228
-0.19363564 -0.003942277 0.108949825 -1.9008097e-06 0.015301498 1.2598003e-06 0.006031738 0.010962226
4.219033e-05 -0.20540367 -0.21934712 0.10321677 0.10887063 -0.17738052 0.19688092 6.7490635e-07
0.0009857985 0.2489543 -0.27979133 -0.03273599 -2.3935384e-06 -0.2333573 0.24779074 -1.15976924e-07
9.120331e-08 0.034776166 -0.00011816144 -0.3018871 0.087639324 -2.6977348e-05 6.0430516e-08 -0.009570556
-0.20823658 2.2890628e-05 2.0790505e-06 -0.00013027636 -0.15352908 0.0009747844 0.19259132 0.0016106393
0.11111616 -0.010132652 -0.27241844 -2.9051376e-08 0.0021281978 -0.07642707 -8.6408385e-05 -0.0018596859
-0.006910159 -0.00018812003 1.02607714e-07 1.4080438e-05 -0.009890853 -0.00022079734 1.0979346e-06 -0.20089112
0.31094408 1.5421912e-05 -0.049145862 0.31228322 -0.00034640066 0.14739788 0.18565984 0.18561946
6.367922e-07 0.30561277 -0.11495031 9.314071e-07 -0.12803365 -3.77576e-08 -0.1561499 6.035894e-07
0.31179518 -0.0018213603 -0.059500556 -0.0086526545 0.14453883 -0.1433187 -0.26068556 -0.00059560663
-1.8726152e-07 -5.323233e-06 0.06830762 0.16726162 0.04546387 -7.6184975e-08 -0.0052354597 -0.0013312232
-0.11530062 0.12796314 -0.030274687 0.05750187 -0.18795988 1.396506e-06 0.027619192 0.0038416306
0.0044235783 -5.993969e-07 0.06596447 0.25952545 -0.009240062 0.27260777 0.02779685 -0.116225906
-0.077243604 -2.8127552e-05 -0.17533717 6.225423e-07 0.09344508 0.021054076 -0.032533787 0.13420972
-7.317107e-07 0.10051468 0.2046125 -0.0074474886 -0.06926887 -0.016594417 -0.13304678 0.3139004
-0.0351985 -0.06912504 -0.024580227 0.15573728 -0.12854233 0.23588525 -0.11654627 0.0758488

bn1.weight f4 [256]
00000000: 8b17 6d3f 27cc 6f3f 9791 743f e3fb 6c3f
00000010: dac3 813f c018 7e3f f8ba 723f db68 7b3f
00000020: cdb8 703f ce02 713f f57a 6c3f aa8b 833f
00000030: 14ea 743f 7f4e 723f e2b7 6e3f 8b2f 743f
00000040: cf16 743f b35e 733f c671 713f 64ca 733f
00000050: f543 723f 7b18 6d3f 1390 6e3f fd3b 6b3f
00000060: a060 723f f7b6 713f 47a3 6d3f 3ebc 763f
00000070: 3f85 713f c2b3 723f f151 6f3f 1274 6d3f
00000080: 4cb2 863f 2ac6 833f 8184 703f 9028 723f
00000090: f785 713f ad1b 6e3f 947d 6c3f 6f6b 6e3f
000000a0: d909 6f3f 537e 6d3f 348b 793f dffd 6d3f
000000b0: cdd1 6d3f 1724 823f ebb7 763f b5db 863f
000000c0: 9af2 723f 1f3c 6e3f 295e 6b3f 6a90 6e3f
000000d0: 9009 733f cf8a 833f 48f3 6a3f f044 733f
000000e0: ef0d 773f 6a9f 723f 00e5 853f daf5 7c3f
000000f0: c8fd 6f3f d19a 743f ec61 6d3f 598d 713f
00000100: 6205 733f 0906 703f 72ee 7b3f b1d5 7d3f
00000110: 5ed9 6d3f d239 6d3f 1642 703f a71e 743f
00000120: f6b1 723f c5d5 783f 0aa2 843f 2610 713f
00000130: 55a3 7c3f 3b4e 853f 7c62 6d3f 2932 723f
00000140: 1dc2 6f3f 14d5 703f c26a 743f 121c 703f
00000150: c04f 703f 0ffb 723f ab15 703f e031 6f3f
00000160: b747 753f 2299 6e3f 1b3c 6b3f 7a89 793f
00000170: aae2 843f b8dd 6f3f 053e 713f baf5 6d3f
00000180: c0f8 713f a7ad 733f b4e5 713f 90c2 703f
00000190: 726b 833f 826b 743f aac9 783f 2308 6d3f
000001a0: 6e22 723f b316 763f d89b 6f3f 926c 713f
000001b0: 6edf 713f 7248 753f 3925 713f b327 713f
000001c0: 3715 723f ccca 6f3f aedf 6e3f e81e 823f
000001d0: 18dc 6f3f 2d2a 7a3f a25f 733f 3a68 6f3f
000001e0: d7ec 833f 156f 6e3f 3977 753f 4c96 843f
000001f0: a4db 6f3f 4a9e 6f3f 972e 713f b942 803f
00000200: 140c 733f 8251 6c3f bd7e 703f c26f 723f
00000210: 7ca0 7d3f f37b 733f 2e25 703f e903 873f
00000220: fb80 713f 9811 833f 85be 843f 2f5f 703f
00000230: b809 753f cc96 733f 90d1 783f dce0 753f
00000240: 736b 6b3f bb83 6f3f 93fb 813f 09b0 6a3f
00000250: 4f81 6e3f 601a 763f 4710 713f e9fe 6e3f
00000260: dae3 713f 1753 733f 41c9 6d3f f96b 6e3f
00000270: a5d1 6d3f d404 803f b5ca 723f f1c3 733f
00000280: 3b9a 783f 179e 823f 9c7d 793f 744a 6c3f
00000290: bf40 6d3f f1c0 7a3f 1465 6e3f ff58 733f
000002a0: d985 6e3f 40a9 703f 23af 6e3f e9d7 713f
000002b0: 9b4b 773f 01af 6d3f f87a 6d3f 27b6 713f
000002c0: 20ef 6f3f 182c 703f 2ff3 703f 6b42 7a3f
000002d0: ebf5 6c3f ac26 6f3f 97ba 723f 020c 6a3f
000002e0: a77e 723f c244 833f 5d6d 733f 0572 7c3f
000002f0: 24e6 753f c78e 763f 4a25 6f3f edae 7d3f
00000300: e3e9 773f bcd6 713f 45a5 753f c0d5 6f3f
00000310: 9e63 6c3f 19ba 703f fe89 713f 094f 6d3f
00000320: b50c 6f3f b62f 6d3f eb4c 6c3f 4d57 703f
00000330: 53b5 703f 72ef 723f d33b 733f 4d58 6f3f
00000340: 501c 6b3f cebe 7b3f cb6e 773f a828 713f
00000350: 9252 723f 374e 723f e9c4 703f 50b7 6d3f
00000360: c55e 6f3f c51c 823f 3d9f 6b3f f46a 703f
00000370: b3e6 753f ae12 733f f0c0 713f ae0c 703f
00000380: bdaf 7d3f a4f2 6e3f ef46 6a3f e88e 833f
00000390: 933f 753f 5a24 733f 9cd6 6c3f 13b5 763f
000003a0: e6da 703f 7c00 833f 3b13 723f 459a 703f
000003b0: 891a 6d3f b469 703f 9326 6f3f 8fb5 743f
000003c0: 2fc9 723f c694 703f 30f2 6a3f fada 6f3f
000003d0: d847 703f 4880 833f 9e3f 773f 7bd6 703f
000003e0: 6be7 6f3f 11fc 733f 674d 733f 7952 713f
000003f0: 605b 743f 151d 773f bb18 6b3f fe3f 743f
0.9261405 0.93670887 0.9553465 0.9257185 1.0137894 0.99256516 0.9481654 0.9820687
0.94031984 0.94144905 0.9237512 1.0276997 0.95669675 0.94651026 0.9324933 0.95385045
0.95347303 0.95066375 0.9431423 0.952307 0.94634944 0.9261548 0.9318859 0.9188841
0.9467869 0.9441981 0.92827266 0.96380985 0.9434394 0.9480554 0.9348441 0.92755234
1.0523162 1.029485 0.93952185 0.94593143 0.9434504 0.9301098 0.92379117 0.9313268
0.933744 0.9277088 0.9747803 0.929655 0.92898256 1.0167264 0.96374387 1.0535799
0.9490143 0.9306049 0.9194055 0.9318911 0.94936466 1.0276736 0.9177747 0.95027065
0.96505636 0.94774497 1.046051 0.9881264 0.93746614 0.9554873 0.9272754 0.94356304
0.9493009 0.9375921 0.98410714 0.9915419 0.929098 0.9266635 0.9385084 0.9535927
0.94802797 0.97201186 1.036195 0.94165266 0.98686725 1.0414499 0.927284 0.9460779
0.9365557 0.9407513 0.954754 0.9379283 0.9387169 0.94914335 0.9378306 0.9343548
0.95812553 0.9320241 0.9188859 0.974754 1.0381672 0.9369769 0.9423526 0.92953074
0.9452019 0.9518685 0.94491124 0.9404688 1.0267165 0.95476544 0.97182715 0.9259054
0.94583786 0.96128386 0.93597174 0.9430629 0.9448155 0.9581367 0.9419742 0.942012
0.9456362 0.9366882 0.9331006 1.0165682 0.9369521 0.97720605 0.950678 0.9351841
1.0306653 0.9313825 0.95885044 1.0358367 0.9369452 0.93600905 0.94211715 1.0020362
0.94940305 0.9231187 0.9394339 0.9470178 0.99073005 0.95111006 0.9380673 1.0548068
0.94337434 1.0239744 1.0370642 0.9389524 0.95717955 0.9515197 0.97194767 0.96046233
0.9196083 0.9356038 1.0154899 0.9167486 0.9316606 0.96133995 0.9416546 0.9335771
0.944883 0.9504866 0.92885214 0.93133503 0.9289802 1.0001473 0.94840556 0.9522086
0.97110337 1.0204495 0.9745729 0.92301106 0.9267692 0.97950655 0.9312298 0.9505767
0.93172985 0.94008255 0.9323599 0.9447008 0.9659974 0.9284516 0.9276576 0.9441857
0.9372425 0.9381728 0.9412107 0.97757596 0.9256274 0.93418384 0.94815964 0.9142457
0.94724506 1.0255358 0.9508875 0.9861148 0.9605429 0.9631161 0.93416274 0.9909504
0.9684126 0.94468284 0.95955306 0.9368553 0.92339504 0.9403396 0.94351184 0.92698723
0.93378764 0.92650926 0.9230487 0.9388321 0.9402668 0.94896615 0.9501316 0.9349411
0.91840076 0.9833802 0.9665343 0.9420266 0.9465724 0.94650596 0.9405046 0.9285784
0.9350398 1.016503 0.92039853 0.939132 0.96055144 0.9495038 0.94435024 0.9376935
0.9909628 0.9333899 0.91514486 1.0277987 0.9580013 0.94977343 0.9251497 0.9637005
0.9408401 1.0234523 0.94560593 0.93985397 0.92618614 0.9391129 0.93418235 0.95589536
0.9483823 0.9397701 0.917758 0.93693507 0.93859625 1.0273523 0.9658145 0.9407727
0.9371249 0.953065 0.9503998 0.9426647 0.9545193 0.9652875 0.9183461 0.95410144

bn1.bias f4 [256]
00000000: 412b 6b3c 7a6b 46bd 9fd6 e73c 9031 18bd
00000010: 44d7 edbb f16d e03b cfe8 1a3d 8646 80bd
00000020: fbd5 98bd fa82 963b b407 4abc 97b9 efbc
00000030: 49df 79bd 3d9d 09bc 7095 e1bc c874 363d
00000040: 4998 4fbd 5136 00bd 7996 9dbc 2435 45bd
00000050: f624 4fbd c86c 1a3a 51fc bb3c 4a09 4c3d
00000060: 5f23 4bbd 9765 fa38 b686 cfbc cd61 3cbd
00000070: e975 96bc a54e 1fbb e748 903b 5aa7 48bd
00000080: d1ac 333c 50b6 ebbc d0da 2e3c b593 3d3d
00000090: 8869 83bd fd02 983c fe4b 9ebd 27ad 78bd
000000a0: cd32 a33b a9c5 033d e70d f5bc a500 febc
000000b0: 2694 e13c 6290 d13b e310 f63c 799b 0c3d
000000c0: 21dc 42bd 1b01 e1bc b5ba 1abd 5a12 a8bc
000000d0: 031c 18bc 279a 9c3d 6f06 7dbd ee01 c23c
000000e0: fc00 cabc c60b 0bbc 7356 be3c c7de 80bd
000000f0: ea05 e63a c5f3 093c 24d3 8dba ac3a 023d
00000100: c94d f83c 20d8 d13c 659c 823d 9b74 1a3d
00000110: 88e7 aebc 40a9 403c 6e6d 93bc dec5 50bd
00000120: 63b6 fa3a e476 8bbc 67cf 283b f5f8 de3b
00000130: ec4b 653c de7d b83c d628 363c 9ab7 13bd
00000140: 477a 7dbc 9443 11ba 25a9 3fbd 809a cf3b
00000150: 57c1 483c ef00 53bd ddb7 323d 9219 92bd
00000160: 1c35 c13c 5597 5abd 48da 153d 5709 d13c
00000170: eb84 2d3c a445 36bd cb7a 763c 5e12 803c
00000180: 40ff 92bc 2fce df3c a542 073d 6a39 adbc
00000190: b470 0b3b 4ba8 d3bc e294 613c b4f7 8a3c
000001a0: f03f 5abd 4794 86bd 9c63 ac3c 0f15 263d
000001b0: 03a9 72bd 26f6 6d3d 0910 88bd fc16 723d
000001c0: ceeb 4abd 47ed a4bc bb12 d23c f35e 903b
000001d0: 81b5 cf3b c5f4 cc3b 1f10 66bc 2515 05bd
000001e0: 6baf a93d 4251 2a3b 2aff a43b d979 81bc
000001f0: 7293 7dbd b72c 1ebc 6eb7 30bd e88b 05bd
00000200: 1bc8 06bd 6ad1 b3bc 9bd3 293d 5f1e 973c
00000210: 9fb4 6fbc 5a00 8f3c fbb1 77bc 4fdc 013d
00000220: a5db 6abd e58d 8b3d 5c88 9abb d0e2 2abb
00000230: 80a9 a1bc ed52 54bd 7418 613a 93bf 173d
00000240: 644f 44bd 5d1d 20bd 0a9b 433d 2bdc 3dbc
00000250: c830 55bd d2df 9bbd d4d8 09bd 7657 14bc
00000260: 380e 32bd 1649 00bb 78b1 1bbb c96d e6bc
00000270: 6d81 93bd 9210 e2bc 9f97 6abd 7b43 05bd
00000280: 7231 34bd d06d f4bc 6f33 883c d250 2cbd
00000290: 21fa 6bbd 8b27 a93d 253e 1c3b f582 48bd
000002a0: c551 003d f6e2 9cbc 70ff adbc 0816 4ebd
000002b0: 7c86 8abd c483 14ba 4a28 52bd 3307 6ebd
000002c0: 8595 aebc 3a37 7f3c ce8a 9cbc 4599 74bd
000002d0: 2759 c3bc e7e5 9bbd ec27 ecbc 1068 77bd
000002e0: 89af 063b b44e 93bc 013e b63c ea10 603d
000002f0: ee4d 82ba d0ce 74bd 4404 88bc c13d a33d
00000300: 9222 9cbc a254 a9bc 48ed a0bd 884b f03c
00000310: 10fa 7bbd a1c8 163c 230a 053d 924b 9cbc
00000320: fd21 2d3d bebf 8d3c 09ac 2bbd adc7 053c
00000330: a280 6ebd 1611 14bd 0bd0 a6bc c60a 5ebd
00000340: ed26 7abd 50b8 333d 328c 4dbd 0118 8dbc
00000350: adcd 53bd 6393 c53b 18ab 01bd 5cf7 29bd
00000360: 39af 2dbd 09c1 753d 3d3f ddbc ae40 163c
00000370: d7d6 36bd 12f4 8cbc 8ea8 503d 3554 803c
00000380: d6e2 83bc 3859 84bd 1afd 2c3c d56c 1a3c
00000390: 5417 ac3c ae99 ed3c 4c9f 02bd 4797 473c
000003a0: fd80 a2bc 872c b5bc 16a5 8e3c 609a 83bd
000003b0: 5bfc 14bc 61f5 803b 33ea 25bc 3117 10bc
000003c0: 2a43 8fbd d7d9 82bd 5e88 66bd 05d2 9cbc
000003d0: 40bb 05bc 63ce 683c 5e58 63bc d764 e3bc
000003e0: 6a51 43bc eeeb 1fbd 96e6 38bc f1df 4ebc
000003f0: fd84 8abd 1669 023c 2bf1 95bd d63e 3dbc
0.014353574 -0.04844234 0.028300581 -0.03715664 -0.0072583277 0.0068490435 0.03781968 -0.06263451
-0.074626885 0.0045932503 -0.012330938 -0.0292633 -0.061003957 -0.008399305 -0.027537078 0.044544965
-0.05068234 -0.0313018 -0.01923679 -0.048146382 -0.050572358 0.00058908435 0.022947462 0.049813546
-0.04959428 0.000119398515 -0.02533279 -0.045991708 -0.01836677 -0.002430835 0.004403222 -0.048987724
0.010966496 -0.028773457 0.010672286 0.046283443 -0.06416613 0.018556112 -0.07729338 -0.060712006
0.004980421 0.032170925 -0.029913856 -0.031006167 0.027536463 0.0063953856 0.03003735 0.034327958
-0.047573213 -0.027466347 -0.037775714 -0.020516563 -0.009284022 0.0764659 -0.061773714 0.02368256
-0.024658673 -0.008486694 0.023234582 -0.062924914 0.001754937 0.008419936 -0.0010820371 0.031794235
0.030310528 0.025615752 0.06377486 0.03770886 -0.021350637 0.011759102 -0.017996516 -0.05096995
0.0019127842 -0.017024465 0.0025758387 0.0068045803 0.013995152 0.022520956 0.0111181345 -0.036063768
-0.015471048 -0.0005541381 -0.04679217 0.0063355565 0.012253127 -0.051514562 0.043632377 -0.071337834
0.023584895 -0.053366978 0.036585122 0.025517149 0.010590772 -0.04450001 0.015043925 0.015633758
-0.017943978 0.027319996 0.03302254 -0.021145541 0.0021276893 -0.025837084 0.013768407 0.016963817
-0.05328363 -0.065712504 0.021043591 0.040547427 -0.059243213 0.058096074 -0.066436835 0.05910395
-0.049541287 -0.020132674 0.025643697 0.00440585 0.0063387756 0.0062547647 -0.0140419295 -0.032490868
0.082854114 0.0025988375 0.0050353007 -0.015805172 -0.061908193 -0.009654216 -0.043143682 -0.032604128
-0.03290568 -0.021950442 0.04146157 0.0184471 -0.014630466 0.017456222 -0.015118117 0.031704243
-0.057338376 0.068141736 -0.0047159623 -0.0026075132 -0.019734144 -0.051836897 0.00085867126 0.037047934
-0.047927275 -0.039090503 0.04775528 -0.011588137 -0.052048475 -0.0761105 -0.03365405 -0.009054055
-0.04347059 -0.0019574813 -0.0023756903 -0.028128522 -0.072024204 -0.027595792 -0.057273503 -0.032535058
-0.043992467 -0.029837519 0.016626088 -0.042069264 -0.05761159 0.08259495 0.0023840752 -0.048953015
0.03132798 -0.019151192 -0.021239966 -0.05031398 -0.06763932 -0.00056653866 -0.051307954 -0.058112334
-0.02131153 0.015577132 -0.019109156 -0.05971648 -0.023846222 -0.0761221 -0.02882763 -0.060401976
0.0020551404 -0.017981865 0.022246363 0.05470363 -0.0009941438 -0.059767544 -0.016603597 0.07970763
-0.019059453 -0.020670239 -0.07857758 0.029332891 -0.061517775 0.009203107 0.03248037 -0.019079003
0.042268742 0.017303344 -0.041912112 0.008165282 -0.058228143 -0.036149107 -0.020362874 -0.054209493
-0.06107228 0.043876946 -0.05018253 -0.01722336 -0.05170982 0.0060295328 -0.03165731 -0.041495666
-0.042403433 0.059998546 -0.027007693 0.009170694 -0.04463848 -0.017206226 0.050941996 0.015665153
-0.016099375 -0.064623296 0.010558391 0.009425362 0.021007217 0.029003944 -0.0318902 0.012182063
-0.019836897 -0.022115959 0.017412703 -0.06425929 -0.009093369 0.0039355014 -0.010126638 -0.008794592
-0.069952324 -0.06389206 -0.056282394 -0.019143114 -0.00816232 0.014209363 -0.013876049 -0.027758045
-0.011921266 -0.03904336 -0.011285445 -0.012626634 -0.06763647 0.007959625 -0.0732139 -0.011550626

bn1.running_mean f4 [256]
00000000: 0040 243e 4288 a63d f428 c3be a130 773e
00000010: bb4c 6e3c a2be 4cbc f475 31bd 7d97 32bd
00000020: d729 a53c b0d4 31be d47c debc f9e9 cebc
00000030: fa4d 2dbe cd62 913e f107 0cbe da73 bcbd
00000040: 6c69 8fbd 6733 063d 4035 09be f0da 333e
00000050: 94f3 44be 4296 61be 42c9 03be b6e4 a93d
00000060: aec0 0fbd e97b be3d 8763 573e d072 c3bd
00000070: 835f 80be 2a8f 23bd 0c00 9d3d b04e f23b
00000080: d811 083e 8550 94bd 4a5d 403e 3608 443d
00000090: 346e b63d 1cc1 9fbd c8be 40be ba2a dd3d
000000a0: fdf2 bfbd b062 80be 8b1a cbbd e79a a53d
000000b0: c47f 28be 8d9e c5bd 19ef f33d 7c86 c4bd
000000c0: eba6 fcbd 6f9f ac3e ae68 873d 057e 193e
000000d0: 7c0f e43d 993a f7bd 47c7 10be 745c 133e
000000e0: 2f53 4d3e 26ec 973e 58b2 86bc 2f01 82bd
000000f0: 6269 58be d90f 253e f353 393e 6353 393e
00000100: 35c6 433e d48d c0bc 2d16 96ba 287c 9ebb
00000110: 08b8 33be caf7 8e3d 24fe 54be 4527 f83c
00000120: fec4 983e 2000 9ebd cde0 a0bb 22f9 d4bd
00000130: 2c48 263e 7e02 9a3e d7fb 6dbe 1082 86be
00000140: b37a cdbe 433b e4be ff4b a33d 5490 2ebe
00000150: 9e25 7abe eb03 d43d 151d 25be 3399 8a3e
00000160: 0071 bb3d fef6 92bb 118d 1d3d c1a0 b73d
00000170: 1aea b8bc 3423 34be e43e 32be 5cfc 0dbe
00000180: 3bed 35be bdaa 983c 9847 593e a2dc 0fbe
00000190: 0af5 d23c dfb8 1cbe 9ff7 9e3d 4258 703e
000001a0: deff cd3d 8258 7fbd 39a2 d53e 5f73 6abe
000001b0: b3dc 593e 7cd2 273e 6888 373d 4a25 e9be
000001c0: a02c 34be 53d0 d33d 775e 8cbd 01af 8e3c
000001d0: 6959 d43d ef43 fc3b be64 8fbd 66d0 8e3d
000001e0: 8b43 363c 3946 3f3e 1d0a 5f3d 951c 243e
000001f0: 4410 a13d 092b 89bd 90ab b13c 95cc c5bd
00000200: 42e3 a6be 771b 09be 8578 8cbd a0ce 9d3d
00000210: b3df 0b3d 8c84 aa3d d8c6 493d efd4 1a3c
00000220: 8ce8 36be b60c 4abe b8cf 77be e09b a23e
00000230: f79e 6dbd 4ab3 96be be12 453e c48f edbd
00000240: 3016 35bd 618c f33e d44c 90be 12a6 04be
00000250: 0aca e13d fcc4 a8be 6764 953e c8c2 0d3e
00000260: 546c 5f3e cd8e e73d e625 9ebd 5a1b 0bbe
00000270: 516c 443e 21f6 79bc 0906 0fbe 9ea6 45bd
00000280: 50aa 41be 0db8 e0bc 66f8 4fbc 38ef a6bd
00000290: bc86 473d 85f5 c639 27ae 2e3e 57c1 143e
000002a0: 0a5d f03c 3646 20be f21e 83bd 52a6 1a3e
000002b0: e5e2 e23c 0d6e 91be fa7d 49be c0f1 58be
000002c0: bb68 0b3e ece5 0dbe 1931 0cbe 940c a6bc
000002d0: f14d ab3d 1c10 813e 13c9 123e 489f 57bd
000002e0: bab3 193e 9b6a c5bc cd41 ea3d afd3 9a3e
000002f0: c080 0a3e 0bac a83d 7e3c 393d 6a4a 3c3e
00000300: b95c ca3c 6609 9d3e c4fe 6ebb 6772 74bd
00000310: 788d 8cbe b97d 53be 9e8f a8be 3b80 263e
00000320: 5ea3 813e 5d44 02be fe15 1c3e fa93 6c3e
00000330: 3df0 9f3e b827 a7be 7aaf e5be 195c 4b3d
00000340: 4da3 b73d d41d adba 7364 16bd 9bea a33e
00000350: dd98 7b3e 9f59 fc3d e987 fd3d 29dc 203e
00000360: d6e2 103d ea6e 0a3e bd9c 23be 581a fbbd
00000370: 5e76 8cbd dee0 0cbe 9430 2cbe 38c4 1fbe
00000380: d05c dd3c ece0 d53d 3057 523e 1fe9 853e
00000390: 3045 1c3e 13d9 f93e 85d6 e53d e9d1 103d
000003a0: bf83 7fbe 4d3f 7cbc 5d83 d9bd 0741 b73d
000003b0: aedd 27bd 8837 fdbd 43ba 053e e01a 693e
000003c0: ed3c 76be 8ed2 883e 79c8 b83e 6908 383e
000003d0: d1c2 74be 4cf1 9abc 6eff 1ebe baa4 853e
000003e0: f78d 5ebe b85d b93d 8800 89bd 8c8e 763e
000003f0: d52b 49bd f4a2 8f3e baa0 023e 401f 973d
0.16040039 0.08131458 -0.38117182 0.24139644 0.014544661 -0.012496622 -0.04332538 -0.0436015
0.020161552 -0.1736629 -0.027159132 -0.025258051 -0.16924277 0.28395692 -0.13674904 -0.092017844
-0.070025295 0.032763865 -0.1339922 0.17563987 -0.19233543 -0.22029975 -0.12869743 0.08295576
-0.035095863 0.09300978 0.2103406 -0.09543383 -0.2507287 -0.039931454 0.076660246 0.007394634
0.13288057 -0.072419204 0.18785587 0.047859393 0.08907738 -0.078005046 -0.18822777 0.10799165
-0.09372518 -0.25075293 -0.09917172 0.08086186 -0.16454989 -0.09649382 0.11910839 -0.09595963
-0.123365246 0.33715388 0.06611763 0.14989479 0.11135766 -0.120717235 -0.14138518 0.14390737
0.20051263 0.29672354 -0.016442463 -0.06347882 -0.2113395 0.16119327 0.1809843 0.18098216
0.19118579 -0.023505129 -0.0011450701 -0.004836578 -0.17550671 0.06980856 -0.20800072 0.030292163
0.29837793 -0.077148676 -0.004909611 -0.10399081 0.16238469 0.30080026 -0.232406 -0.26271105
-0.40132675 -0.44576463 0.079734795 -0.17047244 -0.24428412 0.1035231 -0.16124375 0.27070007
0.091524124 -0.00448501 0.03846461 0.08966208 -0.022572566 -0.17591554 -0.17406803 -0.13865799
-0.17766277 0.018636102 0.21218717 -0.14049008 0.02575161 -0.15304898 0.07762074 0.23471168
0.100585684 -0.062340267 0.4172533 -0.22895573 0.21275596 0.16388887 0.04480782 -0.45536262
-0.17595148 0.10342469 -0.06853955 0.017417433 0.10368616 0.007698528 -0.07001637 0.069733426
0.011124502 0.18679132 0.054453004 0.16026528 0.078644305 -0.066976614 0.021688253 -0.096581616
-0.3259526 -0.13389383 -0.06858925 0.07705426 0.034148883 0.083260626 0.049261898 0.009450181
-0.17862147 -0.19731411 -0.24200332 0.31759548 -0.05801293 -0.29433662 0.19245431 -0.11599687
-0.044210613 0.47568038 -0.28183615 -0.12953976 0.11024864 -0.32962787 0.29178163 0.13843834
0.21818668 0.11306534 -0.07722072 -0.13584653 0.19181944 -0.015256436 -0.13967146 -0.0482546
-0.18912625 -0.027431512 -0.0126935 -0.08151096 0.048712477 0.0003794843 0.17058621 0.14526878
0.02934124 -0.15651783 -0.06402387 0.15102509 0.027696082 -0.28404275 -0.19676962 -0.2118597
0.1361417 -0.1385724 -0.13690604 -0.02026967 0.083644755 0.25207603 0.14334516 -0.052642137
0.15009966 -0.024098685 0.11438332 0.30239627 0.13525677 0.082359396 0.045223705 0.18387762
0.024702417 0.30671233 -0.003646777 -0.059679415 -0.27451682 -0.20653428 -0.3292207 0.16259854
0.25319952 -0.12721391 0.15242764 0.23103324 0.31237975 -0.3264749 -0.4486044 0.049648378
0.08966694 -0.0013207742 -0.03671689 0.32014927 0.24570031 0.12321781 0.123794384 0.15708984
0.035372578 0.13518873 -0.1597776 -0.12260884 -0.06858514 -0.13757655 -0.16815406 -0.15602195
0.027021796 0.10443291 0.20541072 0.2615442 0.15260768 0.48798427 0.11222557 0.035356436
-0.24952601 -0.015395951 -0.10620759 0.0894795 -0.040982895 -0.12364107 0.13059334 0.22764158
-0.24046679 0.2672314 0.36090448 0.17971958 -0.23902442 -0.018913887 -0.15527126 0.2610224
-0.21733843 0.090510786 -0.066895545 0.24077815 -0.049114067 0.2805401 0.12756625 0.07379007

bn1.running_var f4 [256]
00000000: ee1d 583c 1b72 813b 54aa 873c 2dd3 0f3d
00000010: ad48 2f3a 245e 843a 452f 353c 325e 0f3a
00000020: 0d96 d03a 2b9a 713c 8dd8 9a3c 7572 9a39
00000030: 6b03 073c f362 5f3c d3b7 0f3c cc6c 8f3c
00000040: 4bb2 2f3b 6836 753c 4558 163c acc6 963c
00000050: 450a 923c 4c9c af3c 8d22 c43c 1bd9 623b
00000060: 6ded 983b 385a 053c 33f7 d43c 6655 8d3a
00000070: 3c3d ca3a 0b87 a43a 5e55 dc3b 8498 503c
00000080: 62d5 3239 0a06 3f38 bef3 993c 9ea8 f73c
00000090: 71a2 fb3a 648e 6d3b 398b 6d3b 83b8 b43b
000000a0: 9e09 a43b 83fd a43c a4e1 763b 1ff8 483c
000000b0: 78eb 613c fc0c 6737 46d4 1b3c ee8f 4237
000000c0: 92c3 473b 3e5c cc3c 3763 293b 3a0b 383c
000000d0: 44ec 6e3c d587 8e39 d95f 443c 0b5d 383c
000000e0: 59e0 233c 1c5d ac3c 9690 a038 8b7a b039
000000f0: 441e 113c dae9 863c c2cf d53c 884e 8c3c
00000100: 2a73 aa3c d700 683a 5a81 d039 4787 153a
00000110: 72a1 5c3c 027f 693b 62e2 ce3c e4ea 1f3b
00000120: 93fd e83a 0efe 103a f1e1 bd37 6abb d93b
00000130: caa3 9d39 8b74 d138 6209 363c ee37 8c3b
00000140: 165d 863c 0a42 863c a3fb 1d3c 9320 c33b
00000150: df4b 973c ae5f 1c3b 7ee9 4f3c c5c4 573b
00000160: 8b48 4a3c 3b24 b13b a5ed c23c ea74 fe39
00000170: 4cd0 c039 826b 793c 7f0a 473b 1707 383c
00000180: bdce b13c c3e9 063b af10 d53c 4018 363c
00000190: 7ae7 a538 2d5d 343c 0993 913b da24 e13c
000001a0: d78a e33b 3d81 cd3a 5350 a73c 4715 0c37
000001b0: e526 b23c c06e 0b3c 0068 533a 01a1 093d
000001c0: fb58 883c 544d c23b e8f8 b03c c0e3 513a
000001d0: 12d8 ef3b 4c1b f438 30f0 3d3b 7882 f33a
000001e0: 61b2 6e39 23e5 ad3c 568d 5f3c 0fd2 6c39
000001f0: f795 003d bad4 073b 8f3f b43b 3d9d 0839
00000200: 4a53 013c 4cef 363c 5180 943c 6875 523b
00000210: bb58 3f3a 0ebe 9e3b 1162 703a 7ddb 3038
00000220: fbbd 873c b3be 0f39 648c 7d39 bc1f e83c
00000230: 4a80 6e3c 1c6f de3b f2e7 cc38 5d78 1a3c
00000240: 6e46 973a e477 d93c c803 c739 fe52 bf3b
00000250: 3413 ce3b 316e 7e3b 2dad 8a3a d566 273c
00000260: 0554 e93c 1d58 5c3b bcee 453b 8387 813c
00000270: 9a58 973b d882 e538 dbe7 243c cc78 5b3a
00000280: d8e6 0b39 a2da bc39 696f 013a 34ea 623b
00000290: 8114 a83c 3c4d a336 8037 8a39 121c 323c
000002a0: 0512 653b ee6e 2c3c c070 b13c 5f8d 363c
000002b0: 2ec8 8539 d0eb ce3c 5047 be3c e710 b53c
000002c0: c4db 1c3c 69d5 363c 55b0 263c 8351 3139
000002d0: a9cc 983b e2e2 023d efbf 443c 7e72 453c
000002e0: 42db 563c 4b3e 9739 e1c6 7e3c 5f75 163a
000002f0: 6d05 3a3c 4990 ce3a 8842 383c a603 3138
00000300: 4fbe 803a 333c 1337 c7b5 ae3b d7f2 133b
00000310: faee 2a3c 6126 ab3c af92 953c 385b 823c
00000320: e0a0 fb3a 2a1b 1b3c 5c33 b73c d68f 0b3d
00000330: 3f8c 6f3c d793 8a3c ed06 b23c 0cbb 8b3a
00000340: e7bd 893b 5a45 3238 f8bc a53b 4be7 613c
00000350: b50a a03c 291f 043c bd72 083c 62b0 4f3c
00000360: cdc6 303c e98e 1039 8ed1 293c 48af a33c
00000370: 7772 fa3b a638 133c 9678 b33c b1b0 803c
00000380: 6b71 7d3a 987c 9f3b 75f8 243c f25b cd37
00000390: b055 613c fd37 e33c d066 553b 15f6 7e3c
000003a0: 4a85 923c c699 e938 3404 293b 9e2c 943b
000003b0: 76c0 153c b5eb 523c 0d37 633c 5f1f b43b
000003c0: fad8 ec3c 4722 693c f869 5d3c bc1e 973c
000003d0: 17bc 713c 8320 e638 eb64 823a 10df c43a
000003e0: e927 a53c 0ec6 883c e33b d83a db2c 803b
000003f0: 86a0 2a3b 7ce6 d43a b8cc f63c 139d 1a37
0.01319073 0.00395037 0.016560711 0.035113502 0.000668655 0.0010098857 0.011058633 0.0005469053
0.0015913859 0.014746229 0.018902088 0.00029458446 0.008240561 0.013634431 0.008771854 0.017507933
0.0026809152 0.014966585 0.0091763185 0.018405281 0.017827163 0.021436833 0.023942256 0.0034614268
0.0046669752 0.008139186 0.02599678 0.0010782897 0.0015429626 0.0012552453 0.0067240437 0.012731675
0.00017054894 4.5543573e-05 0.018792983 0.03023177 0.0019198192 0.0036248202 0.0036246313 0.0055151596
0.0050060293 0.020140415 0.0037671113 0.012266188 0.01378905 1.3771696e-05 0.009511059 1.1596812e-05
0.003048156 0.024946328 0.002584649 0.011233145 0.014582697 0.00027185553 0.0119857425 0.011252652
0.010002219 0.021040492 7.656326e-05 0.00033660638 0.008857314 0.016468931 0.026100043 0.01712729
0.020806868 0.0008850223 0.00039769226 0.0005704057 0.013466226 0.003562868 0.025254432 0.002440148
0.0017775766 0.0005531021 2.2635768e-05 0.006644656 0.00030067406 9.9876044e-05 0.0111106355 0.0042791283
0.016401809 0.016388912 0.009642514 0.005954811 0.018468795 0.002386074 0.012689946 0.003292368
0.012346397 0.0054059303 0.023794958 0.00048533763 0.00036776287 0.015223386 0.0030371246 0.011232159
0.021705026 0.002058611 0.026008932 0.01111418 7.910929e-05 0.011008543 0.004442577 0.027483393
0.0069440412 0.0015678775 0.020424044 8.349604e-06 0.021747062 0.008510292 0.00080645084 0.03360081
0.016643992 0.0059296284 0.021603063 0.00080066547 0.0073194588 0.00011639911 0.0028982274 0.0018578311
0.000227639 0.021227425 0.013644537 0.00022584967 0.031393018 0.002072616 0.005500741 0.00013028547
0.007893393 0.011165451 0.018127592 0.0032113437 0.00072992936 0.0048444336 0.00091698865 4.2166084e-05
0.016570082 0.00013708584 0.0002418026 0.028335445 0.014556954 0.0067881476 9.770681e-05 0.009428111
0.0011541375 0.026546426 0.00037959055 0.005838751 0.0062889103 0.0038823003 0.0010580175 0.010217388
0.028482446 0.0033621856 0.0030202111 0.015811687 0.0046187164 0.000109439425 0.010065044 0.0008372187
0.00013342069 0.00036021048 0.0004937561 0.003462446 0.02051759 4.86677e-06 0.00026362762 0.01087095
0.0034953367 0.010524495 0.021660209 0.011142104 0.00025516882 0.025258929 0.023227364 0.022102786
0.009573881 0.011159279 0.010173877 0.00016910401 0.0046630693 0.031954654 0.012008651 0.012051223
0.013113799 0.00028847376 0.015550346 0.00057395356 0.011353833 0.0015759553 0.011246331 4.2203486e-05
0.0009822341 8.775899e-06 0.005331728 0.0022575164 0.010432953 0.020892324 0.01825842 0.015912637
0.0019197725 0.009466926 0.022363357 0.03407272 0.01462084 0.016916199 0.021731818 0.0010660603
0.0042035463 4.2503096e-05 0.005057927 0.013788055 0.019536356 0.00806407 0.008328137 0.01267633
0.010789585 0.00013786148 0.010364903 0.019981042 0.00764304 0.008985674 0.021908086 0.015709253
0.00096680847 0.0048671477 0.010069002 2.448072e-05 0.01375334 0.027736658 0.0032562502 0.0155616
0.017885823 0.00011138948 0.0025789859 0.0045219203 0.009140125 0.01287358 0.013868106 0.005496904
0.028912056 0.014229364 0.013514034 0.018447272 0.014754317 0.000109733104 0.0009948289 0.0015020091
0.020160632 0.016696002 0.001649734 0.003911597 0.002603562 0.0016243006 0.030126914 9.215687e-06

fc2.weight f4 [256, 256]
00000000: 9a30 25bd 9800 8d3b 479d 163a f514 cdbc
00000010: 9fe5 45bc 6ba9 8e3d cc17 9d3c 39b6 f9bc
00000020: 4cc9 233d a84b f3bc ef56 c9bb 0e7a 39bd
00000030: 5a1a c83b efc4 e83c 75f7 133d 636b 0a3c
00000040: b1a3 4bbb 11c8 d73c 63ef 333d 3abc 2a3d
00000050: 363a 163c 7b54 f2bc b745 9dbc 12f8 12bd
00000060: 9f21 22bd a2dd a5bc 8a43 973c 0133 673d
00000070: c21f 4fbc e7f1 bcbc cf87 fd3b 227b 1ebd
00000080: c434 42bd 69a7 603d f198 ce3c b6ef 21bd
00000090: a7c6 8e3c eb67 d338 962d 1d3d 16cd 3a3d
000000a0: f057 29bd ebba 933b e283 6f3d e254 28bd
000000b0: c42f 2ebd ece0 58bb a240 963c c66a 8ebc
000000c0: e55a 763d c2f4 1b3b 29a3 e83c 3479 5c3d
000000d0: 90f6 fe3c e83f 1c3d 806b 3fbd 0750 1e3d
000000e0: 2e23 d73c 9e49 e33c f394 5dbb d0ce 7e3c
000000f0: f876 903d c762 843d 88d2 923d 1126 0bbc
00000100: 4b14 f33c 60d0 463c 6036 de3c 8f6c b43c
00000110: 0514 173d 1587 bc3c afb6 903d c5b8 1dbd
00000120: 58b7 623d e1c2 0fbd 3228 31bd 8d08 c23c
00000130: 98e3 e73c b9f7 88bc 9111 843d cda6 18bd
00000140: 3e5e 3f3d dba0 f33c 83bb 573d 40cc c73b
00000150: 9f13 52bd 698e 31bd abf5 35bd 5ee3 39bd
00000160: 8950 823b 1e4d 053d e547 663d 26d9 3e3b
00000170: 15e0 cabb 9c26 2b3d c168 2a3d 5bcc 71bc
00000180: 6019 f5bc 282e 2e3d e230 0bbd ff25 3d3d
00000190: e4c7 bebb 727d fcbc 24f6 5f3d ae9b 8d3d
000001a0: 28db 4f3d 8403 133d d94d 15bc bf42 c8bc
000001b0: 4c00 783d a8f4 e5bc 1058 7a3d 92ce 953d
000001c0: 9470 2a3c c44a f93a e686 34bd 5c3b 2c3d
000001d0: a31a 713d cd67 2a3d 7aed d03c 070c 25bc
000001e0: 61f8 66bd f39b 963c f8e5 25bd abcf 143d
000001f0: 320d 1b3d 28df 493c 81e2 cfbc 96d3 373d
00000200: c080 493d cab5 09bd f230 f9bc a6fd 97bc
00000210: 432b 8a3c 50dd ab3c 764d 2fbd 6673 3ebd
00000220: b2d6 913b bb9d 623c 5e5a bc3c bf3a 993b
00000230: c23a 4bbd 7c38 663d f2f2 db3c 54cd 763d
00000240: c2a9 a4bc 0237 32bd 6a30 213d e5c9 093d
00000250: bce6 723d f45d f73c 93de 99bc 9889 933d
00000260: 8f54 433d 6fb4 e2bc 5f9a 2bbd 4258 ca37
00000270: 73e2 febc e5bc a13c 4516 e2bb 9854 01bd
00000280: 6e42 4bba 8d95 c13c f637 293d c4ce 1bbd
00000290: 2933 ee3b 0154 083d 2269 893c c31e b8bc
000002a0: 4cf4 d7bb 390c 113d 11f7 15bc 5aea 8d3b
000002b0: c4fd 803d 9490 a7bc 6383 99b9 6cda 2c3d
000002c0: 94ac dcbc acc9 c23c 868c 92bc b1b1 b7bc
000002d0: 97bd ce3c 6f48 5e3d 9d9c 673b 7d27 163d
000002e0: c2bf 003d 6a7b 953c d409 533d 54de 11bc
000002f0: 2d37 1f3d 7b42 19bc 3380 f13c 870f 45bd
00000300: 6747 253a 818e 0ebd 1353 8a3c 24ae 503d
00000310: f44c 8e3d 67db 0abd ab30 f13c 8f08 583d
00000320: 1930 393c f434 cf3c 2769 443d 42fe 813c
00000330: 82a2 653d 9ad0 34bd 59be 603c 3b35 703d
00000340: a13a 613c 1ee2 23bc 8576 96bb 2128 2ebd
00000350: 26f1 a2bc b6c2 83bc 832e 293d b4d0 123d
00000360: 83ba 753c 0c09 1fbc 74f4 c23b a2aa 11bd
00000370: 2ee0 5ebc 926a a8bc 6f2c 29bd 6393 493c
00000380: 2f96 2fbd 7e2a 9e3c 6cd4 823d 6444 0fbc
00000390: d8ae 2a3d b08b 043d 8457 253d b4ff 0dbd
000003a0: e9ee d73c 4462 84bb 5e93 403d a916 c43c
000003b0: 54d3 7e3c 9c0a 13bd 3f91 8e3d aabf ac3a
000003c0: 7af3 793c d0fe cabc e24b 423c fc7d 433d
000003d0: 992f c83c ef28 233d d238 793d 457a 463d
000003e0: ec4a 5abd f184 30bd de9f 4dbc 9a4b 2dbc
000003f0: d116 1b3d 2309 3b3d 24b9 833d 30b7 0a3d
-0.040329553 0.0043030493 0.0005745482 -0.025034407 -0.012078672 0.06965908 0.019176386 -0.030482398
0.039986894 -0.029699162 -0.0061443965 -0.045282416 0.006106657 0.028414218 0.036124665 0.008448455
-0.003107291 0.026340516 0.04392947 0.041683413 0.009169152 -0.029581299 -0.019198282 -0.03588111
-0.039582845 -0.020247284 0.018464822 0.056445125 -0.012641849 -0.023064567 0.007737137 -0.038691647
-0.047413602 0.054847155 0.025219413 -0.039535247 0.01742871 0.0001008062 0.038373552 0.04560574
-0.04134363 0.0045083663 0.058475383 -0.041096576 -0.04252602 -0.0033093048 0.018341366 -0.017384898
0.060145278 0.002379701 0.028398113 0.053826526 0.03112343 0.038146883 -0.04673338 0.03865054
0.026261892 0.027745064 -0.0033810704 0.015552238 0.070539415 0.06464153 0.07169062 -0.008492962
0.029672762 0.012134641 0.027125537 0.022024421 0.036884326 0.02301363 0.07066094 -0.038506288
0.05535063 -0.03509796 -0.043251224 0.023685718 0.028306767 -0.016719686 0.06448663 -0.03726845
0.046720736 0.029739788 0.05266906 0.0060973465 -0.051288243 -0.043348704 -0.04442374 -0.04538285
0.0039768857 0.032544248 0.056220908 0.002912113 -0.0061912634 0.041784868 0.041603807 -0.014758195
-0.029919326 0.042524487 -0.033982165 0.046178814 -0.0058221687 -0.030821536 0.054678097 0.06914459
0.050746113 0.035892025 -0.009112799 -0.02444589 0.060547158 -0.028070763 0.06111914 0.07314791
0.010402817 0.0019019474 -0.04407396 0.042048797 0.058863293 0.0416029 0.025503863 -0.010073668
-0.056389216 0.01838491 -0.04050252 0.03633086 0.03785438 0.012321271 -0.02537656 0.04487952
0.04919505 -0.033620633 -0.030418847 -0.018553566 0.016866332 0.020979553 -0.042798482 -0.04649677
0.0044506425 0.013831551 0.02299231 0.0046761925 -0.049616583 0.05620621 0.026849244 0.06025441
-0.020100478 -0.04350949 0.039352812 0.033639807 0.059302077 0.030196168 -0.01878289 0.07203978
0.047688063 -0.027673928 -0.041895267 2.4121375e-05 -0.031113839 0.019743392 -0.0068996274 -0.031574816
-0.0007753734 0.023630882 0.041313134 -0.038038984 0.0072692824 0.033283237 0.016773764 -0.022475606
-0.0065904018 0.035412047 -0.0091531435 0.0043309154 0.06298402 -0.020454682 -0.00029280325 0.04220049
-0.02693776 0.023777805 -0.017889272 -0.022423597 0.025236888 0.054268297 0.0035341152 0.036658753
0.031432875 0.018247325 0.051523045 -0.008903105 0.03887098 -0.009354229 0.029480075 -0.04811051
0.000630489 -0.03480387 0.016885316 0.050947323 0.069482714 -0.033900645 0.029442152 0.052742537
0.011302971 0.025293805 0.047951844 0.01586831 0.056063183 -0.04414425 0.013717257 0.058644515
0.013746888 -0.010002641 -0.0045917653 -0.04251874 -0.01989038 -0.016084056 0.041304123 0.035843566
0.014998081 -0.009706747 0.0059495512 -0.03556312 -0.013603253 -0.02055863 -0.04130214 0.012303206
-0.042867836 0.019307371 0.063881725 -0.008744333 0.04167065 0.03235978 0.040366665 -0.034667686
0.026359038 -0.0040400345 0.04701554 0.023936586 0.015553314 -0.03589879 0.06961297 0.0013179679
0.015255803 -0.024779707 0.011858912 0.04772757 0.024436759 0.03983396 0.060845204 0.04845645
-0.053294107 -0.043095533 -0.012550322 -0.010577107 0.037863556 0.04566301 0.06431797 0.033866107
