mountain_car_policy_bco.pt (torch, 417902 bytes, 20 tensors)

fc1.weight f4 [256, 2]
0	0x3ba73b74	0.005103523
1	0x3e37e142	0.17957023
2	0x3bad0206	0.005279782
3	0x3e6260f4	0.22107297
4	0xbdb073f2	-0.08615865
5	0x3ebd0ea1	0.36925223
6	0xbc5bdfbf	-0.013420044
7	0xbe6dc762	-0.2322059
8	0x3e6eadf0	0.2330854
9	0xbe98deab	-0.29857382
10	0xbedeb6de	-0.43498892
11	0xbed9be0a	-0.425278
12	0xbedc2ed8	-0.4300449
13	0x3e520423	0.2050939
14	0x3eae6d3f	0.34067723
15	0xbeb49a61	-0.35274032
16	0xbc40c6fa	-0.01176619
17	0xbf168a84	-0.5880511
18	0xbe7b0c81	-0.24516489
19	0x3ea1c846	0.3159811
20	0x3d1e5082	0.038650997
21	0x3eef58d8	0.4674747
22	0xbf022c34	-0.508487
23	0xbf04fd37	-0.51948875
24	0x3e7c52dc	0.24640983
25	0xbe829c0d	-0.25509682
26	0x3e3658aa	0.1780726
27	0xbdce2308	-0.100652754
28	0x3e70b96e	0.23508236
29	0xbf0ecdf1	-0.5578299
30	0x3eccff05	0.40038314
31	0x3f018e4b	0.50607747
32	0xbeafc5c8	-0.34330583
33	0xbf14a5b9	-0.5806537
34	0x3ceffdc5	0.029295811
35	0xbe1d9e7d	-0.1539249
36	0x3adca767	0.0016834558
37	0xbf0bd30e	-0.5461892
38	0xbdf6e026	-0.12054472
39	0xbbedb6f5	-0.007254476
40	0x3e962965	0.29328457
41	0xbe2ad1c1	-0.16681577
42	0x3c8e6add	0.01738494
43	0x3f2887c3	0.65832156
44	0xbcf43217	-0.029809041
45	0xbf3e6edb	-0.743879
46	0xbea0a70d	-0.3137745
47	0x3e68790d	0.22702427
48	0xbe603f8f	-0.21899246
49	0x3eba5d1e	0.36399168
50	0x3e76d666	0.24105224
51	0xbed4e4a0	-0.41580677
52	0xbcb38d67	-0.021918012
53	0xbe165858	-0.14682138
54	0x3c3ca426	0.011513745
55	0xbe7621b5	-0.24036296
56	0x3dc60edf	0.09670805
57	0xbe7df666	-0.24801025
58	0x3adba90a	0.0016758752
59	0xbec87cc0	-0.39157677
60	0xbebf2268	-0.37330937
61	0xbf049a8d	-0.51798326
62	0x3db27584	0.087138206
63	0x3ebad66e	0.36491722
64	0x3e93ef0a	0.2889331
65	0x3ef2c0d5	0.47412744
66	0x3e14638e	0.14491102
67	0xbef649f5	-0.481033
68	0x3e2d6ab7	0.1693524
69	0xbc83f178	-0.016106352
70	0xbdd29645	-0.10282568
71	0x3f2be8c3	0.6715204
72	0xbb83d8ac	-0.004023632
73	0x3f185abc	0.5951345
74	0xbed1a5d2	-0.40946823
75	0xbed88669	-0.42290047
76	0x3eba4897	0.36383507
77	0xbed614d0	-0.41812754
78	0xbe09dc0c	-0.13462847
79	0xbf238c1e	-0.63885677
80	0x3e015ceb	0.12633102
81	0x3e98c945	0.29841056
82	0x3e476a92	0.19474247
83	0xbec919f0	-0.392776
84	0x3e9d7d61	0.3075972
85	0x3eb547d9	0.35406378
86	0xbe082ee8	-0.13299143
87	0xbf26186d	-0.6488102
88	0xbe8a98b8	-0.2706964
89	0x3eb2e769	0.34942177
90	0x3daa98a3	0.083298944
91	0x3d94c33a	0.07263799
92	0xbe180e20	-0.14849138
93	0x3f20b0e9	0.62769943
94	0x3ea44b30	0.32088614
95	0x3dd107cc	0.10206565
96	0x3db6fbba	0.08934732
97	0xbcdbaaa5	-0.026814768
98	0xbe093cca	-0.13402095
99	0x3e244da5	0.16045244
100	0x3eaeed1c	0.34165275
101	0xbee08430	-0.4385085
102	0x3eafb556	0.34318036
103	0xbead0ec6	-0.33800334
104	0xbda6a272	-0.08136453
105	0xbbd8cd80	-0.0066162944
106	0x3ea05664	0.3131591
107	0xbeb81495	-0.35953203
108	0x3ea64c94	0.324803
109	0x3eabdb74	0.33565867
110	0xbe9da0e8	-0.30786824
111	0xbe1e0096	-0.15429911
112	0x3c1e0fdb	0.009647335
113	0x3eb7e222	0.35914713
114	0x3eed5221	0.46351722
115	0xbf0039e1	-0.50088316
116	0xbe808a76	-0.25105637
117	0xbf0f158c	-0.5589225
118	0x3ea94894	0.33063185
119	0xbe77016a	-0.24121633
120	0xbe009aaf	-0.12559007
121	0xbee7ca10	-0.4527135
122	0xbec75f7d	-0.3894004
123	0x3f08563d	0.5325659
124	0x3e9a49a1	0.301343
125	0xbeb788f3	-0.3584667
126	0x3eaef1b5	0.34168783
127	0xbeb0e1c6	-0.3454725
128	0xbd6f4352	-0.05841381
129	0x3e683c16	0.22679171
130	0x3e3dc69f	0.18532799
131	0xbf0b48e0	-0.54408073
132	0xbe1ca6f1	-0.15298058
133	0xbce5ea43	-0.028065806
134	0x39f534a1	0.00046769253
135	0x3e962cda	0.29331094
136	0x3dc9dbcd	0.09856377
137	0xbdc3854f	-0.09546911
138	0xbe85b518	-0.26114726
139	0xbc979a99	-0.018506335
140	0xbe7533fc	-0.23945612
141	0xbf0d3447	-0.55157894
142	0xbeada3d8	-0.33914065
143	0xbec5d05d	-0.3863553
144	0x3df73722	0.120710626
145	0x3d24e019	0.04025278
146	0x3eaedd25	0.34153095
147	0xbee7c526	-0.452676
148	0x3ce363c7	0.027757538
149	0x3f3202ee	0.6953572
150	0xbc510a6e	-0.012758834
151	0xbec1bcec	-0.37839448
152	0xbcbbd291	-0.022927554
153	0xbef14c3e	-0.4712848
154	0xbe9addce	-0.3024735
155	0xbe7e50ce	-0.24835512
156	0xbc25279c	-0.010080244
157	0x3f157a85	0.58390075
158	0xbdf614a4	-0.12015656
159	0x3c0a0b73	0.008425581
160	0xbeb3f2fa	-0.35146314
161	0x3ea78655	0.32719675
162	0x3e707a8e	0.23484251
163	0x3e172243	0.14759164
164	0xbe2107e3	-0.15725665
165	0xbeb94d13	-0.36191615
166	0x3e8d366c	0.27580583
167	0x3ce53f18	0.027984187
168	0xbec53762	-0.38518816
169	0xbe7eb211	-0.24872614
170	0xbeb5cb1f	-0.35506532
171	0xbeea172d	-0.45720807
172	0x3e4b8783	0.19875912
173	0xbf37cb7a	-0.71794856
174	0x3e14ef42	0.14544395
175	0xbe688779	-0.22707929
176	0x3e702093	0.23449926
177	0xbeec8430	-0.461946
178	0x3d3661cc	0.04452686
179	0x3ee2f013	0.44323787
180	0xbe85f8c2	-0.2616635
181	0xbf2ef02f	-0.6833524
182	0xbe1dad7d	-0.15398212
183	0x3e239003	0.15972905
184	0x3e712172	0.23547915
185	0x3e933c84	0.28757107
186	0x3ea47d1f	0.3212671
187	0x3e05b296	0.13056406
188	0xbe14b5fe	-0.1452255
189	0x3f189067	0.5959534
190	0x3eb50ade	0.35359854
191	0xbe8929ca	-0.26789695
192	0x3e1a8fe0	0.15093946
193	0x3ef0f609	0.4706271
194	0x3ed2c08d	0.4116253
195	0xbe7f3c89	-0.24925436
196	0x3e8f74c7	0.28018782
197	0xbe8719e9	-0.26386955
198	0xbee38b86	-0.44442385
199	0x3ee9738f	0.45595977
200	0xbe846457	-0.25857803
201	0x3e838794	0.25689375
202	0x3e19a800	0.15005493
203	0x3dedc510	0.11609852
204	0x3cf862eb	0.030320605
205	0xbf3233d2	-0.6961032
206	0x3ddf35d5	0.108989395
207	0x3f01bc36	0.5067781
208	0x3ece1cf2	0.4025646
209	0x3ea0ac03	0.31381235
210	0x3c05657e	0.008141873
211	0xbec30244	-0.38087666
212	0xbcfd07d7	-0.030887527
213	0xbf38fe8b	-0.722634
214	0xbe20ef8d	-0.15716381
215	0xbee96aad	-0.455892
216	0xbe0b0160	-0.13574743
217	0x3cd40406	0.025880825
218	0xbe71de5c	-0.2361998
219	0x3edb6397	0.4284942
220	0x3e033e66	0.12816772
221	0x3f1eb183	0.6198961
222	0x3e62ac76	0.22136101
223	0x3dbf180c	0.093307585
224	0xbe641d42	-0.22276786
225	0x3ee2bbc6	0.44283885
226	0xbd713b2b	-0.058894318
227	0xbd07710b	-0.03306679
228	0x3dcc9fdb	0.099914275
229	0x3eebfefd	0.46092978
230	0xbedf2198	-0.43580317
231	0xbedc4a94	-0.4302565
232	0x3e9a829b	0.3017777
233	0x3e29db42	0.16587546
234	0x3c7a62fc	0.015282389
235	0x3ed5038f	0.41604277
236	0xbdde92c3	-0.10867836
237	0xbf30b772	-0.69029915
238	0x3e7cc000	0.24682617
239	0xbecb8e23	-0.3975688
240	0x3e601f4b	0.21886937
241	0xbe0b5313	-0.13605909
242	0xbe25725a	-0.16156903
243	0x3f2f830f	0.68559355
244	0xbe79c04c	-0.24389762
245	0xbd393d68	-0.045224577
246	0x3e75a218	0.23987615
247	0x3dd2e4a8	0.10297519
248	0x3e634975	0.2219599
249	0xbf2b155d	-0.6682947
250	0x3d395eb0	0.045256317
251	0x3f0b9a7e	0.5453261
252	0xbc73a763	-0.014871451
253	0x3f2ea944	0.6822703
254	0x3ec4554e	0.38346332
255	0x3e33fcdc	0.17576927

fc1.bias f4 [256]
0	0xbe9f330d	-0.31093636
1	0xb7b5e9e9	-2.1685804e-05
2	0x3894d838	7.097464e-05
3	0xba06525c	-0.0005123967
4	0x3db449dc	0.0880315
5	0xb506e789	-5.025582e-07
6	0x3db121b6	0.08649008
7	0xbe49e7ff	-0.19717406
8	0x3e605e29	0.21910919
9	0xbcf5b6db	-0.029994419
10	0x37015b59	7.710268e-06
11	0xba14c78f	-0.00056754885
12	0x3e3e32a1	0.18574001
13	0x3e1fd873	0.15609913
14	0xbd2163cf	-0.039401826
15	0x3af42af6	0.0018628526
16	0xbe7329c6	-0.23746404
17	0xb51d68c9	-5.863954e-07
18	0x3bd9e58e	0.0066496795
19	0xbd875424	-0.066078454
20	0x3dad2d24	0.084558755
21	0xbdc866dd	-0.097852446
22	0x369cea44	4.6764344e-06
23	0x3b9a9e23	0.0047185584
24	0xb3b44a04	-8.3953665e-08
25	0x3e874cf4	0.26425898
26	0x3cc1ac54	0.023641743
27	0xb748f03c	-1.1976863e-05
28	0x3db7d1eb	0.089755856
29	0xb729c052	-1.0117963e-05
30	0x3e94c331	0.2905517
31	0x35fe8368	1.8962719e-06
32	0xb43c92ad	-1.7562225e-07
33	0xbe66e4d6	-0.22548231
34	0x354dfeae	7.673906e-07
35	0x3e20e44d	0.1571209
36	0x3b9756a9	0.004618485
37	0xbe90e47d	-0.28299323
38	0xbad0a601	-0.0015918614
39	0xbe021984	-0.12705046
40	0xbe3782e1	-0.1792102
41	0xbe1b5e2f	-0.15172647
42	0xbd90e4e5	-0.07074908
43	0xbdf0d337	-0.11759036
44	0x3c020567	0.007935858
45	0xbcb31c6a	-0.021864135
46	0x3e2547a3	0.16140608
47	0xbd79161b	-0.060812097
48	0xba129e1f	-0.000559302
49	0xb8768374	-5.8773396e-05
50	0x3e423f71	0.18969513
51	0x3da331cb	0.07968482
52	0x3d06870c	0.032843634
53	0x3d2ce36e	0.04220908
54	0x3da47e96	0.08031957
55	0xbe0a9e73	-0.13537006
56	0xbd925646	-0.071453616
57	0xbe6b8d07	-0.23003016
58	0xbe902c05	-0.28158584
59	0x35759024	9.1479365e-07
60	0x3dc01bd8	0.09380311
61	0xbe883491	-0.26602605
62	0x3e01bc0f	0.12669395
63	0x3a26eeff	0.00063680107
64	0x3e349698	0.17635572
65	0x3662049f	3.3679314e-06
66	0xbe0cf5f5	-0.137657
67	0xb7b989b9	-2.211785e-05
68	0x3df9baf8	0.121938646
69	0xbe8ccb0a	-0.27498657
70	0x3cb89562	0.022532169
71	0x3e5df893	0.21676855
72	0x3e764cdd	0.24052759
73	0x3e064f32	0.13116148
74	0xbdb9bbf8	-0.09069055
75	0x3e54f15f	0.20795201
76	0xbc676b36	-0.014124682
77	0x3df5b74f	0.11997854
78	0xbe549d2e	-0.20763084
79	0xb5c490dd	-1.4645299e-06
80	0x3e9543ce	0.29153293
81	0x3e483923	0.19553046
82	0xbe66d22e	-0.22541115
83	0x3e913a77	0.28364918
84	0x348b62ab	2.5962558e-07
85	0x3d111ec1	0.03542972
86	0x3abd2ad0	0.0014432315
87	0xbe2e92cc	-0.17048186
88	0x3d26eb58	0.040751785
89	0x3e345c2f	0.1761329
90	0x3d8aa658	0.06770009
91	0xbe95d78b	-0.2926601
92	0xbe9229d0	-0.28547525
93	0xbe18eefd	-0.14934917
94	0xb72a9112	-1.0166566e-05
95	0x3e719375	0.23591407
96	0x3e709052	0.23492554
97	0xb59b469f	-1.1568953e-06
98	0xb53a711e	-6.9455007e-07
99	0x3351dccd	4.886242e-08
100	0x3e45438c	0.19264048
101	0x3dd7303e	0.10507248
102	0x3d449d20	0.04800141
103	0x3914f6c0	0.00014206301
104	0x3e0473dc	0.12934822
105	0x3d9d75fe	0.07688521
106	0x3d944b24	0.072408944
107	0x3c5ac133	0.013351726
108	0x3e0b7660	0.13619375
109	0x3dcd0618	0.10010928
110	0x3d45e28b	0.04831175
111	0xbc77c8ef	-0.01512359
112	0x3d525153	0.051347088
113	0xbc0dcf75	-0.008655419
114	0x3db96456	0.09052341
115	0x3e885a91	0.26631597
116	0xbe8246ee	-0.2544474
117	0xbe812787	-0.2522547
118	0xb5f6abf9	-1.8378479e-06
119	0xbc605238	-0.0136914775
120	0xbe486853	-0.19571047
121	0xbe495dcf	-0.19664691
122	0xb5278149	-6.240048e-07
123	0xb462f2e7	-2.1136258e-07
124	0x3b15ab68	0.0022837762
125	0x3e28e4c0	0.16493511
126	0xba522109	-0.0008015787
127	0x3a8befd6	0.0010676335
128	0x37676c25	1.3793852e-05
129	0xbd8764f4	-0.06611052
130	0xb66b3096	-3.504601e-06
131	0x3cea9eef	0.028640239
132	0x3bee237c	0.0072674137
133	0x3e8c7abb	0.27437386
134	0xbdcdbae4	-0.10045412
135	0x3d2899d5	0.04116233
136	0xbd57965d	-0.052633632
137	0x3d015d41	0.031583074
138	0xbe96e39b	-0.29470524
139	0x3b91600c	0.0044364985
140	0xbc30b41f	-0.010785132
141	0x3d32d2f3	0.043658208
142	0x3e8d4694	0.2759291
143	0xbe25204f	-0.16125606
144	0xb7c40f47	-2.3372135e-05
145	0x3c90d93c	0.01768171
146	0xbe206b7a	-0.15665999
147	0xbd1457ae	-0.03621643
148	0xb8ebac5e	-0.00011237779
149	0x357e35ba	9.4700556e-07
150	0x3e1e3123	0.15448432
151	0x3c561fcd	0.013069105
152	0x3d70a4f0	0.058751047
153	0xb8ab6cd8	-8.174189e-05
154	0x3512aba8	5.463903e-07
155	0xb9973d63	-0.000288467
156	0xba569814	-0.00081861136
157	0x3a918517	0.0011102286
158	0x38545e4b	5.0632556e-05
159	0x3e3de6a8	0.1854502
160	0x3b3cd0cc	0.0028810976
161	0xbe3241f8	-0.17407978
162	0xbe0a5d63	-0.13512187
163	0x3d07f47f	0.033192154
164	0x3e1c09d6	0.15238127
165	0xbe792d60	-0.24333715
166	0x3441e5fd	1.8058195e-07
167	0xbde71885	-0.112839736
168	0xbb8d9136	-0.004320289
169	0x3e9f48f7	0.31110355
170	0x39d51be0	0.00040647294
171	0xbb2039f7	-0.0024448612
172	0x3e1e3c78	0.15452754
173	0xbddb167d	-0.10697649
174	0x36cd7d1f	6.124042e-06
175	0x35015bef	4.8190026e-07
176	0xb65cfae8	-3.2928601e-06
177	0xb546da80	-7.407871e-07
178	0x389229ef	6.969633e-05
179	0xbe16de2d	-0.14733191
180	0x36d9c12c	6.489592e-06
181	0x3dfe9749	0.12431199
182	0xbe75b1f7	-0.2399367
183	0xbca1ad27	-0.019735886
184	0x3e2198b1	0.15780903
185	0xbe62319b	-0.22089235
186	0x3e29116c	0.16510552
187	0x3c36a979	0.011148804
188	0xbe2e6d47	-0.17033873
189	0xbcb63a70	-0.022244662
190	0x3d9f8795	0.07789532
191	0x3d8e695d	0.0695369
192	0xb7b2b8d4	-2.130532e-05
193	0x370689ba	8.019089e-06
194	0x3c937b6b	0.018003186
195	0x3a3c82e4	0.0007191135
196	0xbd00d26c	-0.031450674
197	0x3ddfb272	0.109227076
198	0xb273fa67	-1.42013965e-08
199	0xbe93b3c3	-0.28848085
200	0x3e8501ef	0.25978038
201	0xbe0df0e0	-0.13861418
202	0xbe12873a	-0.14309397
203	0x3d7d524e	0.06184607
204	0xb48dbb6c	-2.6399664e-07
205	0xbcb66cde	-0.022268709
206	0x3620b626	2.3947882e-06
207	0x3e84749a	0.2587021
208	0x3e871e25	0.26390186
209	0xb7898b4e	-1.6396541e-05
210	0xbe9f90d8	-0.31165195
211	0x3da6aec3	0.08138802
212	0x3a1f7548	0.0006082845
213	0xbcb73c6e	-0.022367682
214	0x3651f473	3.1285715e-06
215	0xbcc194ab	-0.02363046
216	0xbceb41dd	-0.02871793
217	0xbe72508c	-0.23663539
218	0x3d1bfc0d	0.03808217
219	0x3e891644	0.267748
220	0x3d471d2b	0.0486118
221	0xbe5b5d2e	-0.21422264
222	0xb4173e0d	-1.4085545e-07
223	0x3d6b9ef5	0.05752464
224	0xbcc4c8f7	-0.024021609
225	0x3d7130cb	0.058884423
226	0xb790f701	-1.7281158e-05
227	0x3e0f31bf	0.1398382
228	0x3e381a40	0.17978764
229	0x3c89762c	0.016779982
230	0x3e6e9a21	0.23300983
231	0x3cc210ae	0.023689594
232	0x352c228c	6.4125265e-07
233	0x3e558a2a	0.20853487
234	0xbc3546e6	-0.011064267
235	0xbe3e247f	-0.1856861
236	0xbe3a0fa6	-0.18170032
237	0x3dc552b7	0.09634917
238	0xbdfb932d	-0.12283931
239	0x3e50b8f1	0.2038305
240	0xbd12fa01	-0.035882954
241	0x38482838	4.7721172e-05
242	0x3e93b172	0.28846318
243	0xb72ea679	-1.0409968e-05
244	0x3c61fbba	0.013792926
245	0xbda50367	-0.080572896
246	0x3e9e9b4c	0.30977857
247	0xb60865f2	-2.032492e-06
248	0xbe1f7449	-0.15571703
249	0xbdb1e923	-0.086870454
250	0xb3950a6b	-6.940248e-08
251	0x3ddb34c9	0.10703427
252	0xbe2fc363	-0.17164378
253	0xbba0645d	-0.0048947767
254	0xbcc08a1f	-0.023503361
255	0x3e915fa5	0.28393283

bn1.weight f4 [256]
0	0x3f812c02	1.0091555
1	0x3f7a575c	0.9778955
2	0x3f72e7f0	0.9488516
3	0x3f764857	0.9620413
4	0x3f6be942	0.921528
5	0x3f6ceb4b	0.9254653
6	0x3f6e5908	0.931046
7	0x3f72d472	0.94855416
8	0x3f825bfc	1.0184321
9	0x3f6e7b53	0.9315693
10	0x3f77fbd6	0.96868646
11	0x3f71fc17	0.94525284
12	0x3f6c4240	0.9228859
13	0x3f6c2494	0.92243314
14	0x3f737f0c	0.95115733
15	0x3f72a838	0.9478793
16	0x3f6e7c01	0.93157965
17	0x3f71588d	0.9427574
18	0x3f8780fd	1.0586239
19	0x3f7072b6	0.93925035
20	0x3f6c8e4f	0.92404646
21	0x3f814ae7	1.0100983
22	0x3f8118fe	1.0085752
23	0x3f6fb8c8	0.9364133
24	0x3f6f1460	0.93390465
25	0x3f6e96ec	0.9319904
26	0x3f771f08	0.96531725
27	0x3f7b1037	0.98071617
28	0x3f6bac02	0.9205934
29	0x3f8668a5	1.0500685
30	0x3f75667e	0.95859516
31	0x3f719f21	0.94383436
32	0x3f711da9	0.9418588
33	0x3f72a8d1	0.94788843
34	0x3f6efea4	0.933573
35	0x3f7708ec	0.9649799
36	0x3f8363a3	1.0264782
37	0x3f703b73	0.9384071
38	0x3f6ff4c1	0.9373284
39	0x3f72ef7a	0.9489666
40	0x3f69f3eb	0.91387814
41	0x3f73a9c7	0.95180935
42	0x3f6b3ac5	0.9188655
43	0x3f7a200e	0.9770516
44	0x3f7054dc	0.93879485
45	0x3f6e99a0	0.93203163
46	0x3f70a752	0.9400531
47	0x3f76161d	0.9612749
48	0x3f6896d4	0.90855145
49	0x3f6c290e	0.92250144
50	0x3f72fb3d	0.9491461
51	0x3f71f980	0.9452133
52	0x3f6d72fe	0.9275359
53	0x3f6dee35	0.929416
54	0x3f6c26a1	0.92246443
55	0x3f711154	0.94167066
56	0x3f7b08c6	0.9806026
57	0x3f708e54	0.93967175
58	0x3f7248d3	0.9464237
59	0x3f6d2ab3	0.9264328
60	0x3f71e7e0	0.9449444
61	0x3f6ed2be	0.9329032
62	0x3f6c4898	0.9229827
63	0x3f6f2bde	0.9342631
64	0x3f73ed90	0.95284367
65	0x3f760d72	0.96114266
66	0x3f7189b6	0.94350755
67	0x3f81aab9	1.0130225
68	0x3f6e8229	0.9316736
69	0x3f7111db	0.9416787
70	0x3f71ac2b	0.9440333
71	0x3f7472fb	0.95487946
72	0x3f6c1ef7	0.9223475
73	0x3f72c5af	0.9483289
74	0x3f7eb591	0.994958
75	0x3f80b0e4	1.0053983
76	0x3f81df83	1.0146335
77	0x3f6f5e98	0.93503714
78	0x3f843533	1.0328735
79	0x3f7043ba	0.9385334
80	0x3f6e40d6	0.9306768
81	0x3f6d16f1	0.9261313
82	0x3f72a593	0.94783896
83	0x3f6c16a7	0.92222065
84	0x3f6fc338	0.93657255
85	0x3f729c6e	0.9476994
86	0x3f7776a4	0.96665406
87	0x3f6bc2ee	0.92094314
88	0x3f6ea3ce	0.93218696
89	0x3f72d1c3	0.9485132
90	0x3f77a094	0.967294
91	0x3f7359cb	0.9505889
92	0x3f6a54cc	0.9153564
93	0x3f69bbb4	0.9130204
94	0x3f747447	0.95489925
95	0x3f6f7cad	0.93549615
96	0x3f69d1eb	0.91335934
97	0x3f71f56c	0.9451511
98	0x3f6e21d8	0.9302039
99	0x3f70a569	0.94002396
100	0x3f6e895d	0.9317835
101	0x3f69a65e	0.9126948
102	0x3f84eb9d	1.0384403
103	0x3f776c9e	0.9665011
104	0x3f6cbf7a	0.9247967
105	0x3f864997	1.0491208
106	0x3f82350f	1.0172442
107	0x3f755f58	0.9584861
108	0x3f6cea72	0.92545235
109	0x3f70c0e4	0.9404433
110	0x3f704ab9	0.9386402
111	0x3f6a63cf	0.91558546
112	0x3f70e934	0.9410584
113	0x3f71ae35	0.94406444
114	0x3f75705d	0.9587458
115	0x3f7505b7	0.95711845
116	0x3f694cd2	0.91132843
117	0x3f7d905f	0.9904842
118	0x3f7c9fb6	0.986812
119	0x3f711871	0.9417792
120	0x3f6c0c95	0.922067
121	0x3f7539e6	0.9579147
122	0x3f6e7feb	0.9316394
123	0x3f725282	0.94657147
124	0x3f73f37c	0.952934
125	0x3f761fb0	0.961421
126	0x3f7ee9ce	0.9957551
127	0x3f6f0af4	0.9337609
128	0x3f7ba125	0.9829276
129	0x3f6f2ef5	0.93431026
130	0x3f6ad78e	0.9173516
131	0x3f81abcd	1.0130554
132	0x3f6b6fbe	0.9196738
133	0x3f71d75b	0.9446923
134	0x3f6dfdea	0.9296557
135	0x3f6c714b	0.9236037
136	0x3f835154	1.0259194
137	0x3f73bd47	0.9521069
138	0x3f7559b1	0.95839983
139	0x3f6d3595	0.92659885
140	0x3f72e823	0.9488546
141	0x3f7302cd	0.9492615
142	0x3f86805f	1.0507926
143	0x3f6d9bc9	0.92815834
144	0x3f7024dc	0.9380624
145	0x3f737b95	0.95110446
146	0x3f6f6f0e	0.9352883
147	0x3f723a9a	0.9462067
148	0x3f69b613	0.9129345
149	0x3f6af8a4	0.91785645
150	0x3f7227d3	0.94592017
151	0x3f7311fb	0.9494931
152	0x3f7331cb	0.94997853
153	0x3f85e6c6	1.0461051
154	0x3f72199d	0.9457033
155	0x3f700a3e	0.9376563
156	0x3f81bff5	1.0136706
157	0x3f75df64	0.9604399
158	0x3f7cf451	0.988103
159	0x3f7311e9	0.94949204
160	0x3f724dca	0.94649947
161	0x3f6b9376	0.9202188
162	0x3f69d892	0.91346085
163	0x3f82adf5	1.0209337
164	0x3f82b5d3	1.0211738
165	0x3f6c2243	0.9223978
166	0x3f6f645d	0.9351252
167	0x3f6f67b9	0.93517643
168	0x3f6d86ea	0.9278399
169	0x3f6c693d	0.9234808
170	0x3f696225	0.9116538
171	0x3f70b7d9	0.9403053
172	0x3f700ac3	0.9376642
173	0x3f6b7ed2	0.9199039
174	0x3f829366	1.0201232
175	0x3f6f6fe3	0.935301
176	0x3f8069b9	1.0032264
177	0x3f7083b6	0.93950975
178	0x3f869dab	1.0516866
179	0x3f75a6ae	0.9595746
180	0x3f73bd9a	0.95211184
181	0x3f731605	0.94955474
182	0x3f6efa5b	0.9335076
183	0x3f6a8dc0	0.91622543
184	0x3f6df6f2	0.92954934
185	0x3f6d4802	0.92688
186	0x3f6b6940	0.91957474
187	0x3f6fa7a0	0.9361515
188	0x3f73d2de	0.9524363
189	0x3f7049dd	0.93862706
190	0x3f70ae91	0.9401637
191	0x3f6d3e7b	0.9267346
192	0x3f8598a2	1.0437205
193	0x3f833b2d	1.0252434
194	0x3f704c30	0.9386625
195	0x3f711f7b	0.9418866
196	0x3f680a49	0.90640694
197	0x3f735bf7	0.950622
198	0x3f6ef954	0.93349195
199	0x3f6cf604	0.9256289
200	0x3f6f8f4f	0.93578047
201	0x3f721bde	0.9457377
202	0x3f7336bf	0.9500541
203	0x3f75ea71	0.96060854
204	0x3f6ba16b	0.9204318
205	0x3f7bd325	0.98369056
206	0x3f6c768d	0.92368394
207	0x3f7d47c2	0.9893762
208	0x3f7243c6	0.94634664
209	0x3f760405	0.96099883
210	0x3f70e147	0.94093746
211	0x3f7599e4	0.95937943
212	0x3f7218bd	0.94569
213	0x3f73f4cd	0.9529541
214	0x3f766bb8	0.96258116
215	0x3f6dc0a3	0.92872065
216	0x3f74330c	0.9539039
217	0x3f68f58b	0.9099967
218	0x3f6c317d	0.92263013
219	0x3f72022a	0.9453455
220	0x3f74e88d	0.95667344
221	0x3f6e9547	0.9319653
222	0x3f70e753	0.9410297
223	0x3f6f1c98	0.93403006
224	0x3f717953	0.9432575
225	0x3f7f488a	0.9972006
226	0x3f6f596a	0.9349581
227	0x3f6fbcc3	0.936474
228	0x3f6fa104	0.93605065
229	0x3f703d16	0.9384321
230	0x3f7448f8	0.9542384
231	0x3f719f97	0.9438414
232	0x3f6def7b	0.92943543
233	0x3f79c66d	0.975684
234	0x3f716acf	0.943036
235	0x3f6a38f2	0.9149314
236	0x3f747345	0.9548839
237	0x3f6ff793	0.93737143
238	0x3f71bf0b	0.94432133
239	0x3f6ee6d7	0.93320984
240	0x3f6e7e8a	0.93161833
241	0x3f8457b8	1.033927
242	0x3f72ed37	0.9489321
243	0x3f6975d9	0.91195446
244	0x3f6dcba5	0.9288886
245	0x3f736a84	0.95084405
246	0x3f6dd4d0	0.9290285
247	0x3f6fc29a	0.93656313
248	0x3f6eff11	0.9335795
249	0x3f6e6839	0.9312778
250	0x3f76260c	0.96151805
251	0x3f7d959b	0.99056405
252	0x3f6f76e7	0.93540806
253	0x3f6f68b3	0.93519133
254	0x3f70e35f	0.9409694
255	0x3f6f781e	0.9354266

bn1.bias f4 [256]
0	0x3daa7e35	0.08324853
1	0x3d671032	0.05641193
2	0xbd54938d	-0.051898528
3	0xbc6d52ea	-0.0144851
4	0xbb3f161d	-0.0029157468
5	0xbc3a345d	-0.011365023
6	0x3c4c7502	0.012479069
7	0xbd12c7b1	-0.03583497
8	0x3c914a65	0.01773567
9	0xbc6afa35	-0.014341881
10	0x3cb9269c	0.022601418
11	0xbd25d254	-0.040483788
12	0x3b50c139	0.003185345
13	0xbd226c99	-0.039654348
14	0xbc0b88df	-0.008516519
15	0x3d45cb8f	0.04828983
16	0xbc84588f	-0.01615551
17	0xbd3ab6df	-0.045584556
18	0x3cb3c638	0.021945104
19	0xbd1ddf4a	-0.038543023
20	0xbd422cca	-0.047405995
21	0x3d884962	0.06654622
22	0x3c208adc	0.009798732
23	0xbd865222	-0.06558634
24	0xbd714a54	-0.058908775
25	0xbd571f9f	-0.05252039
26	0xbb1d0060	-0.0023956522
27	0xbd236c9e	-0.039898507
28	0xbd075c61	-0.033047084
29	0xbbb23bf6	-0.005439277
30	0xbb8bc58e	-0.0042654937
31	0x3d2c15c1	0.042012934
32	0x38555abf	5.086767e-05
33	0xbd3efe34	-0.046629146
34	0xbc8c8d81	-0.017157318
35	0xbd037fd0	-0.032104313
36	0x3dda2955	0.10652415
37	0x3b51a99a	0.003199196
38	0xbd82ac59	-0.06380529
39	0xbbe2e45f	-0.0069241966
40	0x3caf9102	0.02143145
41	0xbd34fb7d	-0.04418515
42	0xbcf1cd97	-0.029516978
43	0x3af799fb	0.0018890494
44	0xbcd923a1	-0.026506247
45	0x3d1bf338	0.03807375
46	0xbcf3766e	-0.029719558
47	0xbd2dfc36	-0.042476855
48	0x3c1c13c1	0.009526194
49	0xbd802413	-0.062568806
50	0xbd327481	-0.043568138
51	0xbd272010	-0.04080206
52	0xbcafb0b0	-0.021446556
53	0xbcd14b9d	-0.02554875
54	0xbcbb37cf	-0.02285376
55	0xbce9489e	-0.02847701
56	0x3d147faa	0.036254562
57	0xbd3afa75	-0.04564901
58	0xbc9baad5	-0.019002357
59	0x3cc182a6	0.023621868
60	0x3c5a9abe	0.0133425575
61	0xbc9a11e8	-0.018807366
62	0xbd5f24c8	-0.054478437
63	0xbce9ac74	-0.028524615
64	0xbd3e5aeb	-0.046473425
65	0xbd5e8ff9	-0.05433652
66	0xbd54d8e4	-0.051964656
67	0x3da25231	0.07925833
68	0xbc9f5d33	-0.01945362
69	0xbd359e0a	-0.04434017
70	0xbc1a912c	-0.009434026
71	0x3c74655a	0.014916742
72	0xbcfaeaa3	-0.030629462
73	0xbd7ba54c	-0.061436936
74	0x3cd0a41d	0.02546888
75	0x3ae8dc32	0.0017765819
76	0x3c0657f3	0.00819968
77	0xbbf782d6	-0.0075534387
78	0x3dca2cd2	0.0987183
79	0xbb2a98d7	-0.002603104
80	0xbd14538f	-0.0362125
81	0x3cc1070f	0.023562936
82	0x3c091acd	0.008368206
83	0xbd0095e9	-0.031392965
84	0x3c7d349d	0.0154544385
85	0x3c581cb7	0.01319044
86	0xbd9b9b8c	-0.075980276
87	0xbd4cbd39	-0.049985144
88	0xbd730b9d	-0.059337247
89	0x3c6c3b6e	0.014418466
90	0x3a4e4770	0.00078689214
91	0xbd69f2f8	-0.05711648
92	0x3ccd38d6	0.025051516
93	0xbc3f5f4c	-0.011680435
94	0xbd76f02f	-0.06028765
95	0xbd4f57c9	-0.050620828
96	0xbd0b3b85	-0.03399231
97	0xbba663e0	-0.005077824
98	0xbd09f8f4	-0.033684686
99	0xbd81cc9b	-0.063378535
100	0xbd930123	-0.07177951
101	0xbc648c57	-0.013949475
102	0xbca5fdd4	-0.020262636
103	0x3d2562e7	0.040377524
104	0xbc5679c9	-0.013090559
105	0xbc1e9779	-0.009679669
106	0x3c60857b	0.013703699
107	0x3cbafc17	0.022825284
108	0xbd39d7a2	-0.04537166
109	0xbcda39b0	-0.026638836
110	0x3c1dffb0	0.00964348
111	0xbc590040	-0.0132446885
112	0xbd84feae	-0.06493889
113	0xbd208949	-0.039193425
114	0x3c7de3a3	0.015496167
115	0x3c369c0d	0.011145604
116	0x3cd3df2c	0.025863253
117	0x3d466d66	0.048444174
118	0x3c84be6c	0.016204081
119	0xbd1d8a18	-0.038461775
120	0x3c8bbacc	0.017056845
121	0xbd8473ad	-0.06467376
122	0xbd49e905	-0.04929449
123	0xbd2be579	-0.04196689
124	0xbd469e52	-0.04849083
125	0x3b270181	0.0025483074
126	0x3d894e6c	0.06704411
127	0xbb0de6a7	-0.0021652372
128	0x3c492b85	0.012278442
129	0xbd37dbab	-0.044887226
130	0xbd2491f1	-0.040178243
131	0x3c618412	0.013764398
132	0x3cc87516	0.024469893
133	0xbd0b4a04	-0.034006134
134	0x3d17c2e0	0.03705108
135	0xbc9db475	-0.019251088
136	0x3d871f2d	0.06597743
137	0x3be05072	0.0068455273
138	0xbd272811	-0.040809695
139	0xba6c6e8d	-0.0009019159
140	0x3c9af13b	0.018913856
141	0xbcd2a8c7	-0.025715245
142	0x3c2b425a	0.010452831
143	0xbc53c589	-0.012925514
144	0xbd40a8f6	-0.047036134
145	0xbd5f6fee	-0.054550104
146	0x3d0337e0	0.03203571
147	0xbc6d3160	-0.014477104
148	0xbc05988a	-0.008154044
149	0xbb1b747d	-0.0023720555
150	0x3cb0cfd7	0.02158348
151	0x3c42f395	0.011898895
152	0x39d4b425	0.0004057001
153	0x3ceb6e61	0.028739156
154	0xbd31b373	-0.043384027
155	0xbd081e46	-0.033231996
156	0x3c0d40eb	0.008621435
157	0x3bdcea1f	0.0067417766
158	0xbd162795	-0.036658842
159	0x3d30d1b5	0.043168742
160	0xbd1fc697	-0.03900775
161	0xbd850125	-0.06494359
162	0xbbbf16a4	-0.0058315564
163	0x3da4979f	0.08036732
164	0x3db92a8d	0.09041319
165	0xbcb542a2	-0.0221265
166	0xbca96913	-0.020679986
167	0xbcfc205b	-0.030777147
168	0xbd1a542e	-0.037677936
169	0x3ce431e4	0.027855821
170	0x3ca97a50	0.020688206
171	0xbad7a1ef	-0.0016451458
172	0xbd6a8afd	-0.057261456
173	0xbd3f41e9	-0.046693716
174	0x3d8ee797	0.06977766
175	0xbd03de60	-0.032194495
176	0x3d527fd5	0.05139144
177	0xbd4e5403	-0.05037309
178	0xbc0ae958	-0.008478485
179	0x3ccd07ee	0.025028195
180	0x3c66e2dc	0.014092173
181	0x3c444248	0.011978693
182	0x3b9fbe06	0.0048749475
183	0xbcaac3b7	-0.020845277
184	0xbd406432	-0.046970554
185	0xbd8363ec	-0.06415543
186	0xbbdbc81e	-0.0067072054
187	0xbcd03ed1	-0.025420578
188	0x3b8b4791	0.0042504747
189	0xbd06a0b8	-0.032868117
190	0xb9a85e20	-0.00032113586
191	0x3c43d61c	0.011952903
192	0xbb8e2832	-0.0043382877
193	0x3da8c93c	0.082415074
194	0x3c8c9aa5	0.017163584
195	0xbd7dd480	-0.061970234
196	0xbcb30034	-0.021850683
197	0xbbb5a153	-0.005542913
198	0xbd8caac2	-0.06868507
199	0xbce6287f	-0.028095482
200	0xbb791b51	-0.0038010667
201	0xbd5a9dd6	-0.05337318
202	0xbc18716e	-0.0093043875
203	0xba4700c5	-0.0007591362
204	0x3d08f0e7	0.033432867
205	0x3d029175	0.031877
206	0x3d15c24d	0.036562253
207	0xbd4f4f0f	-0.050612506
208	0xbd1445d1	-0.036199395
209	0xbd2750b6	-0.040848456
210	0xbd01589d	-0.03157865
211	0x3c40d203	0.011768821
212	0xbc973fe4	-0.018463083
213	0xbba0dd70	-0.00490921
214	0xbd189a1b	-0.03725634
215	0x3c112d48	0.008860894
216	0xbcb08692	-0.021548543
217	0xbd0c64e5	-0.034275908
218	0xbd0a0220	-0.033693433
219	0xbc474d02	-0.012164356
220	0xbd8027bf	-0.06257581
221	0x3b814acf	0.0039456855
222	0xbd82b9e5	-0.06383113
223	0xbd663622	-0.05620397
224	0x3ceb4298	0.028718278
225	0xbd17e7c9	-0.037086282
226	0xbd4f4fc7	-0.05061319
227	0x3d10ce9f	0.0353533
228	0xbcb93d19	-0.022612141
229	0x3d2e3d2d	0.04253881
230	0xbb41a6fc	-0.0029548993
231	0xbd10aee9	-0.035323057
232	0xbc8806ac	-0.016604744
233	0x3c9a4791	0.018832954
234	0xbd8809cc	-0.066424936
235	0xbc96c09f	-0.018402396
236	0xbd31efe5	-0.043441672
237	0xbd3aa318	-0.045565695
238	0x3b533416	0.003222709
239	0xbd58b8b4	-0.05291052
240	0xbd7cb2d8	-0.061693996
241	0x3dc8aa32	0.09798087
242	0x3ce5e9f1	0.028065654
243	0xbd9da6e7	-0.0769785
244	0xbd790d88	-0.06080392
245	0x3d30f5e7	0.04320326
246	0x3d33247c	0.043735966
247	0xbcd21ea7	-0.025649382
248	0xbc7a5b4c	-0.015280556
249	0xbd550c07	-0.052013423
250	0x3bc554aa	0.0060220556
251	0x3b6ede33	0.003644836
252	0xbc1f2390	-0.009713069
253	0xbd34dc05	-0.04415514
254	0x3bea0c75	0.0071425983
255	0xb9f8b25e	-0.0004743514

bn1.running_mean f4 [256]
0	0xbe9fd370	-0.31216002
1	0xba840baf	-0.0010074283
2	0x3d4349e2	0.047677882
3	0x3b96f196	0.004606436
4	0xbd103667	-0.035208132
5	0x3e6389bd	0.22220512
6	0x3e9f4c45	0.31112877
7	0xbec0d6ca	-0.3766387
8	0x3e61d7ea	0.22055021
9	0x3dcc13fc	0.09964749
10	0xbc85c7ae	-0.016330566
11	0x3e849c6d	0.25900593
12	0x3d651c5c	0.05593525
13	0x3d80ef85	0.06295685
14	0xbe29b5c8	-0.1657325
15	0xbe4e993f	-0.20175646
16	0xbd8324f7	-0.06403535
17	0xbc86741b	-0.016412785
18	0x3abdba28	0.0014475035
19	0xbb6d82d4	-0.003624131
20	0xbd8d03a9	-0.06885464
21	0xbdd02e02	-0.10165025
22	0x3c1cbe38	0.009566836
23	0x3e2d4c00	0.16923523
24	0x3dee7d5c	0.11645004
25	0x3e0b38c5	0.13595875
26	0x3d0aa06f	0.033844408
27	0xbc013c73	-0.007887947
28	0x3d1a2be6	0.03763952
29	0xbb828335	-0.0039829263
30	0x3ef5c76c	0.4800371
31	0xbd2d3c43	-0.0422938
32	0xbe159535	-0.14607699
33	0xbe9be002	-0.30444342
34	0xbdb41efd	-0.08794973
35	0x3e5cf214	0.2157672
36	0x3c3b2499	0.0114223
37	0xbd978f3a	-0.07400365
38	0xbe463ac7	-0.1935836
39	0xbd7f2d34	-0.06229897
40	0xbe782cb6	-0.24235806
41	0xbe82fc19	-0.2558296
42	0xbe68ea68	-0.22745669
43	0xbd5c3a66	-0.05376663
44	0x3e1ab58f	0.15108322
45	0xbd84111f	-0.06448578
46	0x3e793a49	0.2433864
47	0xbe67d7a5	-0.22640856
48	0xbd40f1c1	-0.047105554
49	0x3d90d248	0.07071358
50	0x3c1433ba	0.009045536
51	0xbdcec451	-0.10096038
52	0x3d9991f2	0.0749854
53	0xbdfbfb95	-0.12303845
54	0xbdaf0380	-0.085455894
55	0x3cbce9fe	0.023060795
56	0xbd96c0e9	-0.073610134
57	0xbef2e0cd	-0.47437134
58	0xbe1f903b	-0.15582363
59	0xbe3187ed	-0.17337008
60	0x3e1f1263	0.15534358
61	0xbd753a39	-0.05986998
62	0xbd04c811	-0.03241736
63	0xbe3798d3	-0.17929392
64	0x3e5572db	0.20844595
65	0xbdcda727	-0.100416474
66	0xbd6fcf25	-0.058547158
67	0x3b0704c8	0.0020602215
68	0x3d8f805a	0.07006903
69	0xbe0f0f8b	-0.13970773
70	0x3e11c0eb	0.14233749
71	0x3ec776c5	0.389578
72	0x3e3686de	0.17824885
73	0xbd4ae788	-0.04953721
74	0xbdcbed53	-0.099573754
75	0x3e58a5b3	0.21156959
76	0xbbc3a4e5	-0.0059705847
77	0x3e8cbb5d	0.27486697
78	0xbe4a85b0	-0.1977756
79	0x3d7f7e20	0.06237614
80	0x3ef3e92e	0.4763884
81	0x3d996d91	0.07491601
82	0xbe164067	-0.14673005
83	0x3e10395e	0.14084384
84	0x3e4a86bc	0.1977796
85	0x3e5d1e3c	0.21593565
86	0xbddbca83	-0.107319854
87	0xbe7da6bf	-0.2477064
88	0xbdad16c4	-0.08451608
89	0x3e205024	0.15655571
90	0x3e4aba90	0.1979773
91	0xbe589e92	-0.2115424
92	0xbecf84eb	-0.40531096
93	0xbea13cdd	-0.31491747
94	0x3da3e3e8	0.08002454
95	0x3d4e8736	0.050421916
96	0x3e243b32	0.16038206
97	0xbe5c9b9f	-0.2154374
98	0xbe16edea	-0.14739195
99	0x3e6fb38b	0.23408334
100	0x3ea85498	0.3287704
101	0x3ce6d486	0.028177511
102	0x3cdb38e4	0.026760526
103	0xbd56783c	-0.05236076
104	0xbd9d8b5f	-0.076925986
105	0x3d8ea1b3	0.069644354
106	0x3da95e22	0.082699075
107	0x3dbadc37	0.09124034
108	0x3e53c21a	0.20679513
109	0x3e676b12	0.22599438
110	0xbc58eb78	-0.013239734
111	0xbe044721	-0.12917759
112	0x3e2e782c	0.1703803
113	0x3cb12472	0.021623824
114	0x3d2d8578	0.042363614
115	0x3efa51b9	0.48890474
116	0xbed1bae3	-0.40962896
117	0xbe83861e	-0.2568826
118	0x3d506ce3	0.050885092
119	0xbe14516d	-0.14484186
120	0xbe9ede67	-0.31029055
121	0xbddc028b	-0.107426725
122	0x3e0125f8	0.1261214
123	0xbdfd16f6	-0.12357895
124	0xbdf1e769	-0.11811716
125	0x3e1549aa	0.14578882
126	0x3c49d27e	0.012318252
127	0xbe491be9	-0.19639553
128	0x39ada91b	0.00033123125
129	0xbc80e296	-0.015733045
130	0xbdaa6156	-0.083193466
131	0x3d3996d6	0.045309864
132	0xbdca7295	-0.09885136
133	0x3df84925	0.12123326
134	0xbe5d1d08	-0.21593106
135	0xbe178ebf	-0.14800547
136	0xbd3de910	-0.046364844
137	0x3e1703f1	0.14747597
138	0xbee370ca	-0.4442199
139	0xbe677559	-0.22603358
140	0x3d30708c	0.043076083
141	0x3db26d93	0.08712306
142	0x3e8c81df	0.27442834
143	0x3d891556	0.06693523
144	0xbe795a00	-0.24350739
145	0x3e278e5d	0.16362901
146	0xbe6ab1b4	-0.22919351
147	0x3debea4f	0.115193
148	0xbe0dd2f8	-0.1385001
149	0xbd565c07	-0.052333858
150	0x3e104aa0	0.14090967
151	0x3e6353f8	0.222
152	0x3db767d0	0.089553475
153	0xbbd53e2d	-0.006507656
154	0xbcd6202e	-0.026138391
155	0x3e08e9b2	0.13370398
156	0xbb03994a	-0.002008038
157	0x3d091f90	0.033477366
158	0xbc033f53	-0.008010703
159	0x3dce5677	0.100750856
160	0x3e6c3196	0.2306579
161	0xbcb8f0b8	-0.022575721
162	0xbe7673db	-0.24067633
163	0x3d05ac2f	0.03263491
164	0x3e1f9c96	0.15587077
165	0xbed3a03f	-0.41333196
166	0xbe0bc622	-0.136498
167	0x3dc21246	0.09476142
168	0x3defdc8c	0.11711988
169	0x3e3a1397	0.18171535
170	0xbe41e100	-0.18933487
171	0x3e71a62c	0.23598546
172	0x3ea7245e	0.32644933
173	0xbe86c289	-0.26320294
174	0xbb9df732	-0.0048207277
175	0xbe52118a	-0.20514503
176	0xbb613f37	-0.0034369954
177	0xbdb586fc	-0.08863637
178	0xbb4c811b	-0.0031204883
179	0xbe2b8024	-0.167481
180	0x3d3b6361	0.045749072
181	0x3e6bcc97	0.23027264
182	0xbe917dc4	-0.28416264
183	0xbe3364fa	-0.17518988
184	0x3e91993b	0.28437218
185	0xbdd168e1	-0.10225082
186	0x3d4d1425	0.05006804
187	0xbe3bb9b1	-0.18332554
188	0xbda01903	-0.078172706
189	0x3dec4e9a	0.115384296
190	0x3d99d46b	0.07511219
191	0xbd614351	-0.05499584
192	0xbbc2df96	-0.0059470637
193	0x3c184348	0.009293385
194	0xbd71c205	-0.059022922
195	0x3dedd56f	0.11612975
196	0xbe12a736	-0.14321598
197	0x3e8752f1	0.26430467
198	0xbe340f92	-0.17584065
199	0xbe9baaf5	-0.30403867
200	0x3edb5d2e	0.42844528
201	0x3c6c2c55	0.014414866
202	0xbc96b2eb	-0.018395862
203	0x3e3a07a1	0.18166973
204	0xbdfb488f	-0.12269699
205	0xbd0633cf	-0.032764252
206	0xbe2fc098	-0.17163312
207	0x3e770aae	0.24125168
208	0x3ea5e482	0.324009
209	0x3d8e095a	0.069353774
210	0xbe2bc5ad	-0.16774626
211	0x3d355a58	0.04427561
212	0xbddd503f	-0.10806321
213	0x3d9d4113	0.076784275
214	0x3d84e536	0.06489031
215	0x3cd6b97f	0.026211498
216	0x3e13d906	0.14438257
217	0xbebdcd0a	-0.37070495
218	0xbdcd9920	-0.10038972
219	0x3ec7d90d	0.39032784
220	0xbde79153	-0.11307015
221	0xbec7b0b1	-0.39001992
222	0x3e3d2e51	0.184747
223	0x3ea3b272	0.3197208
224	0xbe07350a	-0.13203827
225	0x3d26d415	0.0407296
226	0xbdbea629	-0.09309036
227	0xbd98095f	-0.074236624
228	0x3e90b8e6	0.28266066
229	0xbd9f8a2a	-0.077900246
230	0x3eacfd82	0.3378716
231	0x3d62ab45	0.055339117
232	0x3e0e2022	0.13879445
233	0x3e6c6641	0.23085882
234	0x3dc075aa	0.09397443
235	0xbea29c30	-0.31759787
236	0xbeaed6a9	-0.34148148
237	0x3caf0f90	0.021369725
238	0xbe3d016f	-0.18457578
239	0x3ecef790	0.4042325
240	0xbe79cca4	-0.2439447
241	0x3c0ed4ff	0.008717774
242	0x3e90c879	0.28277948
243	0x3e0bcad5	0.13651593
244	0x3e3f2140	0.18665028
245	0x3db2ace9	0.08724386
246	0x3e178780	0.14797783
247	0x3e3c84b6	0.1841
248	0xbae1177b	-0.0017173135
249	0x3d1df1ed	0.038560797
250	0x3e36346e	0.17793438
251	0x3e10627f	0.14100073
252	0xbe993327	-0.2992184
253	0x3e0d13e9	0.13777126
254	0xbdf59b95	-0.119925655
255	0x3ed7d118	0.42151713

bn1.running_var f4 [256]
0	0x38171a0f	3.6025474e-05
1	0x3856456e	5.1086237e-05
2	0x3a64198d	0.0008701317
3	0x38c2bd56	9.2859074e-05
4	0x3be7ae16	0.007070313
5	0x3ce6d04a	0.028175492
6	0x3ccdefaa	0.025138695
7	0x3c7aa12d	0.015297216
8	0x39b3336f	0.00034179862
9	0x3c001b4e	0.00781901
10	0x3a0ad674	0.0005296238
11	0x3d1e2b68	0.038615614
12	0x3c031e7b	0.008002873
13	0x3b8c8786	0.0042886166
14	0x3be04826	0.0068445383
15	0x3cc76705	0.024341116
16	0x3c970e19	0.01843934
17	0x38d0c034	9.9540135e-05
18	0x39666846	0.00021973354
19	0x3b05a71a	0.002039379
20	0x3c3e8f9b	0.011630918
21	0x39f67193	0.00047005396
22	0x3a40af60	0.00073503517
23	0x3c583b48	0.0131977275
24	0x3bc8bcf2	0.0061260397
25	0x3bf280fb	0.0074006296
26	0x38e8eff0	0.00011107314
27	0x382328d1	3.890024e-05
28	0x3a96b36e	0.0011497566
29	0x38e9f527	0.00011155969
30	0x3caed62b	0.021342358
31	0x3abc0cf1	0.0014347119
32	0x3c553a75	0.0130144255
33	0x3b24f7ce	0.0025172117
34	0x3b82a782	0.0039872536
35	0x3aa18018	0.00123215
36	0x3983e1e9	0.00025154583
37	0x3ccd4984	0.025059469
38	0x3c8e14f6	0.01734398
39	0x3b6a9a07	0.0035797374
40	0x3b2bcb90	0.0026213862
41	0x3b9c3663	0.0047672256
42	0x3c6990b4	0.014255691
43	0x3b6761d4	0.0035306113
44	0x3c1c299a	0.009531403
45	0x3a867895	0.0010259325
46	0x3b298e9d	0.0025872358
47	0x3c709be7	0.0146856075
48	0x3a8fb2f4	0.0010963366
49	0x3b19d8de	0.002347521
50	0x3c78da62	0.015188785
51	0x3c7f0224	0.015564475
52	0x3a73e135	0.0009303273
53	0x3c5287dd	0.012849775
54	0x3c812ce4	0.015768476
55	0x3c601698	0.013677262
56	0x3913ad27	0.00014083517
57	0x3ce76d65	0.028250406
58	0x3c27ee11	0.010249631
59	0x3c700258	0.014648996
60	0x3b3a9763	0.0028471581
61	0x3ca0f410	0.019647628
62	0x3c428694	0.011872906
63	0x3c7c7199	0.015407943
64	0x39d35e6a	0.000403154
65	0x3b888add	0.0041669444
66	0x3b58e7b3	0.0033097088
67	0x388bec0d	6.6720044e-05
68	0x3aa86d66	0.0012849986
69	0x3c1ceb87	0.0095776385
70	0x3c19a3a6	0.009377396
71	0x3c8dd8fa	0.017315377
72	0x3b0853ed	0.0020801977
73	0x3c78267d	0.015145895
74	0x3a27fba2	0.00064080406
75	0x393570c6	0.00017303517
76	0x39af9a1c	0.00033493422
77	0x3c5ce1b8	0.01348155
78	0x396a72b5	0.0002235871
79	0x3b03bdca	0.0020102137
80	0x3c861ea9	0.016372042
81	0x3c03788f	0.008024349
82	0x3b84815d	0.0040437416
83	0x3c2f5c84	0.01070321
84	0x3cb10b44	0.021611817
85	0x3c9d12ff	0.019174097
86	0x3b99f073	0.0046978532
87	0x3b31f0b5	0.002715153
88	0x3be2f877	0.006926592
89	0x3a1c1490	0.0005953992
90	0x3c3bb40d	0.011456502
91	0x3b4cc985	0.0031248045
92	0x3c098ac5	0.008394902
93	0x3c7289f2	0.014803397
94	0x3b228e48	0.0024804045
95	0x3c890adc	0.016728811
96	0x3b81cb9d	0.00396104
97	0x3cbb4b82	0.022863153
98	0x3c2a6068	0.010398962
99	0x3cd55e09	0.026045816
100	0x3c10b567	0.008832312
101	0x3b58c2ef	0.0033075174
102	0x39a65dbd	0.00031731828
103	0x3b189619	0.0023282825
104	0x3cc31676	0.023814421
105	0x38c395ef	9.326252e-05
106	0x3a3d310d	0.0007217087
107	0x3b8a69d4	0.0042240415
108	0x3b26eed4	0.0025471942
109	0x3be7e2d7	0.007076602
110	0x3b562e68	0.003268147
111	0x3be683fe	0.0070347777
112	0x3bccaae0	0.006245956
113	0x3a03b828	0.0005024695
114	0x3affb8e0	0.0019510053
115	0x3ce7d413	0.028299367
116	0x3c57fc4e	0.013182713
117	0x3965678e	0.00021877719
118	0x3b2e015f	0.002655111
119	0x3bffa0ec	0.007801166
120	0x3bd39ed9	0.006458145
121	0x3b48ae17	0.0030621344
122	0x3c09d983	0.008413675
123	0x3c076980	0.008264899
124	0x3bc35e5b	0.005962176
125	0x3a3db21f	0.000723632
126	0x399ca48a	0.0002987723
127	0x3cad5849	0.021160262
128	0x37ea33c8	2.7919086e-05
129	0x3ab1be41	0.0013560728
130	0x3b8b3394	0.004248092
131	0x3a492b3c	0.0007673984
132	0x3bf5ee05	0.007505181
133	0x3c30927f	0.010777115
134	0x3bf8714b	0.007581865
135	0x3c8b3606	0.016993534
136	0x3904cf32	0.00012665687
137	0x3bf792ae	0.0075553274
138	0x3c1ddb89	0.009634861
139	0x3cf6d757	0.030131979
140	0x3adb0a9e	0.0016711538
141	0x3a792866	0.0009504616
142	0x37782e55	1.4792739e-05
143	0x3ced4717	0.028964562
144	0x3ce9c744	0.0285374
145	0x3c375767	0.011190272
146	0x3b715934	0.003682685
147	0x3c27cbb5	0.010241439
148	0x3c18cfc3	0.009326878
149	0x3ab6c326	0.0013943657
150	0x3992caf0	0.0002799849
151	0x3cce3a31	0.025174232
152	0x3a3362c5	0.0006843026
153	0x394a4659	0.00019290428
154	0x39840cb4	0.00025186467
155	0x3c02f61e	0.007993249
156	0x39988ca2	0.0002909648
157	0x39d2df15	0.0004022053
158	0x3838baea	4.4043096e-05
159	0x3b9f13cd	0.0048546554
160	0x3cee7fba	0.02911364
161	0x3c2f9ea8	0.010718979
162	0x3bc8cc2f	0.006127856
163	0x387239bd	5.775107e-05
164	0x37f56fcf	2.925834e-05
165	0x3c8361d6	0.016037863
166	0x3c143c1a	0.009047532
167	0x3cab9d86	0.020949136
168	0x3bfc62f9	0.007702228
169	0x3c036722	0.008020194
170	0x3ca0dbdd	0.019636089
171	0x3d04bae1	0.032404784
172	0x3c5cb9c5	0.013472025
173	0x3c57dc85	0.013175135
174	0x39fa4e42	0.00047742022
175	0x3c9ff10b	0.019524118
176	0x3995534a	0.0002848155
177	0x3b64a244	0.0034886757
178	0x38bfb334	9.140969e-05
179	0x3a3ab3d8	0.0007122136
180	0x3aa60ac9	0.0012668009
181	0x3beb2ad1	0.007176735
182	0x3aa976cd	0.0012929082
183	0x3c42e0ec	0.011894446
184	0x3c0ee858	0.008722387
185	0x3becef1e	0.0072306534
186	0x3c075aed	0.0082614245
187	0x3c95d51f	0.0182901
188	0x3bb9ca57	0.0056698727
189	0x3c0e8c31	0.008700416
190	0x382d5044	4.1321167e-05
191	0x3c07f524	0.008298192
192	0x37eed528	2.847107e-05
193	0x394804ea	0.00019075317
194	0x3b29b523	0.002589532
195	0x3bea8a41	0.0071575944
196	0x3bbe23d7	0.0058026123
197	0x3c593679	0.013257616
198	0x3c6b9c6c	0.014380556
199	0x38c1921f	9.230174e-05
200	0x3c8220f4	0.015884854
201	0x3c298ba6	0.010348236
202	0x3c0efa2e	0.00872664
203	0x3c0ceb7f	0.0086010685
204	0x3c14b4de	0.009076325
205	0x3a087b77	0.0005206386
206	0x3c713a50	0.014723375
207	0x391e7bbf	0.00015114153
208	0x3b094cab	0.0020950239
209	0x3ae8ac31	0.0017751512
210	0x3c34a784	0.011026267
211	0x3ad5c30b	0.0016308738
212	0x3bb9d77f	0.005671441
213	0x3bb97548	0.005659733
214	0x3acc3256	0.0015578966
215	0x3ae1fa29	0.0017240691
216	0x3c92e2fe	0.017930504
217	0x3c251317	0.010075352
218	0x3c1f812c	0.009735387
219	0x3c09d1da	0.008411849
220	0x3c3e8f36	0.011630824
221	0x3c72b758	0.01481422
222	0x3c854c85	0.016271839
223	0x3d0572a2	0.032580025
224	0x3bfb1f8b	0.0076636723
225	0x3952005c	0.00020027295
226	0x3b89d92a	0.004206796
227	0x3cd693d5	0.026193539
228	0x3bb2bdca	0.0054547535
229	0x3bc6eba5	0.0060705715
230	0x3bf462a3	0.0074580475
231	0x39c6884c	0.00037867052
232	0x3c0ed15c	0.008716907
233	0x393ada56	0.00017819679
234	0x3bbee0f0	0.0058251545
235	0x3bfec184	0.0077745337
236	0x3c4b7f2b	0.012420456
237	0x3b1c760e	0.0023874077
238	0x3b44268a	0.0029930198
239	0x3cbd9313	0.02314142
240	0x3ca6eaae	0.020375576
241	0x39633ce3	0.00021671089
242	0x393b7263	0.00017876322
243	0x3c18ab73	0.00931822
244	0x3c671c89	0.014105924
245	0x3c679177	0.014133803
246	0x3c670613	0.014100569
247	0x3c95ce0b	0.018286726
248	0x3c3b71fe	0.011440752
249	0x3bfc22d8	0.0076945834
250	0x3c9e8113	0.019348657
251	0x3ae5f706	0.0017544932
252	0x3c0edae9	0.008719184
253	0x3c19b28f	0.009380951
254	0x3bde2e4d	0.006780422
255	0x3c21d463	0.009877297

fc2.weight f4 [256, 256]
0	0x3d20dd86	0.03927376
1	0xbd31a498	-0.04336986
2	0xbc98d23c	-0.018654935
3	0xbb3778c9	-0.0027995578
4	0x3cd4a4af	0.025957434
5	0x3cb6fee0	0.02233833
6	0xbd446e20	-0.047956586
7	0x3d408384	0.047000423
8	0x3bdf71ed	0.006819001
9	0xbc42c978	-0.011888854
10	0xbb998500	-0.0046850443
11	0xbd72faa5	-0.059321065
12	0x3ba4e126	0.0050317226
13	0x3d0dfb4e	0.03466349
14	0x3d54df52	0.051970787
15	0xbd443997	-0.047906484
16	0xbc100897	-0.0087911105
17	0x3d22246b	0.039585512
18	0xbd77b59b	-0.060475927
19	0xbcf7a245	-0.030228743
20	0xbd6c42fb	-0.057681065
21	0x3d39520f	0.045244273
22	0x3d27dbca	0.04098109
23	0xbc878b9b	-0.016546061
24	0x3bc4d5fa	0.0060069533
25	0x3bb9d2bc	0.0056708734
26	0xbd67f545	-0.05663039
27	0xbb25670c	-0.0025238423
28	0x3cb944bf	0.022615789
29	0xbd65013b	-0.055909377
30	0x3d1b8c4d	0.037975598
31	0xbb1d5af2	-0.0024010506
32	0x3c6fb5c1	0.014630736
33	0x3caebee5	0.02133126
34	0x3b9b9498	0.0047479384
35	0x3ccddbec	0.025129281
36	0xbab7f020	-0.0014033355
37	0x3c965199	0.018349456
38	0xbc904faf	-0.017616121
39	0xbba2d401	-0.0049691205
40	0x3c503dcf	0.012710049
41	0xbd40b9a0	-0.047052026
42	0x3c33b21e	0.010967759
43	0x3d340720	0.043952107
44	0xbca956d3	-0.020671284
45	0xbced4ea9	-0.028968172
46	0x3d22b154	0.039719895
47	0xbd04ffff	-0.0324707
48	0x3cf77297	0.030206008
49	0xbc4e883b	-0.012605722
50	0xbb9e1b31	-0.004825019
51	0xbcd49f36	-0.025954824
52	0xbd89c6d7	-0.06727379
53	0xbc493018	-0.012279533
54	0x3d631d48	0.055447847
55	0x3d397cc7	0.045285013
56	0x3af3a45f	0.0018588415
57	0xbd1a1421	-0.037616853
58	0x3d32733a	0.04356692
59	0x3d6f261d	0.058385957
60	0xbcb5c35a	-0.022187877
61	0xbd435fcc	-0.04769878
62	0x3cb47d9d	0.022032553
63	0xbc56bbd7	-0.013106308
64	0x3d3afea3	0.045652997
65	0x3d16d600	0.03682518
66	0x3c70055b	0.014649714
67	0xbc0b5f06	-0.008506542
68	0x3d811492	0.063027516
69	0xbd5c4b09	-0.053782497
70	0xbd361d54	-0.044461563
71	0xbd712369	-0.05887166
72	0x3cac69b1	0.021046491
73	0xbcbfb7df	-0.023403106
74	0xbd19e81b	-0.03757487
75	0x3c2feb4c	0.0107372515
76	0xbd8d7132	-0.06906356
77	0xbd81e268	-0.06342012
78	0x3c882409	0.016618745
79	0xbd4b5222	-0.049638875
80	0xbd3615f2	-0.044454522
81	0x3c9b23cb	0.018937966
82	0x3c036867	0.008020497
83	0x3c82e733	0.015979385
84	0xbd26f5d4	-0.040761784
85	0xbd22d598	-0.03975448
86	0xbcad8721	-0.021182599
87	0xbb9c956d	-0.004778555
88	0x3d5f6aa8	0.054545075
89	0x3c2a3d9d	0.010390666
90	0x3ccc6040	0.02494824
91	0x3d2a79dd	0.041620124
92	0xbd54a327	-0.051913407
93	0x3d6ca4d5	0.057774384
94	0xbd3c87dd	-0.046028007
95	0xbcbe39a7	-0.02322085
96	0xbcdcbf0a	-0.026946563
97	0x3cb82a50	0.022481114
98	0xbcba832d	-0.022767628
99	0x3d16c05f	0.036804553
100	0xbcd5ec1f	-0.026113568
101	0x3d16c923	0.036812913
102	0xbd077e5a	-0.033079483
103	0xbcb2c26e	-0.021821227
104	0x3d570be9	0.052501593
105	0xbd142c87	-0.036175277
106	0xbd5fa28a	-0.05459837
107	0xbd73a910	-0.059487402
108	0xbce4c243	-0.027924662
109	0xbd2a98ef	-0.041649755
110	0x3bb32bbc	0.00546786
111	0xbac174f8	-0.0014759591
112	0x3cf63102	0.030052666
113	0x3d1007f2	0.035163827
114	0xbd1bbb05	-0.038020153
115	0x3c213a1a	0.009840513
116	0xbc329ba7	-0.010901368
117	0xbd1d5dbf	-0.03841948
118	0x3cb66cf9	0.02226876
119	0xbd23a628	-0.03995338
120	0x3ceaa27b	0.02864193
121	0xbcbb890d	-0.0228925
122	0xbc66e9ff	-0.014093875
123	0x3b8bd40d	0.004267222
124	0xbc96657e	-0.018358942
125	0xbbcf81f9	-0.0063326326
126	0xbcbb452e	-0.022860136
127	0x3cb3a136	0.021927457
128	0x3c76f28d	0.015072477
129	0xbd219baf	-0.039455112
130	0x3c93d3fe	0.018045422
131	0xbd62e6b3	-0.055395793
132	0x3d5d6a78	0.054056615
133	0xbd0557e2	-0.032554515
134	0x3d75dfbd	0.060027827
135	0xbd1b74e8	-0.037953287
136	0x3d02baad	0.03191631
137	0x3b212fed	0.0024595216
138	0xbb4ee3b2	-0.0031568822
139	0xbd5c2e3b	-0.053755026
140	0x3d305279	0.043047402
141	0xbcdae8b1	-0.026722284
142	0xbd8d5303	-0.06900599
143	0xbd0da8e1	-0.034584884
144	0x3c442700	0.011972189
145	0xbb43fd5a	-0.0029905648
146	0x3d07fd97	0.033200826
147	0x3d15927d	0.036516655
148	0xbd286f19	-0.041121576
149	0xbd31b2e9	-0.043383513
150	0x3cf853d8	0.030313417
151	0xbb15cc0c	-0.0022857217
152	0xbb96fdc0	-0.004607886
153	0xbca60b49	-0.020269053
154	0x3cdcb976	0.026943903
155	0xbd5d8ea4	-0.05409111
156	0x3cb2e9ed	0.02184006
157	0xbd43c832	-0.047798343
158	0xbb503630	-0.003177058
159	0x3cdda682	0.027056936
160	0x3d25eafc	0.0405073
161	0x3ce40cf6	0.027838212
162	0x3c82a41b	0.015947392
163	0x3acddca6	0.0015706017
164	0xbd325995	-0.043542463
165	0xbcb6a3e0	-0.022294939
166	0xbc0ea488	-0.0087062195
167	0x3d371606	0.044698738
168	0xbd38f383	-0.045154106
169	0xbc702fbd	-0.014659819
170	0x3c827f9b	0.015929988
171	0x3c8a740c	0.016901039
172	0xbd739afd	-0.05947398
173	0x3d69405b	0.05694614
174	0x3d661c8b	0.056179564
175	0xbd4c2602	-0.049840935
176	0x3d68f385	0.056872863
177	0x3d725014	0.0591584
178	0x3cfab628	0.030604437
179	0x3d5fd854	0.054649666
180	0x3cf21b79	0.029554116
181	0xbd1b491e	-0.037911527
182	0x3d1af911	0.037835184
183	0x3d52500e	0.051345877
184	0x3bff1057	0.0077839303
185	0x3d0df7e5	0.03466024
186	0x3d919ed6	0.07110374
187	0xbd52344f	-0.051319417
188	0x3c76a763	0.015054557
189	0x3c019bf0	0.007910714
190	0x3d74d5dd	0.05977427
191	0xbd555b34	-0.05208893
192	0xbc9f5da7	-0.019453837
193	0x3d42423a	0.04742644
194	0x3c0d1c15	0.008612652
195	0xbd88c759	-0.066786475
196	0xbd1f36ed	-0.03887074
197	0xbcc6a54a	-0.024248738
198	0xbd425ccf	-0.04745179
199	0x3c8be01f	0.017074643
200	0xbcff3cb2	-0.031156871
201	0x3d23d5c6	0.039998792
202	0x3d1c2435	0.038120467
203	0x3c0a5217	0.008442423
204	0xbc5d23ba	-0.013497287
205	0xbca6d73f	-0.02036631
206	0x3d37a5d2	0.044835873
207	0xbcb0a575	-0.021563271
208	0x3cf55e4c	0.02995219
209	0xbcd870ca	-0.02642097
210	0xbd674ad8	-0.05646786
211	0xbca3e9f5	-0.02000902
212	0x3d68e583	0.056859504
213	0xbd2c3ab2	-0.042048164
214	0xbd50b235	-0.0509512
215	0xbd08e3a5	-0.033420224
216	0x3d1ac8f1	0.03778929
217	0xbd2a349a	-0.04155407
218	0x3d3b2e4a	0.04569844
219	0xbb8a195e	-0.00421445
220	0xbb1c126a	-0.0023814687
221	0x3d07d310	0.03316027
222	0x3d3a785d	0.045524944
223	0x3d0a5dec	0.033780977
224	0x3c67a935	0.014139463
225	0x3cd26d1c	0.025686793
226	0xbc91adeb	-0.017783126
227	0x3c79e5c1	0.0152525315
228	0x3ccdd425	0.025125572
229	0xbd572904	-0.05252935
230	0xbd5e617f	-0.0542922
231	0xbd1de525	-0.038548607
232	0x3d1b1a6e	0.037867002
233	0xbd388f0b	-0.04505829
234	0x3bc8ce94	0.0061281417
235	0x3cafeab1	0.021474214
236	0x3cf63d5a	0.030058552
237	0x3d0de051	0.034637753
238	0xbcb4847d	-0.022035832
239	0x3d1e4f0d	0.038649607
240	0xbcd5f380	-0.026117086
241	0xbbe8e518	-0.007107388
242	0x3cda6e08	0.026663795
243	0xbd5a7d0b	-0.053341907
244	0xbc886c67	-0.016653253
245	0xbd133f91	-0.035949294
246	0xbd32d7cb	-0.043662827
247	0xbd002995	-0.031289656
248	0xbcfb30d9	-0.03066294
249	0xbd665216	-0.056230627
250	0xbcba58ff	-0.022747515
251	0x3cba2b8f	0.022725848
252	0xb96c1484	-0.00022514357
253	0x3c814539	0.015780078
254	0x3d23b9a5	0.039971966
255	0xbcf6ee8b	-0.030143043
