mountain_car_inv_dyn.pt (torch, 274122 bytes, 6 tensors)

fc1.weight f4 [256, 4]
0	0x3d17d5f0	0.03706926
1	0xbe9d6ef2	-0.30748707
2	0x3e29113c	0.1651048
3	0xbeb76716	-0.35820836
4	0xbbf04180	-0.007332027
5	0xbe299f60	-0.16564703
6	0x3e90008a	0.2812541
7	0xbed07306	-0.40712756
8	0x3e8c98de	0.27460378
9	0x3ea31522	0.3185206
10	0x3eec74aa	0.46182758
11	0x3eb4d87e	0.3532142
12	0x3e31d148	0.1736499
13	0xbdc52690	-0.09626496
14	0x3e695dcc	0.22789687
15	0x3ea12dce	0.3148026
16	0x3e8fe7ba	0.2810648
17	0xbd8b8bf0	-0.068138
18	0x3ea1103c	0.31457698
19	0x3e3f4520	0.18678713
20	0x3dc88c38	0.097923696
21	0x3ebd9afc	0.37032306
22	0xbe3216c4	-0.17391497
23	0xbe5e33ec	-0.21699494
24	0xbe94f3d7	-0.29092285
25	0x3edb9b1e	0.42891783
26	0xbded187c	-0.11576936
27	0xbfb2faf0	-1.398283
28	0x3dc6dbdf	0.09709906
29	0x3f0c7bb4	0.54876256
30	0xbf07a489	-0.52985436
31	0xbfb0e3aa	-1.3819478
32	0x3ebddbdd	0.37081805
33	0xbe5fa41d	-0.21839948
34	0xbd555a45	-0.05208804
35	0x3fc275ec	1.5192237
36	0xbe9bd460	-0.30435467
37	0x3ef5fc74	0.4804417
38	0xbb745700	-0.0037283301
39	0x3eb2d6ec	0.34929597
40	0xbea2cfbc	-0.31799114
41	0x3d709fe0	0.05874622
42	0x3ee6ad1a	0.4505394
43	0xbe7698a8	-0.24081671
44	0xbe537330	-0.2064941
45	0x3ea4b46c	0.321689
46	0x3ee4380c	0.4457401
47	0xbed38f64	-0.41320336
48	0x3e9a91f6	0.30189484
49	0x3e85396e	0.26020378
50	0x3d02a3b5	0.031894404
51	0x3e79046f	0.24318098
52	0x3cc1dc00	0.023664474
53	0xbcba21e0	-0.022721231
54	0xbe80adc0	-0.2513256
55	0xbecc8324	-0.39943802
56	0xbe84b768	-0.25921178
57	0x3ea89120	0.32923222
58	0x3eb1a7ba	0.34698278
59	0xbd3d9950	-0.04628879
60	0xbecbf9f8	-0.3983915
61	0xbf897567	-1.0738953
62	0xbe516209	-0.20447554
63	0x3e3f22bf	0.18665598
64	0xbeb06584	-0.3445245
65	0xbf65d58e	-0.89778984
66	0xbed64489	-0.41849163
67	0x3f8e7b7b	1.1131433
68	0x3e80fbb9	0.2519205
69	0x3f970c89	1.18007
70	0xbd4ec88d	-0.05048423
71	0xbf8d731c	-1.1050754
72	0xbdd9894d	-0.10621891
73	0xbf636a80	-0.8883438
74	0x3bd05cbd	0.0063587115
75	0x3f0df4ed	0.5545185
76	0xbec35e64	-0.38157952
77	0x3ee09661	0.4386473
78	0xbe747fac	-0.23876828
79	0xbef420f0	-0.4768138
80	0x3eee3836	0.4652726
81	0x3eec4090	0.46143007
82	0x3dd9e1d0	0.106387734
83	0xbea8fd56	-0.3300578
84	0x3e84cf22	0.2593928
85	0x3e979782	0.2960778
86	0x3ec966e2	0.39336306
87	0xbeabb550	-0.33536768
88	0x3ea316a6	0.31853217
89	0x3e9a838a	0.3017848
90	0xbef69c36	-0.48166054
91	0x3d621020	0.05519116
92	0xbebb7888	-0.36615396
93	0x3e4a952c	0.19783467
94	0x3e64ce58	0.22344339
95	0xbeb2656a	-0.34842998
96	0xbd9ea7f8	-0.07746881
97	0xbe1bf8dc	-0.15231651
98	0x3e5cdb40	0.21568012
99	0xbe7f8b84	-0.24955565
100	0x3eb084fb	0.34476456
101	0x3f02f662	0.511572
102	0xbebbd670	-0.3668704
103	0xbf7c32e2	-0.9851514
104	0x3e7a194e	0.24423715
105	0x3f527650	0.8221178
106	0x3d12728e	0.03575378
107	0xbf8eac1b	-1.1146272
108	0x3e202ed8	0.1564287
109	0x3f56cb10	0.839036
110	0xbe7c79c3	-0.24655823
111	0xbfa7f3c0	-1.3121262
112	0xbea2c9f0	-0.3179469
113	0x3f6d0765	0.9258941
114	0xbef02b1a	-0.46907884
115	0xbfb4b7df	-1.4118613
116	0x3df876b8	0.12132019
117	0x3b67bb00	0.0035359263
118	0xbeb09bc8	-0.34493852
119	0x3ea0a544	0.31376088
120	0x3e1cc2d4	0.15308696
121	0xbd3427c0	-0.04398322
122	0xbe49ca08	-0.19705975
123	0x3ea26a9c	0.31721961
124	0x3efe95b6	0.49723595
125	0x3f894375	1.0723711
126	0xbed0bfd7	-0.40771362
127	0xbf813d24	-1.0096784
128	0xbda6b002	-0.081390396
129	0x3ec32f81	0.3812218
130	0x3efec112	0.49756676
131	0x3f20b0aa	0.6276957
132	0xbcf91002	-0.030403141
133	0x3f1d9335	0.61552745
134	0xbed26daf	-0.41099307
135	0xbf4f8831	-0.81067187
136	0xbedd9ea5	-0.432851
137	0xbe157580	-0.14595604
138	0xbee90ca8	-0.45517468
139	0xbf092f37	-0.5358767
140	0xbd183e10	-0.037168562
141	0x3ebc1620	0.3673563
142	0x3ed368dc	0.4129094
143	0xbe9bbf1a	-0.30419236
144	0xbe164001	-0.14672853
145	0x3ec219d5	0.37910333
146	0xbe0a8814	-0.13528472
147	0xbfb0471c	-1.3771701
148	0xbe5529f2	-0.20816782
149	0xbf699d8b	-0.91256016
150	0xbd451d01	-0.048123363
151	0x3b8e332f	0.0043395977
152	0x3ed6aee1	0.41930297
153	0x3f2cd5c8	0.67513704
154	0xbe260412	-0.1621249
155	0xbe168bab	-0.14701717
156	0x3eb260cc	0.34839475
157	0xbef69a78	-0.48164725
158	0x3ec856d6	0.3912875
159	0xbb1d2a00	-0.0023981333
160	0x3e8f693f	0.28009984
161	0xbedc3dae	-0.43015808
162	0x3ed84b1d	0.42244807
163	0x3f4b7575	0.794761
164	0xbea65351	-0.3248544
165	0xbf1cfae2	-0.61320317
166	0x3e56612e	0.20935509
167	0x3f55d3f5	0.83526546
168	0x3eb1d0b2	0.34729534
169	0x3e82973a	0.25506002
170	0xbe8f43cc	-0.27981412
171	0x3ebfa11b	0.374276
172	0x3e17f1c8	0.14838326
173	0xbdb71c50	-0.08940947
174	0xbda5c5d0	-0.0809437
175	0x3ca83c00	0.020536423
176	0xbeabcec9	-0.33556202
177	0x3d9e15c6	0.07718997
178	0xbec0c79e	-0.37652296
179	0xbf0f9949	-0.5609327
180	0x3dac566a	0.0841492
181	0x3eb402fa	0.3515852
182	0x3da212df	0.079137556
183	0xbfa9d162	-1.3267024
184	0xbe7cdf80	-0.24694633
185	0x3ed14a36	0.4087693
186	0x3d1fcda0	0.03901446
187	0x3ef894b4	0.4855095
188	0xbe910fdc	-0.28332412
189	0x3f7c1ece	0.98484504
190	0xbe2ba543	-0.16762261
191	0xbf833c29	-1.0252734
192	0xbe859d28	-0.26096463
193	0x3bb4a000	0.0055122375
194	0x3ead9d0a	0.33908874
195	0x3ec9a470	0.39383268
196	0xbea73524	-0.3265773
197	0x3ea7575c	0.32683837
198	0xbeb9bee4	-0.3627845
199	0xbf8b988d	-1.090593
200	0x3c3b8e80	0.011447549
201	0x3e233338	0.15937507
202	0xbdfc44a0	-0.12317777
203	0x3ea500a8	0.32227063
204	0x3e30e92a	0.17276445
205	0xbf66e994	-0.9020016
206	0x3efc10c3	0.49231538
207	0x3f91ce9f	1.1391181
208	0xbd4eb947	-0.050469663
209	0xbf3a5e41	-0.7280007
210	0x3f0094ce	0.5022706
211	0x3f77c449	0.9678388
212	0xbf042cda	-0.5163094
213	0x3f5ecb37	0.8702883
214	0xbec14806	-0.37750262
215	0xbf1899b2	-0.5960952
216	0xbd91b4c8	-0.071145594
217	0xbec66228	-0.38746762
218	0xbe855b04	-0.26046002
219	0xbd2dd910	-0.042443335
220	0xbe4adda0	-0.19811106
221	0x3c80e940	0.015736222
222	0xbd5f9a60	-0.054590583
223	0x3e20c5f4	0.15700513
224	0x3d92c736	0.07166903
225	0x3ed88003	0.42285165
226	0x3dbcb984	0.09215072
227	0xbfb91990	-1.4460926
228	0xbeb13f2e	-0.34618515
229	0xbe1ef425	-0.15522821
230	0xbe771b20	-0.24131441
231	0x3eba6a9b	0.3640946
232	0x3eaf0dc2	0.34190184
233	0x3ef9f8f4	0.4882275
234	0xbd503d50	-0.050839722
235	0x3e163148	0.14667237
236	0xbd442e80	-0.04789591
237	0x3eef3495	0.46719804
238	0x3e0a9a70	0.13535476
239	0xbf0391b9	-0.5139423
240	0xbe807599	-0.2508972
241	0xbf13092f	-0.5743589
242	0x3dc27655	0.09495226
243	0x3ea58964	0.32331383
244	0x3d2e3fa9	0.04254118
245	0xbe95a576	-0.292278
246	0x3e693101	0.227726
247	0x3e5bac6f	0.21452497
248	0x3e728fcd	0.23687668
249	0xbe45769a	-0.19283524
250	0xbe9c22e5	-0.30495372
251	0xbe56ae11	-0.20964839
252	0xbd8a088f	-0.06739914
253	0xbf222150	-0.6333208
254	0x3ea5024a	0.3222831
255	0x3f2a4486	0.6651081

fc1.bias f4 [256]
0	0xbe982caa	-0.29721576
1	0xbc687380	-0.014187694
2	0xbe00d10c	-0.12579745
3	0xbdc9ce48	-0.09853798
4	0xbeb7c94c	-0.35895765
5	0xbdfe6ed0	-0.124234796
6	0x3e3ba17d	0.18323322
7	0x3c9d45c4	0.019198306
8	0x3df41368	0.11917764
9	0xbed0c618	-0.40776134
10	0xbebdc2a2	-0.37062556
11	0xbd399c30	-0.045314968
12	0x3c535ce4	0.012900565
13	0xbe85994c	-0.2609352
14	0xbe1984b4	-0.14992028
15	0x3e831bd9	0.25607184
16	0x3eaa2029	0.3322766
17	0x3ef149d9	0.47126654
18	0x3ee08ac9	0.43855885
19	0x3f19c50c	0.60066295
20	0x3b5ee200	0.0034009218
21	0xbe5cacd4	-0.21550304
22	0xbe9e65e0	-0.309371
23	0xbe3fcc88	-0.18730366
24	0xbe84c9c8	-0.25935197
25	0x3f03a2b2	0.5142013
26	0x3ef55a87	0.4792063
27	0x3ede4f5f	0.4341993
28	0x3db749c5	0.08949617
29	0xbeea4ce4	-0.45761788
30	0xbe4de508	-0.201069
31	0x3e932156	0.2873637
32	0x3df0769e	0.117413744
33	0x3dd36261	0.10321499
34	0xbe79e14e	-0.24402353
35	0x3d0c4af0	0.034251153
36	0x3daa3523	0.08310916
37	0x3e94bdde	0.29051107
38	0x3ece7e02	0.4033051
39	0xbe9293e6	-0.28628463
40	0x3ebd670e	0.36992687
41	0x3e226cb6	0.15861782
42	0xbc47f80e	-0.012205137
43	0xbee7ba4e	-0.45259327
44	0xbdb83f16	-0.08996408
45	0x3ea92577	0.33036396
46	0xbea69236	-0.32533425
47	0x3eb1a618	0.34697032
48	0xbef2d192	-0.47425514
49	0x3e6ad7f6	0.22933945
50	0xbeb95c40	-0.36203194
51	0x3e838577	0.25687763
52	0x3e437e64	0.19091183
53	0x3ee57b98	0.44820857
54	0xbee9e922	-0.4568568
55	0xbecf5922	-0.4049769
56	0x3ed5cc23	0.41757306
57	0x3eb0b9d4	0.34516776
58	0xbdd1d9a0	-0.10246587
59	0x3c223cbf	0.009902178
60	0x3e70601a	0.2347416
61	0x3f081fba	0.5317341
62	0xbda3231a	-0.079656795
63	0x3ebae1ef	0.365005
64	0xbde21ef7	-0.11041062
65	0x3ed6d29e	0.41957563
66	0xbf0fed61	-0.56221586
67	0x3ed0bd51	0.40769437
68	0x3f07173e	0.5276984
69	0x3c40f800	0.011777878
70	0xbd13b630	-0.03606242
71	0xbee61dc5	-0.44944587
72	0x3e2f5d4f	0.17125438
73	0xbca42920	-0.020039141
74	0x3e19934f	0.149976
75	0x3edf01b3	0.43555984
76	0xbdfee0bd	-0.12445209
77	0xbea1ad50	-0.3157754
78	0x3ee8eb54	0.4549204
79	0x3c4d7771	0.012540684
80	0x3cebfef4	0.028808095
81	0xbd212de1	-0.039350394
82	0x3e4d4190	0.20044541
83	0xbe8bf582	-0.27335745
84	0xbdfae5eb	-0.122508846
85	0xbe7e762c	-0.24849766
86	0x3efcd1b1	0.49378732
87	0x3e274c55	0.16337712
88	0xbecd5ba6	-0.40108985
89	0xbec921ee	-0.392837
90	0xbebc4a7e	-0.36775583
91	0xbd52be00	-0.05145073
92	0x3eeb7007	0.45983908
93	0xbe880776	-0.26568192
94	0xbe8ff25e	-0.281146
95	0xbdbc111a	-0.09182949
96	0x3d9c4de6	0.076320454
97	0xbe0333e4	-0.12812763
98	0xbe16d395	-0.1472915
99	0xbe182a58	-0.14859903
100	0xbe8be9aa	-0.2732671
101	0xbe292690	-0.16518617
102	0x3e19f1ff	0.1503372
103	0xbe9c471c	-0.30523002
104	0x3d1f694d	0.038918782
105	0x3e17d4e6	0.14827308
106	0xbb8da0ba	-0.0043221386
107	0x3e62f19d	0.2216248
108	0x3e6265b6	0.22109112
109	0x3ecf6e2d	0.40513745
110	0xbef3433a	-0.47512227
111	0x3e7baa0d	0.24576588
112	0x3e288b57	0.16459404
113	0x3e200018	0.15625036
114	0x3ec2d5ed	0.38053837
115	0xbeaa9350	-0.33315516
116	0xbd638620	-0.055547833
117	0x3ca3f4cc	0.02001419
118	0xbdbad374	-0.09122363
119	0x3dc184ee	0.094491825
120	0x3eb71e5d	0.35765353
121	0x3da33ad9	0.07970209
122	0x3e00abe4	0.12565571
123	0xbe984ee2	-0.29747683
124	0x3e5114be	0.20418069
125	0x3e6ab8ed	0.22922106
126	0x3eb51332	0.35366207
127	0xbeb7f26c	-0.3592714
128	0xbe70fef8	-0.23534763
129	0xbe6845b8	-0.22682846
130	0xbe204cbd	-0.15654273
131	0x3edea89b	0.4348801
132	0xbd97fa60	-0.07420802
133	0x3c9c7740	0.019099832
134	0x3d8738e5	0.06602649
135	0xbe8a67b2	-0.27032238
136	0x3e111cfd	0.14171214
137	0xbebc5696	-0.3678481
138	0xbe52b658	-0.20577371
139	0x3e989cb8	0.29807067
140	0xbe7e0e0f	-0.2481005
141	0xbcb9ace0	-0.022665441
142	0x3eb31560	0.34977245
143	0x3d3c5cd7	0.045986976
144	0xbe27cb24	-0.16386086
145	0xbeef5f34	-0.46752322
146	0xbe38137c	-0.17976183
147	0x3eb5e070	0.35522795
148	0x3ec443a4	0.38332856
149	0x3ee46911	0.4461141
150	0xbdba46b5	-0.090955175
151	0x3ed30bfd	0.41220084
152	0x3dafd558	0.08585614
153	0xbdf3cd20	-0.11904359
154	0x3e7c1d0e	0.24620458
155	0x3e404e6d	0.18779917
156	0xbe85f2e2	-0.26161867
157	0x3d4d2ed4	0.050093487
158	0x3ea12d27	0.3147976
159	0x3dbe7159	0.09298963
160	0xbeebd7ec	-0.46063173
161	0x3f0d6510	0.55232334
162	0xbd178005	-0.036987323
163	0x3ea9ca95	0.3316237
164	0x3ebb001b	0.36523518
165	0xbdcd2e70	-0.10018623
166	0x3d031516	0.03200253
167	0xbe9983b2	-0.29983288
168	0xbe84e794	-0.2595793
169	0xbe9897fc	-0.29803455
170	0xbed6b124	-0.41932023
171	0x3c771000	0.015079498
172	0xbd855560	-0.065104246
173	0x3e04b8b6	0.12961087
174	0xbd0562c0	-0.03256488
175	0x3e0a723f	0.13520144
176	0x3ec18633	0.37797698
177	0xbe78b7dc	-0.24288887
178	0xbc884700	-0.016635418
179	0x3e142ba0	0.14469767
180	0x3efc743b	0.49307427
181	0x3d7aba0e	0.06121259
182	0xbda12de8	-0.07870084
183	0xbdd117b0	-0.10209596
184	0xbe7960d8	-0.24353349
185	0x3e9ab212	0.30213982
186	0xbe7426bc	-0.23842901
187	0xbd59f510	-0.053212225
188	0x3da28f00	0.07937431
189	0xbe9416e2	-0.28923708
190	0x3c403180	0.011730552
191	0xbe52d738	-0.20589912
192	0x3e8e8dd8	0.27842593
193	0x3dedba84	0.11607841
194	0xbed077de	-0.4071645
195	0xbc1e3ec8	-0.009658523
196	0xbc1e2cc0	-0.009654224
197	0xbd69397d	-0.05693959
198	0x3e62fd3a	0.22166911
199	0xbda18ca8	-0.07888156
200	0xbe737c85	-0.23777969
201	0x3d4f9c40	0.05068612
202	0x3e94e48c	0.29080617
203	0xbe743010	-0.2384646
204	0xbe6e4803	-0.23269658
205	0xbea66d18	-0.32505107
206	0xbdad0c08	-0.084495604
207	0x3d5faf69	0.054610644
208	0x3f0a758a	0.540856
209	0xbde29558	-0.11063641
210	0x3e35f313	0.17768507
211	0xbedba069	-0.4289582
212	0xbb9c8256	-0.0047762794
213	0x3e569faf	0.20959352
214	0x3d83fec4	0.06445077
215	0xbd5bf490	-0.05370003
216	0xbe88140e	-0.265778
217	0xbd39ccb0	-0.04536122
218	0xbebb90ea	-0.36633998
219	0x3c376946	0.011194533
220	0x3eb4b3a5	0.35293308
221	0xbe8b2ebc	-0.27184093
222	0x3e553d18	0.20824087
223	0xbe578bd9	-0.21049441
224	0x3ee0c31e	0.43898863
225	0xbdc05afd	-0.09392355
226	0xbe8b5f34	-0.27221072
227	0xbe0604e0	-0.13087797
228	0xbe0caec8	-0.13738549
229	0x3eb51271	0.35365632
230	0xbede2261	-0.43385604
231	0x3e7f195c	0.24912018
232	0x3e4bb457	0.19893013
233	0x3e786f51	0.24261214
234	0x3dd0a045	0.10186819
235	0x3e79b8c9	0.24386896
236	0x3e3ba54d	0.18324776
237	0xbeee39da	-0.46528512
238	0xbeab8922	-0.33503062
239	0x3d1530f0	0.036423624
240	0xbe8edea6	-0.27904242
241	0x3d936980	0.07197857
242	0x3f0c0344	0.5469248
243	0xbec6a8ca	-0.3880065
244	0xbd866ac8	-0.06563336
245	0xbcdffa20	-0.027340949
246	0x3e713e3e	0.235589
247	0xbee08a65	-0.43855587
248	0x3eb2b2df	0.34902093
249	0x3eeb4d65	0.45957485
250	0xbef2d6f8	-0.47429633
251	0x3e7e29c2	0.24820617
252	0xbd38a9c9	-0.045083795
253	0x3e8c85af	0.27445742
254	0xbdf22806	-0.1182404
255	0xbeab7cc6	-0.33493632

fc2.weight f4 [256, 256]
0	0x3d225ec8	0.03964117
1	0xbc4e93c0	-0.0126084685
2	0x3c863cb4	0.016386367
3	0xbd3b40ca	-0.045716085
4	0xba58b100	-0.0008266121
5	0xbd7e334e	-0.062060647
6	0xbcf41d77	-0.029799206
7	0xbd84c692	-0.06483187
8	0xbd534c7b	-0.05158661
9	0x3d1ccebe	0.038283102
10	0x3b0f0ea0	0.0021828786
11	0x3d122f26	0.035689496
12	0xbda4271a	-0.080152705
13	0x3c3eca78	0.011644952
14	0xbc41c460	-0.011826605
15	0xbd827235	-0.063694395
16	0xbceabddd	-0.028654987
17	0x3c8412ca	0.01612224
18	0xbd311e4c	-0.043241784
19	0xbbd745e5	-0.0065696114
20	0x3bf2cb60	0.007409498
21	0x3c6cb7f0	0.014448151
22	0x3b139400	0.0022518635
23	0xbd008564	-0.03137721
24	0xbccacd74	-0.02475617
25	0xbdd56eee	-0.10421549
26	0xbcc817d0	-0.024425417
27	0xbd3adec6	-0.04562261
28	0xbdbba871	-0.09162987
29	0x3c40d458	0.011769377
30	0x3d5141f2	0.05108828
31	0xbd4f3640	-0.050588846
32	0x3d1731e2	0.036912806
33	0xbd8b0ae6	-0.06789188
34	0xbd8a38b3	-0.06749096
35	0xbc2ebd00	-0.010665178
36	0xbd76fb43	-0.060298216
37	0xbd391188	-0.045182735
38	0xbd66fc48	-0.056392938
39	0xbd752c50	-0.059856713
40	0xbde9277b	-0.113844834
41	0xbd63006e	-0.05542033
42	0xbd6bacc2	-0.0575378
43	0xbd0826ee	-0.03324025
44	0xbd4b73e4	-0.04967107
45	0xbde346c2	-0.1109748
46	0x3d475344	0.048663393
47	0xbda39377	-0.07987111
48	0x3b3ec320	0.0029108003
49	0xbd8337bd	-0.064071156
50	0x3d71664c	0.05893545
51	0x3de44832	0.11146583
52	0xbd13f554	-0.036122635
53	0xbcf70c7f	-0.030157326
54	0xbb7ba840	-0.0038399845
55	0x3d3be488	0.04587224
56	0xbd824059	-0.063599296
57	0xbde6b8e5	-0.112657346
58	0x3aca6540	0.0015441552
59	0x3b05187c	0.0020308783
60	0xbcceab74	-0.02522824
61	0xbddbe597	-0.1073715
62	0xbd5362ba	-0.051607825
63	0xbdb02d76	-0.08602421
64	0xbbf1f966	-0.007384467
65	0xbdbcb893	-0.09214892
66	0xbbad492b	-0.0052882633
67	0xbd9d6c7c	-0.076867074
68	0xbda066ce	-0.078321084
69	0xbcc423cc	-0.02394285
70	0x3b6c7ca0	0.0036085024
71	0x3d618472	0.05505795
72	0xb9fdacaf	-0.0004838458
73	0xbd035c36	-0.03207036
74	0xbd580110	-0.05273539
75	0xbdb72a34	-0.089435965
76	0xbcd76aff	-0.026296137
77	0xbd54a6fe	-0.05191707
78	0xbdbfe255	-0.09369341
79	0x3d3d5485	0.046223182
80	0xba54b5cf	-0.000811425
81	0xbdbd0135	-0.09228746
82	0xbdda340e	-0.1065446
83	0x3d05817e	0.032594196
84	0xbdbfd474	-0.09366694
85	0xbcf32438	-0.029680356
86	0xbdd54d1e	-0.104150996
87	0x3de9d854	0.114182144
88	0x3b8beef0	0.004270427
89	0xbd207d3c	-0.039181933
90	0xbbb78b80	-0.0056013465
91	0xbd07ace2	-0.03312386
92	0xbcade96c	-0.021229468
93	0xbd74f3f2	-0.059802957
94	0x3cc9b4f8	0.024622425
95	0xbdbbb5ef	-0.091655605
96	0x3d7ef2de	0.062243335
97	0xbd57d253	-0.052690815
98	0xbcc8d1b0	-0.02451405
99	0x3ca2907c	0.019844286
100	0x3c8d0f04	0.017219074
101	0xbd65094f	-0.05591708
102	0xbdd8b066	-0.1058052
103	0xbc7451e8	-0.014912106
104	0xbcb98268	-0.02264519
105	0xbc5eca58	-0.013598047
106	0xbd32c54b	-0.043645184
107	0xbd61f4b7	-0.05516502
108	0xbd142cfe	-0.03617572
109	0xbd8ebe39	-0.06969876
110	0xbd2a054e	-0.041508965
111	0xbd604ca6	-0.054760598
112	0xbdc5a8eb	-0.09651359
113	0x3d472b65	0.04862537
114	0xbdc4b7f7	-0.09605401
115	0x3c0d7918	0.008634828
116	0xbcfded7c	-0.03099703
117	0xbdc03c9a	-0.09386559
118	0xbd29aac9	-0.04142264
119	0xbd8a9df2	-0.06768407
120	0xbd789d0c	-0.060696647
121	0x3d98d221	0.07461954
122	0xbdd58fbc	-0.10427806
123	0x3bf06050	0.0073357
124	0xbbf8143e	-0.0075707724
125	0xbd41ad99	-0.047284696
126	0xbdf195fb	-0.11796185
127	0xbd5351e0	-0.051591754
128	0xbd191246	-0.037370943
129	0xbbd528a0	-0.006505087
130	0xbdc4e2b6	-0.09613554
131	0xbde5dfe3	-0.11224344
132	0xbd5ed6d7	-0.054404106
133	0xbd04ef40	-0.03245473
134	0xbae6d108	-0.0017609904
135	0x3d6e2a7a	0.058145978
136	0xbdc7ff5b	-0.09765502
137	0xbd2c98e6	-0.042138003
138	0xbce066dc	-0.027392797
139	0xbc33e7f9	-0.0109806
140	0xbd85f5b3	-0.06541004
141	0x3d75a3d4	0.05997069
142	0xbab9b4b6	-0.0014168236
143	0xbdb70300	-0.08936119
144	0x3d0d886a	0.034553923
145	0xbcae5e08	-0.021285072
146	0x3c9b3b20	0.018949091
147	0xbd3f9904	-0.046776786
148	0xbd867ed6	-0.06567161
149	0xbd9ee033	-0.07757606
150	0xbcf7f7c6	-0.030269515
151	0xbdf81c94	-0.12114826
152	0xbde360cb	-0.11102446
153	0xbd6aa8da	-0.057289936
154	0xbc86cd67	-0.016455365
155	0xbd01eac2	-0.031718023
156	0xbd861ac2	-0.065480724
157	0xbda9c3a8	-0.082892716
158	0xbd36b5fc	-0.044607148
159	0xbb1a8d65	-0.0023582813
160	0xbc966b28	-0.018361643
161	0xba9155f7	-0.0011088242
162	0xbd2b35b9	-0.04179928
163	0xbb08092f	-0.0020757427
164	0xbd73af64	-0.059493437
165	0xbd055562	-0.03255213
166	0xbd366671	-0.04453129
167	0xbc982868	-0.018573955
168	0xbc9c4fd8	-0.019081041
169	0x3d618c3c	0.05506538
170	0xbd1ca1ce	-0.038240246
171	0xbd40de46	-0.047086976
172	0xbcb78e98	-0.022406861
173	0xbde8d5cd	-0.11368904
174	0xbd2a4f1c	-0.04157935
175	0xbd7698f2	-0.060204454
176	0xbdbba1c2	-0.09161712
177	0xbd4b2028	-0.049591213
178	0x3d3f3cf0	0.046688974
179	0x3ceeaad8	0.029134199
180	0xbd854218	-0.06506747
181	0xbddf8bfd	-0.109153725
182	0xbd37f446	-0.04491069
183	0x3d6ae996	0.05735167
184	0x3d09aa80	0.033609867
185	0xbdc24cb5	-0.09487287
186	0x3d0f6e5e	0.035017364
187	0xbce6b898	-0.028164193
188	0xbcae07c4	-0.021243937
189	0x3a652a0f	0.0008741924
190	0xbd90cb9c	-0.070700854
191	0xbab5d8c0	-0.0013873801
192	0xbd765ea2	-0.060148843
193	0x3ce3773b	0.027766814
194	0xbba30a00	-0.0049755573
195	0xbd90504f	-0.07046568
196	0x3d11c480	0.035587788
197	0xbd19d5c3	-0.037557375
198	0xbd38ccab	-0.04511706
199	0xbd07ebf2	-0.033184
200	0xbdaf2a41	-0.08552981
201	0x3cfb8848	0.030704632
202	0xbd33afb6	-0.043868743
203	0x3cbaddb8	0.022810802
204	0xbd2712e7	-0.04078951
205	0x3c7e5310	0.015522733
206	0x3d70ece4	0.058819667
207	0x3c86a8cf	0.016437916
208	0xbd766cb2	-0.060162254
209	0x3bf112f0	0.007356994
210	0x3d98b7b8	0.074569166
211	0xbdbed2b9	-0.09317536
212	0xbdfaec62	-0.12252118
213	0xbd662e04	-0.056196228
214	0xba4ed8ea	-0.0007890599
215	0xbd6c8066	-0.057739638
216	0x3c7a5a68	0.015280344
217	0x3ccaad3c	0.024740808
218	0x3c2c5770	0.010518894
219	0xbb580e48	-0.0032967497
220	0xbd6ff02a	-0.058578648
221	0xbcb5423c	-0.02212631
222	0xbd8ddff9	-0.06927485
223	0xbdd6c7bb	-0.10487314
224	0xbc87da73	-0.016583657
225	0xbc610bb0	-0.013735697
226	0xbd676344	-0.05649115
227	0xbd758854	-0.059944466
228	0x3c9a2ec4	0.018821128
229	0x3abe318b	0.0014510615
230	0xbd128f75	-0.035781343
231	0xbc251874	-0.010076631
232	0xbdb5455e	-0.08851121
233	0xbd59d74c	-0.05318384
234	0xbcf1a240	-0.029496312
235	0xbd5ab2c7	-0.05339315
236	0xbdce14f3	-0.100625895
237	0xbb5a7fe0	-0.003334038
238	0x3ca915d8	0.020640299
239	0x3cb2be50	0.021819264
240	0x3d2ce158	0.042207092
241	0xbd2b2356	-0.041781746
242	0xbddb81cf	-0.107181184
243	0x3d08a09c	0.033356294
244	0x3cda7120	0.02666527
245	0xbba3ce80	-0.004998982
246	0xbc0c2d8f	-0.008555784
247	0xbbf9c0f3	-0.0076218783
248	0xbc26ceb2	-0.010181116
249	0xba8fd7c7	-0.0010974341
250	0xbc10a4b0	-0.008828327
251	0xbdb01d6b	-0.08599361
252	0xbde0ef6f	-0.10983168
253	0xbd7b1422	-0.061298497
254	0xbdd8f0ab	-0.10592779
255	0x3d556ef6	0.052107774

fc2.bias f4 [256]
0	0xbd0ef12b	-0.034897964
1	0xbc394b97	-0.011309526
2	0xbd920c94	-0.07131305
3	0xbd7e58c6	-0.06209638
4	0xbd9aee41	-0.075649746
5	0xbc8c257c	-0.017107718
6	0xbd3fc66a	-0.04682008
7	0xbddb708d	-0.10714827
8	0xbcd9556a	-0.026529986
9	0xbd22cf1e	-0.039748304
10	0xbc831c40	-0.016004682
11	0xbc487246	-0.012234276
12	0xbd04673a	-0.032325007
13	0xbd33b079	-0.04386947
14	0xbda18ce8	-0.07888204
15	0xbdc9dadc	-0.09856197
16	0xbc84491f	-0.016148148
17	0xbc0d3c32	-0.008620309
18	0x396bfa0c	0.00022504496
19	0xbd0d3525	-0.03447451
20	0xbd70c85e	-0.058784835
21	0xbdca0d4d	-0.09865818
22	0xbc015a68	-0.00789509
23	0xbd1d98a9	-0.038475666
24	0xbd927a42	-0.07152225
25	0xbd9ea627	-0.07746535
26	0x3ba92967	0.0051624062
27	0xbd57a500	-0.05264759
28	0xbd0a65e0	-0.03378856
29	0xbcfa89ac	-0.030583225
30	0xbcd17294	-0.02556733
31	0x3c0762a8	0.008263268
32	0xbd5d517e	-0.054032795
33	0x3d2bb11e	0.04191696
34	0xbadead65	-0.0016988931
35	0xbc675d09	-0.014121302
36	0xbdb5da08	-0.08879477
37	0xbc83ece0	-0.016104162
38	0xbd56b6b4	-0.052420333
39	0x3d170b8a	0.03687624
40	0x3c161c70	0.0091620535
41	0xbc018b63	-0.007906768
42	0xbb935dd0	-0.0044972673
43	0xbd9ebd55	-0.07750956
44	0xbd5b94dc	-0.05360876
45	0xbd63a81f	-0.055580255
46	0xbd294b0c	-0.041331336
47	0xbc41a4e8	-0.011819102
48	0xbcf09c82	-0.029371504
49	0xbd987da4	-0.07445839
50	0xbce50a76	-0.02795909
51	0xbc8fec19	-0.017568635
52	0xbd9a9b57	-0.0754916
53	0x3bffe8bb	0.007809726
54	0xbca92723	-0.020648545
55	0xbd28ed74	-0.041242078
56	0xbcabb9a2	-0.02096254
57	0xbc4d049e	-0.012513308
58	0xbbf44fbb	-0.0074557937
59	0xbdb19fd9	-0.08673067
60	0x3cd77924	0.026302882
61	0xbd18c3a8	-0.037295967
62	0xbd633f1a	-0.0554801
63	0xbddeadec	-0.10873017
64	0xbd62258e	-0.055211596
65	0xbce0b168	-0.027428344
66	0x3d4bc5e4	0.04974927
67	0xbd776add	-0.060404647
68	0xbcc3d16c	-0.023903571
69	0xbca0c188	-0.019623533
70	0xbdd8556c	-0.10563168
71	0xbd3b29bc	-0.045694098
72	0xbc901317	-0.017587228
73	0x3c611a88	0.013739236
74	0xbd76eec2	-0.06028629
75	0xbde0245b	-0.10944434
76	0xbc857f1e	-0.016295966
77	0xbd158416	-0.03650292
78	0xbc041cdd	-0.008063522
79	0xbd82b498	-0.06382102
80	0xbcde658b	-0.027148029
81	0xbde9bbfc	-0.11412808
82	0x3d1d104e	0.038345627
83	0xbd9a968f	-0.07548248
84	0xbd708d8b	-0.058728736
85	0xbd735ac6	-0.05941274
86	0xba4b9d35	-0.0007767261
87	0xbda931fa	-0.082614854
88	0xbd6a9096	-0.057266794
89	0xbdeb4f42	-0.114897266
90	0xbcfda746	-0.030963551
91	0xbc996874	-0.018726565
92	0x3ccae3d4	0.02476684
93	0xbd68124a	-0.056658067
94	0xbd94b94e	-0.072619066
95	0x3e984c26	0.29745597
96	0xbd237896	-0.03990992
97	0xbd62c62b	-0.05536477
98	0xbdbd71c1	-0.092502125
99	0xbd136846	-0.035988115
100	0xbdc74176	-0.097292826
101	0xbde69649	-0.11259133
102	0xbdd8545e	-0.10562967
103	0x3d79733e	0.06090092
104	0xb9a08c00	-0.00030621886
105	0xbb138f74	-0.0022515925
106	0xbd43be0c	-0.047788665
107	0xbdd283df	-0.10279059
108	0xbc552c13	-0.013010996
109	0x3c805e0c	0.015669845
110	0xbd87559b	-0.06608125
111	0xbd05d428	-0.03267303
112	0x3b9ca3b0	0.0047802553
113	0x3cc1a710	0.023639232
114	0xbdc2fc9d	-0.095208384
115	0xbcaa960c	-0.020823501
116	0xbcf56535	-0.029955486
117	0x3ac36140	0.0014906302
118	0xbba235a0	-0.0049502403
119	0xbd893c98	-0.067010105
120	0xbd37e64f	-0.044897374
121	0xbcc76b66	-0.024343204
122	0xbde82c1b	-0.113365375
123	0xbdea7738	-0.114485204
124	0xbdb8c6eb	-0.090223156
125	0xbcbe8229	-0.023255425
126	0xbcf648ff	-0.030064104
127	0xbc3cd898	-0.011526249
128	0x3cb19584	0.02167774
129	0xbd4274a1	-0.047474507
130	0x3c7e4a40	0.015520632
131	0x3bd3ee30	0.006467603
132	0xbd2c2800	-0.042030334
133	0xbcc25c04	-0.023725517
134	0xbd9f7a93	-0.07787051
135	0x3e3c27ea	0.18374601
136	0xbd6ff9c6	-0.058587812
137	0xbd684822	-0.056709416
138	0xbbe666ae	-0.0070312833
139	0xbd0fb236	-0.035082065
140	0xbca9ef74	-0.020744063
141	0xbd06a454	-0.03287156
142	0xbdc91320	-0.09818101
143	0xbc9af7b8	-0.01891695
144	0x3ad3b0ff	0.0016150771
145	0xbdaf7fe9	-0.08569319
146	0xbc47e53a	-0.012200648
147	0xbd214397	-0.0393711
148	0x3c9ff6c4	0.019526847
149	0x3cf372d0	0.029717833
150	0xbd03e6e8	-0.03220263
151	0xbd1ce8b7	-0.03830787
152	0xbd497caa	-0.049191155
153	0xbc4fbbd6	-0.012679061
154	0x3ddd5654	0.108074814
155	0xbce3951f	-0.027781067
156	0x3d1f77ca	0.0389326
157	0xbd11b227	-0.03557029
158	0xbd74db32	-0.059779353
159	0xbc63e597	-0.013909719
160	0xbcebbb08	-0.028775707
161	0xbc1fbbc3	-0.009749356
162	0xbd2a03b1	-0.041507427
163	0xbd472dbf	-0.04862761
164	0xbcd0b575	-0.02547715
165	0xbd580c3d	-0.052746046
166	0xb9b349f9	-0.00034196654
167	0xbc1c817f	-0.009552359
168	0x3e29358b	0.16524331
169	0xbc31b2f8	-0.010845892
170	0xbca56653	-0.020190394
171	0xbd467d36	-0.048459254
172	0xbda312b7	-0.07962554
173	0xbd9a4264	-0.07532194
174	0xbd1fde09	-0.03903011
175	0xbb948ef0	-0.004533641
176	0xbceb92bc	-0.028756492
177	0x3c0ac8c0	0.008470714
178	0xbd37033b	-0.044680815
179	0xbd6a3025	-0.05717482
180	0xbd7829f9	-0.060586903
181	0xbdeaff89	-0.11474521
182	0xbd14757c	-0.036244854
183	0xbd10336c	-0.03520529
184	0xbbaa65d9	-0.0052001295
185	0xbcb2459c	-0.021761708
186	0xbdd1cd94	-0.10244289
187	0xbd988cac	-0.07448706
188	0xbbcdf5f4	-0.0062854234
189	0x3d589052	0.05287201
190	0xbc9ae281	-0.018906834
191	0xbde7f3af	-0.11325776
192	0xbdb0ad52	-0.08626808
193	0xbd84b0bb	-0.06479021
194	0xbd652666	-0.055944823
195	0xbc732be0	-0.014842004
196	0xbb29e2ec	-0.002592261
197	0xbd389cee	-0.045071535
198	0xbd2a3054	-0.041549996
199	0xbdb294e4	-0.08719805
200	0xbc15f66b	-0.009152989
201	0xbbdaecf9	-0.0066810814
202	0xbd9dd2e3	-0.07706239
203	0xbd291fab	-0.041289967
204	0x3d0ec4ec	0.034855768
205	0xbdb7c0c5	-0.08972315
206	0xbdf5ef0f	-0.120084874
207	0x3d3f06fc	0.04663752
208	0xbc79e67a	-0.015252704
209	0xbc24642f	-0.010033651
210	0x3b9f436a	0.0048603313
211	0xbdf1e40f	-0.11811077
212	0xbcaccc2c	-0.02109345
213	0xbc6f67b1	-0.014612124
214	0xbddc9e5a	-0.10772391
215	0x3e037dd8	0.12840974
216	0xbd6c3f05	-0.057677288
217	0xbcdd428c	-0.027009271
218	0xbde82678	-0.11335462
219	0xbc4ae0c7	-0.012382693
220	0x3be8e600	0.0071074963
221	0xbd75f3eb	-0.06004707
222	0x3d6f756b	0.058461588
223	0x3b36e400	0.0027906895
224	0xbd989ceb	-0.07451805
225	0xbd91f1eb	-0.0712622
226	0xbd0563dd	-0.03256594
227	0x3c1ce194	0.009575266
228	0x3c230bc8	0.009951539
229	0xbd8c9add	-0.06865475
230	0xbdcd7488	-0.10031992
231	0xbd5a40b0	-0.053284347
232	0xbca4b74c	-0.020106934
233	0x3e380aba	0.17972842
234	0xbb26395f	-0.0025363786
235	0xbd264807	-0.040596034
236	0xbda7bea1	-0.081906565
237	0xbdeb54ef	-0.11490809
238	0x3cc45d59	0.023970293
239	0xbb8643f0	-0.0040974542
240	0xbd1d723d	-0.038439024
241	0xbd915acb	-0.070973955
242	0xbdde1ec2	-0.1084571
243	0xbdb4ba20	-0.08824563
244	0xbdb054c9	-0.086099215
245	0xbd69e628	-0.05710426
246	0xbd9af537	-0.07566302
247	0x3c3ff37a	0.011715764
248	0xbceb0328	-0.028688028
249	0xbd3a9c08	-0.04555896
250	0x3c22ffc8	0.009948678
251	0xbcaf5ef0	-0.021407574
252	0xbdf17e45	-0.11791662
253	0x3d35fea4	0.044432297
254	0xbcd34dc0	-0.02579391
255	0x3922f2d5	0.00015539986

fc3.weight f4 [3, 256]
0	0x3cd6ffa4	0.026244946
1	0x3cee418c	0.02908399
2	0xbd3460ec	-0.044037744
3	0x3c8675b8	0.016413555
4	0xbb1cca7a	-0.0023924396
5	0x3ce7042f	0.028200237
6	0x3b921bc0	0.0044588745
7	0x3cbe714f	0.02324739
8	0x3c29d5ad	0.010365886
9	0x3d67e6bc	0.05661653
10	0xbc531ae8	-0.012884833
11	0xbc867a3c	-0.016415708
12	0x3c66d588	0.014088996
13	0xbce1ee57	-0.02757947
14	0x3d337fca	0.04382304
15	0x3ccb8b5a	0.024846721
16	0x3ba0f1ed	0.0049116523
17	0xbd11f17d	-0.03563069
18	0x3ca788e0	0.02045101
19	0x3d2a382e	0.041557483
20	0xbd2fe3f6	-0.04294201
21	0x3d25ecf2	0.04050917
22	0xbd7aa370	-0.061191022
23	0xbcaa086e	-0.020755973
24	0xbd14f7a8	-0.036368996
25	0x3d422473	0.047398042
26	0x3d7817b6	0.060569488
27	0xbced0fe0	-0.028938234
28	0x3b933a70	0.0044930503
29	0xbc9ea4c1	-0.01936567
30	0x3d5b6be6	0.053569697
31	0xbbe25d1e	-0.006908073
32	0xbd6b94c0	-0.057514906
33	0xbd20dd00	-0.039273262
34	0x3d97d7f0	0.07414234
35	0xbd0806ae	-0.033209495
36	0xbc746135	-0.014915754
37	0xbd31c524	-0.0434009
38	0xbc9656c8	-0.018351927
39	0x3c8d1b54	0.017224945
40	0xbd1c08e2	-0.03809441
41	0x3da3653a	0.07978292
42	0x3d791eda	0.060820438
43	0x3c5d9b1e	0.013525752
44	0x3d18ae80	0.03727579
45	0xbc4bb2c9	-0.012432762
46	0x3bab9831	0.0052366485
47	0xbcc0609c	-0.023483567
48	0xbc9cdfbe	-0.019149657
49	0x3cbe0fbd	0.023200864
50	0xbd1df886	-0.03856709
51	0x3ccfb5b7	0.025355203
52	0xbc08a691	-0.008340494
53	0x38dfde74	0.00010674904
54	0x3d0c8da1	0.034314755
55	0x3d06932c	0.032855198
56	0x3cfc8870	0.030826777
57	0xbbbbd1e6	-0.005731809
58	0xbd019287	-0.03163388
59	0x3ce42e24	0.027854033
60	0xbc35f728	-0.01110629
61	0xbb868181	-0.0041047935
62	0xbbdadb07	-0.006678942
63	0x3ba89470	0.0051446483
64	0x3d0118c6	0.031517766
65	0xbcf22b64	-0.029561706
66	0xbb7ac2e0	-0.0038263127
67	0x3c9e81ce	0.019349005
68	0xbd7a5acc	-0.061121747
69	0xbd4f16d0	-0.050558865
70	0xbdb00691	-0.085950024
71	0xbcea42c9	-0.028596299
72	0x3c471f30	0.012153432
73	0xbd2f0ba8	-0.042735726
74	0xbbfddad0	-0.0077470317
75	0x3d33185b	0.0437244
76	0x3d0c5d0d	0.034268428
77	0x3d29a66a	0.04141847
78	0x3c29a86a	0.010355094
79	0xbb861b26	-0.004092592
80	0x3cb59266	0.022164535
81	0xbc38ce74	-0.011279691
82	0xbd6e8ef8	-0.058241814
83	0x3bdaa96c	0.0066730287
84	0x3cd9ea56	0.026600998
85	0xbd4972d6	-0.04918178
86	0xbbb4591e	-0.0055037877
87	0xbca0a946	-0.019611966
88	0x3b270da0	0.00254903
89	0xbb5f2a1a	-0.0034052194
90	0x3d1659f2	0.036706872
91	0x3b9b9ac0	0.0047486722
92	0x3cf5f43c	0.030023687
93	0x3cc3a04c	0.023880146
94	0xbd004b18	-0.031321615
95	0x3e91e7ac	0.28497064
96	0x3bab4c36	0.005227591
97	0x3cf11741	0.029430034
98	0xbc406c02	-0.011744501
99	0x3cab37f1	0.020900698
100	0xbd54a116	-0.051911436
101	0xbcd0ea3e	-0.02550232
102	0x3cb0f6b7	0.021602018
103	0x3d46dfe2	0.048553355
104	0xbd32c208	-0.043642074
105	0x3da34749	0.07972581
106	0x3d7fcc86	0.062450908
107	0x3cacc489	0.021089809
108	0x3bb039fd	0.0053780065
109	0xbc6f0ab0	-0.01458995
110	0x3d78525a	0.06062541
111	0x3d02af5c	0.031905517
112	0x3cda1448	0.026620999
113	0x3b83eee0	0.004026279
114	0xbd990bcb	-0.074729525
115	0x3c05cd49	0.00816662
116	0x3d539911	0.051659647
117	0xbc24d610	-0.010060802
118	0xbd5ad839	-0.053428862
119	0x3c461b05	0.012091403
120	0xbc1d365e	-0.009595482
121	0x3ab7db0c	0.0014027073
122	0xbcac140d	-0.021005655
123	0x3d347a2a	0.044061817
124	0x3d126071	0.035736505
125	0xbb499019	-0.0030756055
126	0x3daf3069	0.085541554
127	0xbd5ddd6c	-0.054166242
128	0xbae3ab80	-0.0017369837
129	0xbf4418b2	-0.7660018
130	0xbd757dea	-0.059934534
131	0xbc5727c0	-0.013132036
132	0xbbb7b8d0	-0.005606748
133	0xbbc73330	-0.0060791
134	0x3b841d8f	0.004031844
135	0x3e4e7cef	0.20164846
136	0xbc8d5ef8	-0.017257199
137	0x3d3c37a8	0.045951515
138	0x3cdeb820	0.027187407
139	0xbd083bb4	-0.033260062
140	0xbb876ab0	-0.004132591
141	0x3c957ac4	0.018247016
142	0xbd7cf46e	-0.061756544
143	0x3d34251e	0.04398071
144	0xbb021948	-0.0019851495
145	0x39d56bfb	0.00040706978
146	0x3c72034a	0.014771292
147	0x3bce40e7	0.006294358
148	0xbd56698c	-0.05234675
149	0x3d3ced72	0.046124883
150	0xbd008a0a	-0.031381644
151	0x3d5519b1	0.052026454
152	0xbd425fce	-0.047454648
153	0x3d390b44	0.04517676
154	0x3e3d36ee	0.18477985
155	0xbd0ee2e4	-0.03488435
156	0xbcce6d04	-0.025198467
157	0x3d87871d	0.06617568
158	0x3c74e208	0.014946468
159	0x3dc68882	0.096940055
160	0x3ce8fa1c	0.028439574
161	0x3d39409d	0.045227636
162	0x3c56135e	0.013066141
163	0x3ca16cbc	0.019705169
164	0xbc6ef0d3	-0.014583784
165	0x3db6bb19	0.08922405
166	0x3cf5ec4c	0.030019902
167	0xbc833fbd	-0.016021604
168	0x3e1fedd2	0.15618065
169	0x3cbdd850	0.023174435
170	0xbd1468e4	-0.036232844
171	0xb95ea49e	-0.00021232895
172	0xbd17147b	-0.036884766
173	0x3d6f5622	0.058431752
174	0xbb234b15	-0.0024916579
175	0xbaae2380	-0.0013285726
176	0x3c6908e8	0.014223315
177	0xbc87ef30	-0.016593546
178	0xbd0284cd	-0.03186493
179	0xba617bab	-0.0008601497
180	0x3c3458c0	0.011007488
181	0x3ac16bd0	0.0014756862
182	0xb9e4919f	-0.00043596045
183	0x3ced51b5	0.028969625
184	0x3cf5a8b1	0.029987665
185	0xbd1c7df8	-0.03820607
186	0x3cfb91ab	0.030709108
187	0x3c0209c2	0.007936897
188	0x3b551f84	0.0032520005
189	0xbbaf47f0	-0.005349152
190	0x3956bd77	0.00020479212
191	0xbdef2c9e	-0.11678432
192	0x3d8bbe48	0.06823403
193	0x3bd9072c	0.0066231694
194	0x3c87653f	0.01652777
195	0x3dae3b61	0.085074194
196	0xbd8446b5	-0.06458799
197	0x3cc021c7	0.023453606
198	0x3d52e1d8	0.051484913
199	0xbd18e7d2	-0.037330456
200	0xbd0b2915	-0.033974726
201	0x3bf9cdb6	0.0076233996
202	0x3b83e028	0.0040245242
203	0xbc56c15f	-0.013107627
204	0x3d201282	0.03908015
205	0x3ace78f4	0.00157526
206	0xbd2b9780	-0.04189253
207	0xbd42d7ae	-0.04756897
208	0xbd5167e3	-0.051124465
209	0x3ca4582e	0.020061579
210	0xbb847a02	-0.004042865
211	0x3b9c8a91	0.0047772606
212	0x3c7d2548	0.015450783
213	0x3b593b29	0.0033146834
214	0x3c5e910d	0.0135843875
215	0x3e00537b	0.12531845
216	0x3a93a69f	0.0011264867
217	0x3d446840	0.047950983
218	0xbbcada56	-0.0061905785
219	0xbd72d624	-0.05928625
220	0x3d430554	0.047612503
221	0xbd473b8b	-0.04864077
222	0x3e466a19	0.1937641
223	0xbcc84f14	-0.02445177
224	0xbcbbfb3a	-0.022946943
225	0x3c5233f2	0.012829768
226	0x3d57958a	0.052632846
227	0xbc5defaa	-0.01354591
228	0x3d69303c	0.056930766
229	0xbcf7378d	-0.030177856
230	0xbc61d7cc	-0.01378436
231	0x3a5649ab	0.00081744295
232	0x3cf71384	0.030160673
233	0x3e52b24e	0.2057583
234	0x3d96ad71	0.073573
235	0xbd973c20	-0.07384515
236	0x3c47041f	0.012146979
237	0x3ca3d143	0.019997245
238	0xbc0a57d3	-0.0084437905
239	0xbc62bda0	-0.013839155
240	0xba64581c	-0.0008710639
241	0xbcf8d41d	-0.030374581
242	0x3cf97c7b	0.030454865
243	0x3c952dc8	0.018210307
244	0xbcbf10aa	-0.023323376
245	0xbcf41e33	-0.029799556
246	0x3d7a956e	0.061177664
247	0xbc2c4a41	-0.01051575
248	0x3bb0cf59	0.0053958115
249	0xbd4d672a	-0.050147213
250	0x3c0628a0	0.008188397
251	0xbc367e48	-0.011138506
252	0xbd91c969	-0.07118494
253	0x3d7eb868	0.062187582
254	0xba1df480	-0.0006025508
255	0x3d6535d0	0.055959523

fc3.bias f4 [3]
0	0x3e355e26	0.17711696
1	0xbe1014ab	-0.14070384
2	0xbdd6506b	-0.10464557
