mountain_car_policy_bco.pt (torch, 417902 bytes, 20 tensors)

fc1.weight f4 [256, 2]
00000000: 14d3 b6be 348f 42be f69c d23d f153 39bd
00000010: 41e2 0d3d 7f9b 2ebf 705d 863e a6ea 213e
00000020: 41b3 e83d b7db 18be 5152 9cbe 4d3d e9bd
00000030: 992b 883e 3f4c febd 37e0 6f3c 7c18 da3e
00000040: 8f17 e83e 3e7a db3e 2d14 113d e5f5 24bf
00000050: bf95 ba3c 92c5 0c3f 3785 7fbd 168b a7be
00000060: 2c73 7e3e 0883 9dbe 90a7 d43e 5845 13bf
00000070: 928d 82be 262f 953d 76b6 9e3e 252d 8ebe
00000080: 80e3 d7be 990f 08bf dc0b 103e eb2a 763e
00000090: 4926 8d3e b84a 0e3e ab2b 8b3e c03f 33be
000000a0: b4f9 e8bd 5054 9bbe 091c e43c d4d7 31bf
000000b0: 0c86 9cbe fb3f b8be ea40 ebbd aee5 fdbd
000000c0: 1fc5 4ebe 0d3e 8abd 9d6f 6fbe e417 093f
000000d0: af4c 8f3e 45f4 9b3e 1693 973e abcb e63e
000000e0: 47df ea3d 19f3 c0be 7f2f 3dbe 3d56 a23c
000000f0: 28ee acbe 5a51 b03e f7f5 50be 2b70 bcbd
00000100: c5aa a9be 7981 753e a812 033b 59c3 96be
00000110: da04 debe f63b 0b3f 113a aebe 2805 bd3e
00000120: 6c67 d23e aa71 883e 9551 e73c 207b 2b3f
00000130: 974d d83e 7c76 04bf 09ff 9cbe 1c53 d4be
00000140: bfa6 e6be ecb4 b83e a958 c8be 6ffe 81be
00000150: b7a0 02bf 8a42 f83e ab54 f3be 5e87 cc3e
00000160: a98b 5dbe 326c b1bd 0a0a a9be 8165 c4be
00000170: 358f ee3c 6e87 2f3f 9166 b83b 293f 273f
00000180: d65b 863e 94d2 a9bd 5394 26bd 02eb 4cbd
00000190: af0f a1be 43c7 9c3d d264 aa3e 2283 bd3e
000001a0: 1358 81be 004e 933d e1d2 37bd 878b 903e
000001b0: d1d4 533e 4a54 673e 6b02 e8be 9199 ee3e
000001c0: 05be 0cbe df6f f93e bb33 c6be ce5b d2be
000001d0: 8be9 38be 13b0 1e3e 6a63 8cbe bbd1 aebe
000001e0: 0a32 cb3c b7a2 37bf 0a15 babe 8400 d23e
000001f0: 1c9f cc3d 091a 753e 1e82 643d c175 503e
00000200: bc27 dfbe 9061 713e 7c77 bb3e 14e0 65be
00000210: 8e46 463e dcf8 d5be 4d88 40be efe8 d83e
00000220: 3059 1d3e a80e ecbe dcbd 473e 794f ef3e
00000230: c746 9f3e 9002 f8be a223 733c 0202 b0be
00000240: d236 863e b45f ca3d cde6 003e eb30 453e
00000250: fad5 c63d a91b febe 5c56 b2be 3c15 283d
00000260: 6674 95be 35e7 073f 4743 853d 1a10 2cbf
00000270: b4b9 2abe 64ad 24be 874f 17be 79fe b73e
00000280: 60da e43e c390 bd3e e0b8 8fbe 724e e6be
00000290: ba3d 483e e4dc 48bd eb99 a93b 8a04 0cbf
000002a0: 29c6 eb3a 0754 273f aa5c f3bb 07bb a83e
000002b0: 71d9 6abe 10a2 9fbd 552c 6bbe eac0 553d
000002c0: 15cc 8b3e b811 9fbe 42c5 97be 0b09 b0be
000002d0: 01c6 fabd 1db8 253f b6cb 6a3e 91dd 89be
000002e0: cdc4 c8bc c848 53be 9ed2 ac3e 26a8 06bf
000002f0: 14f9 183e 1e9a 033d 9992 81be 9a97 4e3e
00000300: b793 00bf d88f 2dbf 93ab 6f3e a982 0fbf
00000310: 8bad f0be c0f5 29bf 8a40 fe3b 08cd 1f3f
00000320: 33a3 b93e 8263 733e 5bca 2abe b4db 45be
00000330: 11d6 253e 6dd4 093f 1e99 bcbe 88f7 0dbf
00000340: d2f9 a83e 0630 3cbe 1fad a2be 2e08 d7be
00000350: 791c 963e 513f 17bf 3272 53be d0e6 183f
00000360: 7d71 cbbe aca0 3cbe 18db 7b3e 6384 0d3f
00000370: b6ea aebe cc2a 21be a40b 483e 042a b9be
00000380: c1df bcbd 7d7d 913e bf1d f53d d65b 943e
00000390: e476 9cbe 15ee d53d 4346 98be 99d4 2abf
000003a0: ab2a a33d d3e1 41be a133 53ba 03a2 ecbe
000003b0: ef61 563b 5205 1ebf 5616 e63d 6cda 1a3e
000003c0: fff4 e7be a0dd e1be 8ef3 003f d803 b4be
000003d0: aba2 c13d d9b8 163d d157 003d 49ae 403e
000003e0: 968a a5be ed54 a83e 581d 9ebc 0eba 31be
000003f0: 0b16 923e 20e2 d73e ad0b 78be 13a3 e7bd
-0.35707915 -0.1899994 0.10283844 -0.04524607 0.0346396 -0.6820602 0.26243162 0.15812168
0.11362315 -0.14927565 -0.30531552 -0.11388645 0.26595762 -0.124168865 0.014640859 0.42596805
0.45330474 0.428667 0.03541963 -0.64437705 0.022776483 0.5498897 -0.062382903 -0.32723302
0.24848622 -0.3076403 0.4153409 -0.57527685 -0.25498635 0.072843835 0.30998582 -0.27768818
-0.42165756 -0.531488 0.14067024 0.2403981 0.27568272 0.1389569 0.27181754 -0.17504787
-0.11375752 -0.30337763 0.0278454 -0.6946995 -0.3057102 -0.35986313 -0.11486991 -0.123973235
-0.20192383 -0.067501165 -0.23382421 0.5355208 0.27988192 0.304598 0.29604405 0.4507726
0.11468368 -0.3768547 -0.1847515 0.019816512 -0.3377545 0.34437066 -0.20406328 -0.09201082
-0.331381 0.23975171 0.0020000134 -0.29445913 -0.43363076 0.5438837 -0.34028676 0.36917996
0.4109453 0.2664922 0.028237144 0.6698475 0.42246696 -0.5174329 -0.30663326 -0.41469657
-0.45049092 0.36075532 -0.39130142 -0.2538943 -0.5102648 0.48488265 -0.47525534 0.39947027
-0.21635307 -0.08663215 -0.33015472 -0.3835869 0.02912102 0.68566024 0.0056274612 0.6533075
0.2624194 -0.08292118 -0.040668797 -0.05002881 -0.31457278 0.07655194 0.33280045 0.3701411
-0.25262508 0.07192612 -0.044878844 0.2823145 0.20686652 0.22590747 -0.45314345 0.46601537
-0.13744362 0.48718163 -0.38711342 -0.41085666 -0.1805784 0.15496854 -0.27419597 -0.34144387
0.024804134 -0.7173266 -0.36344177 0.41016018 0.09991285 0.23935713 0.055788152 0.2035742
-0.43585002 0.23572373 0.36614597 -0.2244876 0.19362852 -0.41791427 -0.18801995 0.42365214
0.15366054 -0.46104932 0.1950602 0.4674032 0.31108686 -0.48439455 0.0148400385 -0.34376532
0.262137 0.09881535 0.12588044 0.19256942 0.097087815 -0.49630478 -0.34831512 0.041035876
-0.29190367 0.5308717 0.06506973 -0.6721207 -0.16672403 -0.16081768 -0.14776431 0.35936335
0.44697857 0.37024507 -0.28070736 -0.44981724 0.19554797 -0.049038783 0.005175819 -0.54694426
0.0017988133 0.6536259 -0.007426818 0.3295519 -0.2293451 -0.07794583 -0.2296613 0.05218593
0.2730414 -0.31068206 -0.29642683 -0.343819 -0.122447975 0.6473406 0.22929272 -0.26926854
-0.024507904 -0.20633233 0.33754438 -0.52600324 0.14938766 0.0321294 -0.25307158 0.20175019
-0.50225395 -0.67797613 0.23405294 -0.56058747 -0.47007403 -0.6639061 0.0077591585 0.6242223
0.36257324 0.23768428 -0.16678755 -0.19322091 0.16194941 0.5383976 -0.3683557 -0.5545583
0.33003098 -0.18377694 -0.31772706 -0.41998428 0.29318598 -0.5908099 -0.20649031 0.5972719
-0.39735022 -0.18420666 0.24595296 0.5528013 -0.34163445 -0.15738982 0.1953569 -0.36164868
-0.09222365 0.28416052 0.11968564 0.28976315 -0.30559456 0.10445801 -0.29741105 -0.6673065
0.07967123 -0.18933801 -0.00080567045 -0.46217355 0.0032712182 -0.6172687 0.11234729 0.15122384
-0.45304105 -0.441144 0.50371635 -0.35159183 0.094548546 0.03679738 0.03133375 0.18816485
-0.32332295 0.32877293 -0.019301102 -0.1735613 0.28532442 0.42164707 -0.24223204 -0.11310401

fc1.bias f4 [256]
00000000: dbda 43b4 63d5 373b 7c09 70be 5c5c acb9
00000010: e4c8 f63d 7520 97bd b06d a5bd 05fa 8836
00000020: 17a2 8cbe 92d7 36be 180f 71bc 98e9 a63b
00000030: 976b c8ba 865a 93be ea24 04bd bd7f c5b4
00000040: c99b a333 3a32 893e 65e9 57be 5213 253e
00000050: 857b 473c d9ed 39bb fe8a 5c3e 6e9f a4bb
00000060: bff7 cebb 95b7 73be c22c 11b5 347e 11bd
00000070: b5da 1b3d 2b13 3038 12dd 6d3e 55bc b33d
00000080: 38d5 563c 4f2a 5b3c 06b0 263e 6218 9fbe
00000090: a7d5 893d e3a3 f8b6 099a a835 4356 9ebe
000000a0: 48dc 1f3e 4037 423e 8039 2eb6 0fc2 17bd
000000b0: aaee 523e 5bd0 00be d4b6 08bc ec27 26b8
000000c0: cb83 5db4 5008 f83a 5c4a 643a 6d9a 5b3e
000000d0: 890d 053c 0029 d83d f849 bdbd 870c 8db7
000000e0: a234 b5ba b1c4 01be e938 673e 40a2 15bc
000000f0: 36b7 a0b9 7e68 93bb c5d6 2cbe e2c4 893e
00000100: d47c df3d 100f 83b8 98b8 2fb5 3711 14be
00000110: c7a8 e137 0fd3 9835 cb27 b2ba abcc 9037
00000120: 0cc2 e237 7ecd bb39 68d1 abb9 143a 7239
00000130: 798e 4736 c8dc e4bb 04b0 02b9 aa85 91bd
00000140: 6f2d 2535 cf2f 00bd 66ec f63d c6cf 2eb8
00000150: a274 9cbe de95 6a3e 6bcd 2534 f68f 603e
00000160: d9b0 5abe 949f 4e3e fbbe 6338 bacc d83d
00000170: 1292 233c e570 e43d ad5d 3135 d6a7 2d3a
00000180: 5e94 5cb4 8e57 9bbd fc56 6bb9 9aa4 4cbe
00000190: b2a1 34bd 8365 9bb9 d476 d2bb bd8b 713e
000001a0: c76a b2ba 1bbb 84be 03ff 84be 9f58 e6bc
000001b0: 934a 133e d02d b73b 8fa4 2f3e ac96 82bd
000001c0: bb8d 1c3b 1a6f 4c3e 81e4 6f3e 9e9e 6db5
000001d0: 175a 2fbe 941b e837 4c5d bb37 e592 1dbd
000001e0: 4f1a a33a 93a7 0837 8cb6 1abb d982 38be
000001f0: f254 51b3 c550 2ebd 5ed6 8d3e 6348 023e
00000200: 1d8d 3f3e 68ca 983d 7c9c 873d 0ebe 82be
00000210: 09e2 53b7 646e 24be b101 21bc b059 2fbb
00000220: 91ab 973e 0817 7abd 39ef d9b6 84f3 7734
00000230: be39 20be 8373 7f3b 4e15 8c36 f7b2 243e
00000240: 1242 d4bd 076d 9d39 472d 8cbe 9372 81b8
00000250: 22a2 493b eabe 98bc 1378 5d3e bc18 13be
00000260: d386 9e3e 3ed5 a03e 4b83 c6bd f29b 79be
00000270: 0993 93be 89b0 9ab5 9508 09bd b2c1 91be
00000280: 5449 30bd 3f4f 513a 8589 f737 9367 dcb4
00000290: d43d c53d b43b 8f3e ecfa 91bd 6f6e 95bd
000002a0: 1aa0 91b5 0b56 543b 8d5b 87b5 7d05 7e3d
000002b0: b6b9 4fbe c405 09b1 3f31 ea3c d805 46bb
000002c0: 927c 87bc 0d20 a43a 36bc d3ba 1ed4 33be
000002d0: e7e8 cc33 21c3 813d c7d0 96bd 8d50 80b6
000002e0: 5e12 9238 117c 1cbe 6a3f 07b8 c6eb a4bd
000002f0: 2bea 5cbe 2b49 1dbe 0398 b2b6 c09f 1ebc
00000300: 8740 173d 99a2 903e b453 0cbc 6545 37be
00000310: 6124 cab7 c9b1 05be 9aeb 34be d1bc d2ba
00000320: 1474 1fbd 6c58 4cbe 98be 58b7 e970 88bd
00000330: 0dc0 863e 08a1 943e f557 dfb5 c4b8 393e
00000340: 5d27 84be 7357 a6bd 944e e5bd 7acf e83d
00000350: 2b1d 2135 ff7a 4439 85cc 1c3e 365c 2532
00000360: ca09 4ebe 86ca 0ebe 593f b7bd bd32 a83a
00000370: a7ec 78be 7644 ad3a e8c5 0837 d6b3 0636
00000380: df6f 263a 1632 0bbe cf84 053d d572 553d
00000390: eae6 993e ff0a 803d 386f ca35 313c c83d
000003a0: 5983 983c 0a08 6234 d926 1dbb 1dd6 8fbe
000003b0: c894 bebd 3d7b 113e fc1f 1932 0dc9 773e
000003c0: 071d 853d 97ef 2fb6 c291 0a3e 3369 5ebe
000003d0: 2452 6e3c 0879 1fbb 947c 2c35 e7ec 9c3e
000003e0: 1ec4 893c 9703 48be 24f4 9e38 ece7 c231
000003f0: c41e e4bc 4e4b b4bc 5873 6d3e 8270 95bd
-1.824041e-07 0.0028050772 -0.23441118 -0.0003287521 0.120500356 -0.073792376 -0.08077562 4.082222e-06
-0.27467415 -0.17855671 -0.014713071 0.0050937645 -0.0015290853 -0.2878 -0.032261766 -3.678705e-07
7.618616e-08 0.26796132 -0.21085127 0.16120651 0.012175445 -0.0028370528 0.21537396 -0.0050238883
-0.0063161547 -0.238005 -5.408184e-07 -0.035520747 0.038050372 4.197952e-05 0.23228863 0.08776156
0.013112359 0.013376786 0.16278085 -0.3107329 0.06730204 -7.410055e-06 1.2561806e-06 -0.30925187
0.15611374 0.18966389 -2.596149e-06 -0.037050303 0.20598856 -0.12579481 -0.008344371 -3.9614664e-05
-2.0630175e-07 0.0018923376 0.000870859 0.21445628 0.008120903 0.10554695 -0.09242624 -1.6814343e-05
-0.001382489 -0.12672688 0.22580303 -0.009132922 -0.0003065408 -0.0044985404 -0.16878803 0.26908022
0.10912481 -6.2493724e-05 -6.54612e-07 -0.14459692 2.6900683e-05 1.1386309e-06 -0.0013592181 1.7261444e-05
2.703166e-05 0.00035820523 -0.0003277168 0.00023100554 2.973624e-06 -0.006984327 -0.00012463337 -0.071055725
6.1533405e-07 -0.031295594 0.12056808 -4.1678337e-05 -0.30557734 0.22908732 1.5441553e-07 0.21929917
-0.21356525 0.20178062 5.4298882e-05 0.105859235 0.009983556 0.111543454 6.6073954e-07 0.0006624436
-2.0543072e-07 -0.07585059 -0.0002244375 -0.19984666 -0.044099517 -0.00029639536 -0.006422857 0.23588462
-0.0013612144 -0.25924 -0.25975809 -0.02811843 0.14383917 0.005590178 0.17152618 -0.06376395
0.002388819 0.19964257 0.23427011 -8.85202e-07 -0.1712421 2.7669397e-05 2.2335582e-05 -0.038470168
0.0012443754 8.145248e-06 -0.0023607342 -0.18018664 -4.8738862e-08 -0.042557497 0.27702612 0.12722926
0.18706174 0.07460481 0.06621644 -0.25535625 -1.2629208e-05 -0.16057736 -0.009827063 -0.0026756339
0.29623082 -0.06105712 -6.494953e-06 2.3092258e-07 -0.15647027 0.0038978762 4.1748053e-06 0.16083895
-0.103641644 0.00030026605 -0.27378294 -6.1725405e-05 0.0030766805 -0.018645722 0.21627836 -0.14364904
0.30962238 0.3141269 -0.09693011 -0.24375895 -0.28823116 -1.1525273e-06 -0.03345545 -0.2846809
-0.04303868 0.0007984526 2.9508732e-05 -4.1053553e-07 0.096309334 0.27975237 -0.07127938 -0.07296454
-1.0849938e-06 0.0032399918 -1.0084929e-06 0.062016953 -0.20285687 -1.9939401e-09 0.028587935 -0.0030215885
-0.016538892 0.0012521759 -0.0016154114 -0.17561385 9.541855e-08 0.06336046 -0.0736404 -3.8240746e-06
6.965244e-05 -0.15281703 -3.2245567e-05 -0.08052783 -0.21573703 -0.15359943 -5.32251e-06 -0.009681642
0.036926772 0.28249052 -0.008564878 -0.17897566 -2.4097217e-05 -0.13056101 -0.17668 -0.0016078
-0.03892906 -0.19955605 -1.2918979e-05 -0.06662161 0.26318398 0.29029107 -1.6640394e-06 0.18136889
-0.25811282 -0.08122148 -0.11196628 0.11367698 6.001962e-07 0.00018737836 0.15312393 9.62523e-09
-0.20120922 -0.13944444 -0.089476295 0.0012832504 -0.24309026 0.0013219255 8.15231e-06 2.0072234e-06
0.00063490676 -0.13593325 0.03259736 0.052111465 0.30058986 0.06252097 1.5082542e-06 0.097771056
0.018617319 2.1050815e-07 -0.0023979454 -0.28093043 -0.093057215 0.14207168 8.9130445e-09 0.24197789
0.06499677 -2.6216492e-06 0.13532165 -0.21719818 0.014545951 -0.0024333615 6.425628e-07 0.30649492
0.016817149 -0.1953262 7.579502e-05 5.6725096e-09 -0.027846701 -0.022008564 0.23188531 -0.0729685

bn1.weight f4 [256]
00000000: 4e81 6f3f fd20 713f de6f 803f caaf 703f
00000010: 562c 6c3f 931d 723f a6b3 6a3f 4cf9 813f
00000020: 3a5d 703f 4232 7f3f 0d94 813f 6a68 7a3f
00000030: 71e9 713f fecb 703f 7ba7 713f c293 763f
00000040: 1a98 723f 9117 6e3f ed15 703f 4de2 6c3f
00000050: 31cc 733f d079 853f 36d7 733f 650e 733f
00000060: 8e39 6e3f 2a05 703f 314f 6f3f 093a 683f
00000070: 7340 753f 9cf8 6f3f b413 703f 8f39 743f
00000080: 7b6f 723f 2f57 853f bc02 703f b614 6f3f
00000090: d808 703f dcd0 843f 0b6a 6e3f fdf1 6d3f
000000a0: 8010 6c3f e5f8 793f 9076 6e3f 8900 703f
000000b0: 9f8a 723f 0b7f 733f 7d95 813f 52ab 833f
000000c0: 5770 6e3f cc5e 713f 4f73 6d3f 279f 713f
000000d0: 49d8 703f 4bf2 763f 9571 733f 8986 6d3f
000000e0: 3048 743f 3f29 713f 3295 6d3f 6e8e 723f
000000f0: 3968 833f 6035 733f dbfd 703f 8159 6e3f
00000100: f10b 753f 340c 6c3f c002 733f afa0 703f
00000110: 1235 723f ae35 6f3f 2428 733f b892 813f
00000120: 6e18 6e3f 35d6 6d3f 43aa 753f 0e36 733f
00000130: 51ff 703f 765c 793f 3451 713f e5a4 6d3f
00000140: 2da5 6f3f 8af1 733f b065 723f 9633 853f
00000150: c5a2 823f ad74 843f 0a7f 713f 4b00 6f3f
00000160: 6150 713f 2e13 6d3f eeef 7a3f 8ab9 6e3f
00000170: c69f 783f 2e08 703f 05da 6f3f 677f 713f
00000180: 1b59 773f 6ab7 723f 6e5c 773f 2bcf 823f
00000190: f523 6d3f 0466 753f ce3b 733f b92d 783f
000001a0: ce20 6c3f c04a 763f c594 713f 9e2f 6e3f
000001b0: 760a 713f 22f3 753f e1f1 733f c9ad 6d3f
000001c0: d293 723f 4985 743f c709 713f 03ef 753f
000001d0: eb94 703f fb0b 873f a170 863f 127c 733f
000001e0: 0212 6e3f bb24 703f 7e64 6f3f 6e74 753f
000001f0: 60e7 733f a437 763f c275 713f f036 6e3f
00000200: f45f 713f 2516 6e3f 97c4 6e3f 869d 763f
00000210: a2f4 723f f961 6f3f 0907 733f 076d 7f3f
00000220: 77ed 703f b8a0 743f b7c2 803f bdcd 723f
00000230: 8bf7 793f d9f3 733f 8109 6c3f 4710 703f
00000240: 1be5 713f 80dd 6e3f 505c 6e3f a1b9 853f
00000250: 2b63 763f 907e 863f f5ba 813f cf1d 773f
00000260: cbdb 793f b366 6e3f 80a1 703f 4678 723f
00000270: 109d 703f ac98 763f fbe5 743f ad20 843f
00000280: 3797 713f ac89 6f3f 24b7 6d3f 9d38 713f
00000290: ae9e 743f 138b 713f 2b02 723f 8914 703f
000002a0: 9786 733f c46a 703f 685a 743f 1719 6f3f
000002b0: 2d3e 6f3f 6d0e 723f 3a88 783f ae6d 6f3f
000002c0: 6c06 733f bd51 6b3f 252f 723f ada9 733f
000002d0: 09e2 6e3f 2cee 793f f08a 6e3f 4044 713f
000002e0: f6c7 703f 2304 6f3f acde 743f 7dc1 843f
000002f0: c288 703f 41c6 723f a90a 713f ae1a 6f3f
00000300: 21e4 6e3f af19 723f bdf5 6b3f 4819 703f
00000310: b2b3 6b3f 7bc7 723f 2e5b 6e3f 2bd2 7f3f
00000320: c008 853f ef4e 713f abfe 713f 1acd 743f
00000330: 96fa 6f3f 6ccf 6e3f e5ab 803f 1c8f 723f
00000340: 1e02 713f 1a5d 6c3f 88c2 703f 3e9e 6f3f
00000350: 9cff 773f 4c19 6e3f e69a 753f d720 6d3f
00000360: f32c 853f ad4a 733f a8de 6d3f afd0 713f
00000370: e54f 6e3f 2d7b 713f 69ca 703f 4cbf 693f
00000380: 3e60 703f ce05 703f 833b 7e3f 8132 703f
00000390: a324 6e3f a180 733f 3ea3 7a3f b453 773f
000003a0: d25f 783f 4f35 723f fc04 6e3f ffec 6a3f
000003b0: fe04 703f c69f 753f 364b 703f 4073 7b3f
000003c0: 8b50 713f 01d4 763f 1f8b 833f 34ea 6d3f
000003d0: 7855 753f 88eb 743f e268 6f3f 0cbf 733f
000003e0: c2cc 6e3f 74ec 793f c2e5 823f 6edd 723f
000003f0: 9bd5 6e3f 2c21 6e3f 4dd5 713f 71da 793f
0.9355668 0.9419096 1.0034139 0.9401823 0.9225515 0.94576377 0.9168037 1.0154204
0.9389225 0.9968606 1.0123307 0.97815573 0.9449683 0.9406127 0.9439618 0.9631921
0.9476334 0.9300471 0.93783456 0.9253281 0.95233446 1.0427799 0.9525026 0.9494384
0.9305657 0.9375788 0.9348021 0.90713555 0.95801467 0.9373872 0.93780065 0.9540033
0.94701356 1.0417231 0.9375417 0.9339098 0.93763494 1.0376239 0.9313056 0.9294737
0.92212677 0.9764541 0.9314966 0.93750817 0.9474277 0.9511573 1.0123745 1.0286658
0.93140167 0.94285274 0.9275407 0.9438347 0.94080025 0.9646346 0.9509519 0.9278341
0.9542265 0.9420356 0.9280578 0.9474858 1.0266181 0.9500332 0.9413735 0.9310532
0.95721346 0.9220612 0.9492607 0.93995184 0.9461223 0.93441284 0.94983125 1.01229
0.93006027 0.9290498 0.95962924 0.95004356 0.9413958 0.9740671 0.9426453 0.92829734
0.93611413 0.95290434 0.9468641 1.0406368 1.0205923 1.0348107 0.9433447 0.9335982
0.94263273 0.9260739 0.98022354 0.9325186 0.97118795 0.9376248 0.93692046 0.94335026
0.9662034 0.9481112 0.9662541 1.0219473 0.9263299 0.9585879 0.9501313 0.9694477
0.92237556 0.9620781 0.9436763 0.9304141 0.9415659 0.96074116 0.9529095 0.928433
0.94756806 0.95515877 0.94155544 0.9606783 0.9397723 1.0550531 1.0503122 0.9511119
0.9299623 0.93806046 0.93512714 0.9588078 0.95274925 0.9617865 0.9432031 0.9305258
0.9428704 0.9300254 0.9326872 0.9633411 0.9490453 0.9350887 0.9493261 0.9977574
0.9411234 0.9555774 1.0059422 0.9484518 0.97643346 0.95293957 0.92202 0.9377484
0.9449021 0.9330673 0.9310961 1.0447274 0.9624507 1.0507374 1.013518 0.9652986
0.97601 0.93125457 0.9399643 0.9471477 0.9398966 0.9632671 0.9566342 1.0322472
0.9437136 0.93569446 0.92857575 0.9422701 0.95554626 0.94352835 0.9453456 0.93781334
0.9512724 0.9391291 0.9545045 0.9339766 0.9345425 0.9455326 0.97082865 0.9352673
0.94931674 0.919216 0.94603187 0.9518078 0.9331365 0.97629046 0.9318075 0.94244766
0.94055116 0.9336569 0.9565227 1.0371548 0.93958676 0.9483376 0.9415689 0.93400085
0.9331685 0.9457044 0.9217184 0.93788576 0.9207107 0.94835633 0.9310788 0.99930066
1.0393295 0.9426107 0.9452922 0.9562546 0.9374174 0.9328525 1.0052458 0.9474962
0.94143856 0.9232956 0.9404683 0.93600833 0.96874404 0.9300735 0.9593948 0.92628235
1.0404342 0.9503582 0.9291787 0.9445905 0.9309066 0.94328576 0.94058853 0.9130752
0.93896854 0.9375886 0.9930956 0.9382706 0.93024653 0.9511815 0.9790534 0.96612096
0.9702121 0.9461259 0.92976356 0.9176788 0.9375762 0.9594692 0.9386476 0.9822273
0.94263524 0.9641724 1.0276831 0.9293549 0.9583354 0.9567189 0.93519413 0.9521339
0.93281186 0.97626424 1.0226367 0.94869125 0.93294686 0.93019366 0.94466096 0.9759894

bn1.bias f4 [256]
00000000: 9af2 b7bb 3491 3abd faef debc 5c85 86bc
00000010: 81a1 64bd 6bb5 1dbd eb76 1c3d 065b 853d
00000020: 7385 57bd ca75 15bd 895c 9e3d 403c edba
00000030: 137c 1abd 878d 38bd eb65 eabc 88db 79bd
00000040: 01de ebbc 5dbc 2ebc 05ea 063d c753 20bd
00000050: 06d6 623c cec4 2abc 1f0f 263c a08f 9f3b
00000060: cbde 47bd abea 9fbd b8a2 803d 1507 bdbc
00000070: 19a6 7dbd 4993 84bd 169c aebb 55ef 66bd
00000080: 02bc 1dbd a1aa 9c3b 9588 32bd e18d 70bd
00000090: c6b6 55bb 5d74 9a3d 6e82 39bd c4b3 84bd
000000a0: 55b4 81bd 8226 113d 057a 83bd b96a 67bd
000000b0: ecb8 f3bc 1362 cd3c 6265 263d e350 cc3d
000000c0: ee87 32bd 02b3 9f3c 1512 17bd a517 11bc
000000d0: d473 f9bb 7464 11bd 70f2 9cbb a56d abbc
000000e0: d7ad 9cbd e75d 4abc 82b4 e4bc b0fa 39bc
000000f0: ac74 84bc 9ace 96bd 0cce e9ba c818 0f3d
00000100: fe5c d73c a2c2 e7bc a0d7 1abd 29d6 89bd
00000110: cbe1 49bd d78e d23c 038d 0dbd ae14 b3bc
00000120: faa2 88bb 9b8c b8bc 0780 9dbd 4ed4 e5bc
00000130: 52fa a8bd c045 37bd 5821 43bd 224b 12bb
00000140: cf0e 69bc 712a 4f3c f62c 8dbc 0a6b 0b3a
00000150: f346 cb3d b531 ad3d 6d3e 9cbc ef2f fcba
00000160: d4c6 64bc ecfc 54bd db80 38bd 3de3 2cbc
00000170: 82c2 53bb 1c5e 20bd 50f9 cd3c 17f1 94bd
00000180: 3d46 7f3c b47e 84bd 6efc a63b 8c02 ce3d
00000190: f042 303d 1596 803c c958 1a3c 2a55 2c3c
000001a0: 5b35 dabb 1613 b43c 4c44 4fbd 3d65 93bd
000001b0: d0f9 41bd a0d4 dfbc 081b 88b9 5d8a 6abd
000001c0: 6831 dabc 6a89 a53c c8b5 13bd f7d4 90ba
000001d0: 7f1e 6ebd fc0d f23b 79c8 3f3c d5ec f6bc
000001e0: d995 63bd 80c5 9dbc b08e 2f3d 7129 f23b
000001f0: bd01 87bd 1c67 2cbd aec9 0ebd 31f2 20bd
00000200: b19c 883c 1a7e 30bd f246 b63a b9b1 27bd
00000210: cade bdbb 0e88 51bd d361 023d e333 c5bb
00000220: bddf ca3c 4180 2bbd b26e 473d a2ed 8fbd
00000230: b9c4 46bd a29b 023d 9d5f 0ebd dcf9 8e3c
00000240: 4c8a 0bbd 44eb 3f3c 8a10 93bc cf72 5dba
00000250: e1d7 44bd 6212 a83c 110d 0bbc b44f e73b
00000260: f0cd 893c e3fa c53c f9c6 773c 21d3 123d
00000270: f396 1cbd ff93 eb3c 383b a83c 0772 bd3d
00000280: 386f 85bd 349f 363b 7d80 0c3d 0dc5 57bd
00000290: 5376 6bbd 1563 0dbd 437e 8bbd aeba c03c
000002a0: 69ec a7bc e952 4d3c 9f93 873c 2e57 85bd
000002b0: de66 67bb 7401 01bc f211 9cbc eb0d cebc
000002c0: 010d b0bb 8114 90bc 9873 3cbc 8abd 203c
000002d0: 10ae 4a3b d08c ed3c f0a6 87bc 87e9 803b
000002e0: 2933 d7bc e154 4fbd 6cd4 323c 8c66 c23d
000002f0: eb21 1fbd 237a 83bd 6f52 cc3a 89c4 57bd
00000300: 7988 bc39 894f 00bb 3899 4e3c 5b18 0a3c
00000310: 6294 aabc f457 7cbd e28a 633c 1a40 d83c
00000320: e2df 3abc 072a 7abd 4e08 85bd 4e44 a3bc
00000330: 67ba 1739 9444 be3c 186b 893d 1b3b c0bc
00000340: 0caf 71bc 6be5 c03c c87f 423c 075a 39bd
00000350: 46d9 b8bb e62b 51bd 78f1 683c 98c0 3cbd
00000360: 8736 5f3c 6674 213d 6bf0 88bd 431b 6dbd
00000370: 5bb5 5f3c 42cd a53c bda9 72bd e784 cbbc
00000380: d349 69bd d803 c1bc f125 5f3a 4fae 883b
00000390: ef39 d43c 25df fabc 4e6d 68bd 6346 8bbd
000003a0: 9dc4 a13c 3ebf 36bd 5eac 603b 3df8 67bc
000003b0: 371c b7bb 1c9f 65bd 069b 37bc 436c 3b3c
000003c0: 211e 33bd 1898 03ba 6d51 b63d 64b9 913c
000003d0: c315 293d 4b27 fdb9 53a7 31bd 1257 7bbd
000003e0: c32a aebb 25f5 6bbd dcf1 5a3c 1a87 413b
000003f0: 1381 35bc cce8 9936 8777 0cbd 064d c03c
-0.005613637 -0.045548633 -0.02721404 -0.016421013 -0.055818085 -0.03850309 0.038199347 0.06511502
-0.0526175 -0.036489286 0.077324934 -0.0018099621 -0.037715983 -0.045056846 -0.028613051 -0.061000377
-0.028792383 -0.0106650265 0.032938022 -0.039142396 0.0138449725 -0.010422898 0.010135441 0.0048694164
-0.048796456 -0.07808431 0.06281036 -0.023074666 -0.06192598 -0.06473405 -0.0053286655 -0.05638059
-0.038509376 0.0047810827 -0.043587286 -0.058729056 -0.0032610162 0.07541726 -0.045290403 -0.064796
-0.06333224 0.035437115 -0.06419758 -0.056498263 -0.029751264 0.02507118 0.04062403 0.099763654
-0.043586664 0.019494537 -0.03688248 -0.008855735 -0.0076126847 -0.03549619 -0.004789643 -0.020926306
-0.07650345 -0.01235149 -0.027918104 -0.011351272 -0.016168915 -0.07363625 -0.0017837896 0.034935743
0.02628946 -0.02829105 -0.037803292 -0.06730301 -0.0492876 0.025702877 -0.034558307 -0.021860447
-0.004169819 -0.022527983 -0.07690435 -0.028055336 -0.0825087 -0.044744253 -0.04763922 -0.0022322615
-0.014224722 0.012644396 -0.017233353 0.0005318379 0.09925642 0.084567465 -0.019072736 -0.001924036
-0.01396342 -0.051999018 -0.04504476 -0.010552225 -0.003231198 -0.03915225 0.025143296 -0.07272547
0.015580711 -0.06469479 0.00509601 0.100590795 0.043032587 0.015696565 0.009420582 0.010518352
-0.0066591925 0.021981757 -0.050602242 -0.07197044 -0.04735738 -0.027323067 -0.0002596008 -0.05726086
-0.026634887 0.020207126 -0.036062032 -0.0011049797 -0.058134552 0.007386921 0.011705511 -0.030142227
-0.055562828 -0.019259214 0.042860687 0.007390194 -0.065921284 -0.04209052 -0.034860305 -0.03929347
0.016676279 -0.04308901 0.0013906641 -0.040940974 -0.005794381 -0.051155142 0.031831574 -0.0060181483
0.02476489 -0.04187036 0.04868955 -0.07027747 -0.048527453 0.031886704 -0.034759153 0.017453127
-0.034067437 0.011713807 -0.017952222 -0.0008447589 -0.04805744 0.020516578 -0.008487002 0.007059062
0.016821831 0.024167484 0.015123122 0.03584588 -0.038229894 0.028757093 0.02053605 0.092502646
-0.06515354 0.0027865889 0.034302223 -0.052678157 -0.05748589 -0.03451832 -0.06811192 0.023526516
-0.020498471 0.012531974 0.016549883 -0.06510769 -0.0035309116 -0.007873882 -0.019051526 -0.025153121
-0.005372644 -0.017587902 -0.011502169 0.009810815 0.0030926503 0.028997809 -0.016559094 0.0039340886
-0.026269512 -0.050618056 0.010914903 0.094922155 -0.038850706 -0.0641978 0.0015588532 -0.052677665
0.00035959834 -0.0019578657 0.012609772 0.008428658 -0.020822708 -0.061607316 0.013888093 0.026397754
-0.011405917 -0.061075237 -0.064957246 -0.019930031 0.00014469922 0.02322606 0.0670988 -0.023465684
-0.014751207 0.023546895 0.011871286 -0.045251872 -0.0056411354 -0.051067255 0.014217727 -0.04608211
0.01362384 0.039417647 -0.06686481 -0.057887327 0.013654078 0.020239476 -0.059243906 -0.024843646
-0.05695517 -0.023561403 0.00085124286 0.00417117 0.025906531 -0.030623982 -0.056744866 -0.068005346
0.019747073 -0.044615977 0.0034282426 -0.014158306 -0.0055880803 -0.05605994 -0.011206394 0.011439386
-0.043729905 -0.0005019917 0.089022495 0.017788596 0.04128052 -0.00048285196 -0.043372463 -0.061362334
-0.005315156 -0.057606835 0.013363328 0.002952999 -0.011078137 4.5868564e-06 -0.034293678 0.023474228

bn1.running_mean f4 [256]
00000000: fd34 383e 2dc5 4bbd f0a0 83be 9f93 07be
00000010: 0ab4 7c3d 479f a43d a1f1 5dbe b959 8bbb
00000020: a86b 00bf 192e 4ebe 54ab b5bc 849b 0c3d
00000030: c71c 05be 58c3 00bf 8a31 c83d 4a4b 23be
00000040: f42c 573e e316 4b3e 1718 b3be ff49 b33c
00000050: 3298 8a3d 2c83 b5bc 4c5f bc3e cc88 563d
00000060: 2002 c43d 761b ecbd db31 0fbe c2da 3abe
00000070: 9057 bcbc bb81 c03d 6c0d d03e e743 433e
00000080: 268e 3b3e 668b 263c b226 c63e 9c71 0abe
00000090: 59b6 0ebe 952a 19bc 469b 5fbe 7c69 20be
000000a0: e06b c63e 46dd c53e c380 863e b536 543e
000000b0: 6261 a13e 44a9 1f3d 2e97 93bc d37e 013b
000000c0: 2f13 09be 379b b53c cb08 253e 2f95 453d
000000d0: d536 0c3e 1e92 053e 0a7a 48be d325 6f3e
000000e0: cd88 933d 27bc 883d d425 a33e b09a 023e
000000f0: a683 95bc 1f7e 3b3e 9ff5 5ebe 4e16 783e
00000100: 5214 aa3e ae26 40be f4bb cfbd 2e4b 3cbd
00000110: 64c6 a6bd 0ab2 c3bd 3ed6 26be 622e 25bc
00000120: 1983 07be df72 7ebd 446c 5abd d9a6 353e
00000130: 3ad4 1b3e 8c78 38bd e8a8 aa3d bff6 d93b
00000140: 6592 65be 44ef dc3d f451 ab3c 4229 ddbb
00000150: 636d 9abe dff6 703e a14c ed3d 6d2f ac3e
00000160: 9c83 b5be 730f b33e 7c54 893d fbfb 4dbc
00000170: 7d1e ab3c ae98 82bd 17da 9abd e2cc 053e
00000180: 1ff6 7f3e 42a5 4bbe 951b 6f3e f0e8 4bbe
00000190: 8edb 67be 11e1 a93d 2456 adbd 7d6a d63e
000001a0: 8364 2ebe c1f1 cebd ba78 d3be a742 a63d
000001b0: a23d b03e cbdd ebbd dd08 b03e 40a1 29be
000001c0: 9144 523d 296b 103e 4cca c73e 7a89 153e
000001d0: eb38 5abe a74b 45bb e78f ccbb dc4d c1bd
000001e0: 1075 693e e749 84be bc2e 4dbd aa5d 47be
000001f0: 489e 2a3e 3d7a 0bbd 908b 0a3e 515d 7f3e
00000200: 7680 b13e f0a7 1bbd 3074 8b3e a231 aebe
00000210: 1ee8 08be cf85 96be 94a6 643e f386 013d
00000220: a5ff 8a3d 99cd 4dbe 13cd f0bb 6840 6b3e
00000230: ab64 e2bd d7ea 68bd 4987 7d3e de96 663c
00000240: 7eb2 25be 48de c9bd 76a2 e4be 142e 493b
00000250: 5da6 7e3d 3031 b6bc 970e 593e e033 6a3b
00000260: 1d9c b43e a15e 033f b308 ca3d e416 e1be
00000270: 4912 09be 112d 60bd a206 d33d ec8d 8fbe
00000280: a109 b13d e042 49be f7df 12be d77d 26be
00000290: 9893 763e ae35 073e f1bd 243e bb15 94be
000002a0: 9ea6 77be 749b f6bd 0258 e33d 7060 933e
000002b0: 50eb 6e3d 4b84 2dbe 165e 343d 2a30 de3d
000002c0: 6fbf 2c3e 009b 2bbe 2539 4f3e 4bba 99be
000002d0: 63e9 163e 2eac ddb9 e366 8a3d d8b1 17be
000002e0: b780 92be 9d6e bd3d 02ed 0b3e d181 99bd
000002f0: 60e1 37bc c6da ccbe 4b6a 593e 4f8d 2b3e
00000300: 9dfa 38be 9033 c13d d3af 23be f091 b8be
00000310: 4c35 3dbe 7e2d be3d d375 b0be 52fb 5b3c
00000320: f54d 65bd b0b5 363d 5073 43be eec8 82bc
00000330: a54e b83e c1bf 083e 84b4 3b3c 2afc c03d
00000340: e287 d3be db3f 70be a11d 42be 213f 903e
00000350: d13b c83c 0d2c 12be 6a3a 983e 4721 323e
00000360: f336 52be 576c a5bb 2352 393d f18a 1abd
00000370: 012c bbbe 0f03 1e3e 0515 1fbe ada3 90bd
00000380: e8ca 07be bd46 83be 5cc0 d83d a131 79bd
00000390: 48e8 093e f4d9 dbbd 9b09 2fbd 49e5 203e
000003a0: d75c 13bc d366 663e fc24 2e3d a23f d2be
000003b0: 84c5 67be db81 5c3e d228 333e 9461 883e
000003c0: 1896 abbd 76f2 6d3d 17b4 0f3e 12d5 79be
000003d0: e047 a7bd 217c 66bd ee9e bb3d ba3b ed3e
000003e0: 20ba 553e 2d3b 75be f3df c13a ae8f 493e
000003f0: 3822 02be 8655 1bbe 0997 a13e dd4d 6d3c
0.17988963 -0.04974859 -0.25708723 -0.13239907 0.061695136 0.08038192 -0.21674205 -0.004252639
-0.5016427 -0.20134772 -0.022176422 0.034328 -0.12999259 -0.5029807 0.09775074 -0.15946689
0.21013242 0.1983295 -0.34979317 0.02188587 0.0676731 -0.022157274 0.36791456 0.052376553
0.09570718 -0.11528675 -0.13983862 -0.18247512 -0.022990972 0.09399744 0.4063524 0.19068871
0.18315944 0.010165071 0.38701397 -0.13519901 -0.13936748 -0.009348531 -0.21836576 -0.15665239
0.38754177 0.3864538 0.26270112 0.20723994 0.3151961 0.038979784 -0.018016424 0.001975943
-0.13386224 0.022168739 0.16116636 0.048237976 0.13692792 0.1304402 -0.19577804 0.23354273
0.07203827 0.06676512 0.31864798 0.12754321 -0.018251251 0.1830983 -0.21773385 0.24227259
0.33218628 -0.18764755 -0.10143271 -0.045970134 -0.08143309 -0.09555443 -0.16292664 -0.010081859
-0.13233604 -0.06212127 -0.053325906 0.17739429 0.15217677 -0.045036837 0.083329976 0.006651729
-0.22419126 0.10787824 0.020913102 -0.006749303 -0.3016158 0.23531674 0.115868814 0.33629933
-0.35451972 0.34972724 0.06705567 -0.012572284 0.020888561 -0.063767776 -0.075611286 0.13066438
0.24996231 -0.1988726 0.23350365 -0.19913077 -0.22642347 0.08294881 -0.08463696 0.4187812
-0.1703053 -0.10104705 -0.41303045 0.08118182 0.34422022 -0.11516913 0.34381762 -0.16565418
0.05133492 0.14103378 0.39021528 0.14603224 -0.21310775 -0.0030104907 -0.0062427404 -0.094386786
0.22798562 -0.25837633 -0.050093397 -0.19469324 0.16661942 -0.034052122 0.13529801 0.24937941
0.3466832 -0.038001955 0.27237082 -0.34022242 -0.13369796 -0.29398963 0.2232917 0.03162284
0.067870416 -0.2009796 -0.0073486655 0.22973788 -0.11054357 -0.056864586 0.24758638 0.0140740555
-0.1618137 -0.0985685 -0.44655198 0.003069763 0.062170375 -0.022240251 0.21196972 0.0035736486
0.35275355 0.5131627 0.098649405 -0.43962777 -0.13385881 -0.05473048 0.103039995 -0.28037965
0.08644415 -0.19654417 -0.14343248 -0.16258942 0.2407974 0.13204071 0.16088082 -0.2892283
-0.24184653 -0.12041369 0.111007705 0.28784513 0.05832988 -0.16944997 0.04403504 0.1084903
0.16869901 -0.16758347 0.20236643 -0.30024943 0.14737467 -0.0004228069 0.06757905 -0.14813936
-0.28613827 0.092496134 0.1366463 -0.07495464 -0.011223167 -0.4001066 0.21231954 0.16753124
-0.18064351 0.09433663 -0.1598504 -0.3604884 -0.18477362 0.09286021 -0.34464893 0.013426619
-0.05598255 0.044606864 -0.19086957 -0.015964951 0.359975 0.13354398 0.0114566125 0.094230965
-0.41314608 -0.23461859 -0.18956615 0.28173164 0.024442585 -0.14274617 0.29732066 0.17395507
-0.20528774 -0.0050483155 0.045244347 -0.03773016 -0.3655701 0.15430854 -0.15535362 -0.07062469
-0.13260996 -0.25639907 0.10583565 -0.060838345 0.13467515 -0.10734931 -0.04273377 0.15712465
-0.008994303 0.22500162 0.04251574 -0.41064173 -0.2263394 0.21533911 0.1749604 0.26636946
-0.083782375 0.058092557 0.14033543 -0.24397686 -0.08168006 -0.056270722 0.09161173 0.4633463
0.20871782 -0.23948355 0.0014791474 0.19683716 -0.12708366 -0.15169343 0.31560543 0.014483896

bn1.running_var f4 [256]
00000000: 9e00 9b3c 0c28 c13a 0cc8 a139 813f 283c
00000010: ad1b e03a 3a3a 603c 0038 213c 42d2 6d39
00000020: 1e82 003d f1c6 9539 3b9f dc39 e905 593a
00000030: d589 063c de6f ba3c 6add 153c 267a 553c
00000040: 3d64 e33c 1f28 513b 666e 383c 159a 263c
00000050: 7600 133b 429a 9d39 5ea4 6d3c 8047 053b
00000060: c5a5 c33b 66ea e13b ccee 453c 6d75 643c
00000070: d0d3 d03a e122 9f3b 1fa3 7b3c 8361 c93b
00000080: b871 763c 5f8c 8038 aeac cc3c 817a 7e3c
00000090: 76ed ce3c 8f85 253a 8b96 c23c 7f18 723c
000000a0: 26af e23c 3a9f bb3c cc27 103d 51b4 fb3c
000000b0: 229a e13b 946e 8a3c 6143 2e3a 8af3 be39
000000c0: e56d 1e3c 5716 8739 a2b2 643c 4e2a 8c3c
000000d0: 681c 133c 5e91 7339 8251 d83b a05b e23c
000000e0: 10ae 143b b8f7 bc3c 6b34 913b 611a 403c
000000f0: 18e0 a539 b9c9 903c 4525 de3a 92af 183a
00000100: 7a83 d73c e36d 973c fbdd 9b3b 9f52 923b
00000110: 2069 3d3b 67af d33b 1145 4f3c d06b 9c38
00000120: 8255 253c 224f 253b ef45 8f3a 6e50 8d3c
00000130: ce0f 343c a36f 0f3a 6541 8b3b 524c 333b
00000140: dcdb f73c 3899 4e3c 82aa b03b 9af6 5739
00000150: e3dd b039 c2f1 8e38 b67c fc3b d90a f43b
00000160: f259 233c 8e27 5f3c e272 e33a 3fed e53b
00000170: 034b 2d39 6702 743c 4c7c 543b 1d1b 0f3c
00000180: ec59 223d 974a e13b fcda 0e3d efe1 b739
00000190: 6928 a13c 1148 8d3b 23c6 9c3b a6a0 b03c
000001a0: e7e5 763c 10ae 813c 57e6 333c 8cbc ab3b
000001b0: c10c bf3c 1865 263c 8533 8d3c 3809 a13b
000001c0: de0a 883a 96b1 1f3b 1181 563c b73b 733c
000001d0: ee02 513a 3ba0 2e39 3676 8f39 06f0 013b
000001e0: 939c 003d 7492 0e3d 0c36 ac3a c5f2 6839
000001f0: f1a0 663c 7b0d e138 f585 533c 9108 0e3c
00000200: d798 5f3c 5235 e13b 3cc7 b03c 3342 3e3b
00000210: 79e1 093c b269 063c afee eb3c 0065 e23a
00000220: cb93 da3c 0d63 4b3c 7fae bc39 dc70 e33c
00000230: 0ff7 513a 28cd 373b cb78 003d 4a10 4e3c
00000240: 89a7 ce3a 0aa5 b33b 54aa 783c 7cb5 1239
00000250: 8986 b93a e483 e037 f265 6a37 fa0c 753c
00000260: 66d9 b83a 9b65 9f3c d092 b93c f84b a73c
00000270: eb9a 503c 53ff 473b 73e7 3c3c 9778 0a39
00000280: 2ca1 323c 12a2 c13c dbd6 583c 65fe 623c
00000290: 0dbf 3b3c 3bb1 3e3c 1f21 e33c cbb9 ea3c
000002a0: fb87 123d ca90 293c 7578 ea3b fee6 cf3c
000002b0: d933 103d 3ff6 8c3c cc48 9439 36d5 dc3b
000002c0: 4f50 a73c 5682 773c 8162 d33c 8525 e13b
000002d0: 9013 4f3c 56fd 793b 3f57 2e3c f2ba 503c
000002e0: 578c 2c3d e170 fe3c 333b 3f3c 63ab a638
000002f0: 7d29 aa3c 967c f73c c7fd bd3c 9100 8a3c
00000300: 7cc0 eb3c 66ff a73c 8d37 4b3c d517 a73c
00000310: 0e8e 923c c8a7 cd3c 3fb5 7a3c f8d9 e739
00000320: 6098 7239 de15 fd3c c0e0 9b3c 3834 7c3a
00000330: 5829 b33b 08b0 5a3c 7288 6b39 fc84 613b
00000340: bac6 463c a64f 4d3c 1b24 7f3b 94a9 783c
00000350: 5c6e 9839 eb3c 353c 5820 563c 8636 913c
00000360: 598e c639 745d 273c 0d06 113c 7554 4d3a
00000370: af43 0e3c 2b85 753c 8273 503c 94f7 3a3b
00000380: 6a27 1c3c 943e 2d3c ac6b a53b 6f30 0f3c
00000390: 8a7d 6a3c 73a1 8b3c 3e49 303a 70e6 b93a
000003a0: 29bd 5c3a 5ad7 cd3c 7bc1 8a3a a63f 253c
000003b0: 0c37 293c 55f5 883b e55e 973c 3ac3 103a
000003c0: bdc6 3b3c 012d 3f3b 251c 7238 3f71 e039
000003d0: 704d e63b 70a3 3e3b 2944 9f3b 72b1 783c
000003e0: 543f a03c 1a9a 3b3a ae7f a838 93f9 b63c
000003f0: 47f6 bd3b 7400 113c c8d9 783b 1cf2 ce3b
0.018921193 0.0014736666 0.0003085736 0.010269047 0.0017098092 0.013685757 0.009840012 0.00022680408
0.03137409 0.00028567718 0.00042080306 0.0008278774 0.008211573 0.02275842 0.0091470275 0.013029611
0.027757758 0.0031914783 0.01125679 0.010168572 0.0022430695 0.00030060305 0.01450452 0.0020336807
0.005970689 0.0068943975 0.012080859 0.013944012 0.0015932266 0.004856453 0.015358715 0.0061456575
0.015041761 6.129662e-05 0.024984684 0.015532137 0.025259715 0.0006314152 0.023753425 0.014776348
0.027671408 0.022903074 0.035194203 0.03072563 0.006884829 0.01689843 0.00066476135 0.00036421075
0.009669756 0.0002576585 0.013958605 0.017110016 0.008978941 0.0002322844 0.0066015134 0.02763158
0.0022686757 0.02306734 0.0044312975 0.011725039 0.00031638215 0.017674314 0.0016948363 0.0005824502
0.02630781 0.018485015 0.0047566867 0.0044654156 0.002890177 0.0064601186 0.012650744 7.458741e-05
0.010091187 0.0025224169 0.0010930876 0.017250266 0.010990096 0.0005471652 0.004249739 0.0027358723
0.030256204 0.012609772 0.00539142 0.00020595864 0.00033734654 6.8161185e-05 0.0077052964 0.007447582
0.009970175 0.01362027 0.0017352963 0.0070168073 0.0001652651 0.014893151 0.003242272 0.008734492
0.039636537 0.006875347 0.03487681 0.00035072814 0.01967259 0.0043115695 0.004784362 0.021560978
0.015069461 0.01583007 0.01098021 0.0052409824 0.023321511 0.010155939 0.01723648 0.004914429
0.0010379215 0.0024367324 0.013092295 0.01484578 0.0007973154 0.00016653624 0.0002736316 0.0019826903
0.03139932 0.034807637 0.0013138666 0.00022215683 0.014076457 0.00010731347 0.012910356 0.008669035
0.01364728 0.0068728114 0.021579377 0.0029031157 0.008415573 0.008203911 0.028800337 0.0017272532
0.026681801 0.012413752 0.00035988164 0.027763776 0.0008009532 0.0028045867 0.031365197 0.012577126
0.0015766482 0.0054823207 0.015177328 0.00013991253 0.0014154474 2.6764297e-05 1.3971223e-05 0.014956707
0.0014102876 0.019457629 0.022653013 0.020421967 0.012732248 0.0030517175 0.011529791 0.00013205629
0.010902684 0.023636851 0.013234819 0.013854598 0.011459124 0.011638935 0.027725754 0.028653046
0.035774212 0.010349462 0.007155473 0.0253787 0.035205696 0.017207263 0.00028282998 0.006739284
0.020424036 0.015106758 0.025803806 0.0068709278 0.012638941 0.0038145385 0.010640918 0.012739884
0.042126026 0.031059684 0.011671829 7.94742e-05 0.020771736 0.030210774 0.0231923 0.016845973
0.028778307 0.020507526 0.012403381 0.020397106 0.017890003 0.025104418 0.0153020015 0.00044222153
0.00023135683 0.030894216 0.019028068 0.00096208183 0.005467575 0.013347633 0.00022462176 0.003441154
0.012132341 0.012531197 0.0038931433 0.015177149 0.00029073923 0.011061887 0.013069235 0.017726194
0.0003787156 0.010215152 0.00885154 0.00078327145 0.008683129 0.014985363 0.012722852 0.0028528916
0.009530881 0.010574002 0.005048236 0.008739575 0.014312157 0.017044758 0.0006724781 0.0014183056
0.0008420521 0.025127102 0.0010586226 0.010085976 0.010328066 0.0041796365 0.018477866 0.0005522255
0.011460957 0.0029171112 5.7723508e-05 0.00042808984 0.0070282742 0.0029089116 0.0048604202 0.015179025
0.019561447 0.0007156447 8.0346465e-05 0.022335803 0.005797181 0.008850206 0.0037971605 0.006315483

fc2.weight f4 [256, 256]
00000000: 8612 473d 6677 73bd 7fbe 0a3c 3e44 5dbd
00000010: cbcc 143d 2871 78bc 80df b33c ba6b 25bd
00000020: a5f8 963c c313 783d eba6 2bbd b6bf a4bc
00000030: 0a42 98bc 3ed4 1b3d 8657 a8bc 5003 5ebd
00000040: 62a3 193d a224 123d 4d74 8cbc ac6c 363c
00000050: 08c5 0bbd ac8b aebc 7ee3 f2bc 06ef 0d3c
00000060: d921 5b3d bf6b 08bd f97a c7bc 7e58 14bc
00000070: 1661 353d 07e5 1ebc 9174 053d f536 bd3c
00000080: 0c46 2e3d c009 b7bc dc66 94bc 3023 fabc
00000090: a5cc f5bc 396d 6ebd ebab 4d3d 0424 ac3b
000000a0: a149 1bbd bd76 543b c535 9f3c 21d5 263d
000000b0: 8175 133d 99a4 0e3d d461 13bd 9371 36bd
000000c0: 10ef 39bd 06bf 6ebc 8afc 4fbd 4785 82bc
000000d0: d16f 0dbd 7ccc ce3c fbb5 cebc c95b efbc
000000e0: 668e 423d 67a7 643c c966 30bc dd7d 7b3d
000000f0: 600a ac3c 2a17 3ebd 9bb5 183d d97f 883c
00000100: 41a3 253d 609a 3ebd 6de6 7bbc d170 57bd
00000110: 4e45 0cbd 3969 95bc 8675 87bc 8e1b fcbc
00000120: bd90 c53c 1936 09bd aee6 3abd 4150 f03c
00000130: 650b 973b 2e73 453b d90b 25bd b65f 85bd
00000140: 03c4 253c 4377 20bd f2b7 90bc a0ba 9bbb
00000150: d710 383d 9890 27bc c96b ca3b bbdb dc3c
00000160: 8c52 23bd 5118 38bd cb30 49bc 200b 67bd
00000170: 6263 2abd aba2 dfbc a723 e1bb 2167 473c
00000180: 59e4 dcbc 621f e9ba 2cce 303c 0b4f fbba
00000190: 9925 2fbd aa9d 2eb8 c5a3 ccbc 201a 5d3d
000001a0: 24b7 8b3c fd89 53bc 673e 6fbc a53a e8bc
000001b0: fa45 d43c 97bf 2ebd 3dbd da3c 2ef0 29bd
000001c0: cb61 193d 16f3 04bc 0f14 533d ca75 883d
000001d0: 3256 40bd 2b87 953d a571 a43d 76df 4a3d
000001e0: 15bb a8bb 905f 5fbd ac62 013d 0a82 a8bc
000001f0: b0b6 11bd fe01 3dbd 11ef 983b 2804 c83a
00000200: 2eb2 35bd 5b9d 38bd 3c78 26bd 5246 1f3c
00000210: b8f9 7abd 2154 14bc d3de 053c f4cc 6f3d
00000220: 20e3 51bc e459 1bbd 145a 323d 7a85 a5bc
00000230: 86cb 6ebb 649a 97bc 27e5 3ebd b3d2 37bd
00000240: 24a5 28bd 0e74 c3bc aed2 07bd abd2 823d
00000250: f63b 1abb 777a 993d dcc9 10bd 5b1e 90bc
00000260: b03b fdbb 1066 8c3c d9cc 3cbc 27d6 863c
00000270: 448e 9f3a 6462 e6bc 3e43 173d 3a7c 5c3d
00000280: f5e7 66bd 2975 d6bb a81e a4bc afad b1bc
00000290: 0700 96bc e914 45bc ec23 223d f695 e5bc
000002a0: aae5 153d 7719 43bc 397d 6d3d 04c7 0d3d
000002b0: b812 35bd b3f6 e73b 3f2f dcbb 6968 c9b8
000002c0: 54a4 203d d3df 033c 0095 913c 9d88 6f3c
000002d0: a368 483d d3cc edbc d27f 8d3c 0b79 69bd
000002e0: fa7c 903a 312a 133d 305b c1bc ea4b 5e3d
000002f0: 38a9 7bbd f042 1d3b 5939 73bd 2bab 3c3d
00000300: a9ba acbc db8e 4cbb c096 51bc 7dac dd3c
00000310: 469a 2a3d f372 0fbd 43e5 82bd e0cc 593d
00000320: 33bc 29bc 7389 63bd 72ce 983c f31a e7b8
00000330: 62f7 1d3d 7e7d 11bd 89b7 ffbc 3fce e13c
00000340: ceef 243d bf48 79bd 3876 053d b9fc 4a3b
00000350: 4ffd ee3b 7de3 de3a 1865 053c b9aa abbb
00000360: 4f6c d83c f4b2 2abc c29d 07bc d0a7 44bd
00000370: 9538 28bd f8da 013d de16 313d 68bb 0ebd
00000380: 8783 52bd 8c34 b43c ac2e 183d c1cb 2b3c
00000390: 70ba 0a3d 3ca8 843b 31ec 0cbd cc53 8d3b
000003a0: b52e 0b3d e67a 4abd e033 223c 4851 1bbd
000003b0: cb16 08bc caae c83b d00a 62bb 0e33 2cbd
000003c0: 9bc6 8bbc 7c96 c6bc bf53 f53b d1a2 e9bc
000003d0: 1949 383c eda2 e73c 711d 933b 7fbe 01bd
000003e0: 6691 41bc f1db 20bb 3f34 823d f357 503d
000003f0: ae81 22bc 7176 8bbc b619 b0bc ad10 dcbb
0.04860165 -0.05944004 0.008468269 -0.05402016 0.03632812 -0.015163697 0.021957159 -0.04038594
0.01842911 0.06056572 -0.041907232 -0.020110946 -0.018586177 0.038044207 -0.020549547 -0.054202378
0.03750933 0.035679467 -0.0171453 0.011134308 -0.03412345 -0.021306835 -0.029649492 0.008662945
0.053499077 -0.03330588 -0.02435063 -0.009054301 0.04428204 -0.009698159 0.03258187 0.023097495
0.04254727 -0.022343516 -0.018115453 -0.030534357 -0.030004809 -0.05820963 0.050212782 0.005253317
-0.037912015 0.0032419406 0.019434819 0.0407306 0.036000732 0.03482494 -0.035981968 -0.044541907
-0.045394003 -0.014571911 -0.05077795 -0.015932692 -0.034530465 0.02524399 -0.02523326 -0.029218571
0.047499083 0.013955927 -0.010766693 0.06139933 0.021001041 -0.04640881 0.037282567 0.016662525
0.040438894 -0.046533942 -0.015374762 -0.052597824 -0.03424578 -0.01823865 -0.016535532 -0.030774858
0.024116868 -0.033498857 -0.04563015 0.029335143 0.0046095126 0.0030128467 -0.040294502 -0.06512396
0.010117534 -0.039176237 -0.017665837 -0.004752472 0.044937935 -0.010227345 0.0061774 0.026960244
-0.039873645 -0.044945065 -0.0122797 -0.056407094 -0.041598685 -0.027299246 -0.006870705 0.012170584
-0.026964353 -0.0017785842 0.010791343 -0.0019173337 -0.042760465 -4.163167e-05 -0.024980435 0.053979993
0.017055102 -0.012911317 -0.01460228 -0.028348276 0.025912274 -0.042663183 0.026701564 -0.04148882
0.03744678 -0.008114597 0.0515328 0.066630915 -0.046957202 0.07301172 0.080294885 0.049529515
-0.005149255 -0.054534495 0.03158824 -0.02056982 -0.035574615 -0.046144478 0.004667171 0.0015260028
-0.04435938 -0.04507194 -0.04064201 0.0097213555 -0.061273307 -0.009053261 0.008170801 0.058545068
-0.0128104985 -0.037927523 0.043542936 -0.020205248 -0.0036437227 -0.018506236 -0.046605255 -0.044878673
-0.041173115 -0.02385905 -0.033159904 0.06387838 -0.0023534275 0.074940614 -0.035348758 -0.0175926
-0.0077280626 0.017138511 -0.011523449 0.016459538 0.0012173136 -0.028123088 0.03692936 0.05382941
-0.056373555 -0.0065447283 -0.02003415 -0.021689264 -0.01831056 -0.012028911 0.03958504 -0.028025609
0.036595978 -0.011907927 0.05798075 0.034613624 -0.044207305 0.0070789694 -0.0067194994 -9.603875e-05
0.039219216 0.008048969 0.017771244 0.0146199735 0.048927914 -0.029028332 0.017272864 -0.0570002
0.0011023574 0.03592891 -0.023603052 0.054271616 -0.061440676 0.0023996197 -0.059380863 0.046061676
-0.0210851 -0.0031213078 -0.012792289 0.027059788 0.041651033 -0.035021733 -0.063913845 0.0531739
-0.010359812 -0.055551004 0.018653128 -0.00011019958 0.038566 -0.03552007 -0.031215446 0.027564166
0.040267758 -0.06086039 0.032583445 0.0030973388 0.0072933803 0.0017005053 0.008141778 -0.0052388576
0.026418833 -0.010418642 -0.0082773585 -0.0480116 -0.041069586 0.031702965 0.0432347 -0.034846693
-0.051394965 0.021997713 0.037153885 0.01048559 0.033869207 0.0040483754 -0.034404937 0.004312968
0.03398009 -0.04943361 0.009900063 -0.037919313 -0.0083062155 0.006124352 -0.0034491308 -0.042040877
-0.017062476 -0.024241678 0.00748679 -0.02852002 0.011247897 0.028275931 0.0044895937 -0.03167581
-0.011814451 -0.0024545158 0.063576214 0.050865125 -0.009918613 -0.01702425 -0.021496635 -0.006715855
