data/mountain_car_policy_2.pt (torch, 5232 bytes, 4 tensors)

fc1.weight f4 [128, 2]
00000000: 8e1f 1e3f 1188 8bbf bcfe 4f3f 65d4 5e3f
00000010: 3b7b 8a3d e2ba ca40 21f3 0e40 4ee7 afc0
00000020: 84bf 523e ff3a d33e 61f0 963e f466 2d3f
00000030: 791d 583f c42b d53f 7b10 0e3f c3cc 36bf
00000040: 8704 aa3d 02db 233f ebc0 7e3e 18b0 cb3e
00000050: 277b a23e 3f70 a13d e0d7 cdbe 9290 b4bf
00000060: 3bf2 7e3b 34fb 46bf 5bd5 85be 71a6 293f
00000070: 3ad1 053f a8ba da3f 99d7 1d3f 0595 373f
00000080: 215e b73f dca4 5b3f dbef f9be 9e34 1f41
00000090: e5ba 9c3e 5791 16bf a585 bf3e dd02 e13d
000000a0: 4d23 3f3e d7b5 9f3e e171 973e d934 c33e
000000b0: bd92 d7bd 6218 84bf 39ab 923f 5fd8 a3be
000000c0: 34a1 0ebe 4f77 34bf 1703 4bbe 0a5a 1d3f
000000d0: a63e 0abe 0a92 05bf b912 e13e 3861 b93e
000000e0: ed5c 8c3d fac9 ed40 6fe5 a83f e1b5 9340
000000f0: e4d0 40be 3eb3 c13e e955 8e3f 1444 0c40
00000100: 4d2c 7fbf 1b42 e6c0 03e5 183f 8e57 c43e
00000110: f9c6 cd3d 7911 91be 5f79 093f de82 963f
00000120: 47f7 8bbe 1e93 14bf ad62 3b3f e0dc 0140
00000130: e9cd d9be fcce f740 3e2f 7bbe fb2b 1a41
00000140: 4dee 01bf 15af 2a41 f386 b0be 2268 333e
00000150: d770 8cbe a2d4 3dbf db0a babd b240 35bf
00000160: b985 9fbe dea2 fc40 a13d 13be c5ea 1041
00000170: d3b1 873e 2506 573f a9f6 133f 08cc 3cbe
00000180: dde8 4040 414d 0fc1 012d 04bd 41c0 0dbf
00000190: 4b4c d4be c193 a8be 98d5 e13d 3dd2 95be
000001a0: 42fe 40be cf70 033f d1c7 5d3d 9b65 1641
000001b0: eaec 333e f4f1 b73c bc80 1e3e f51d 9b3f
000001c0: 06f6 0abf 562c a9be d1c3 0e3f 439e a9be
000001d0: 68e3 353f 4da5 ecbe 677f 123f ec7a b0be
000001e0: 800b 3a3e ccd9 623f 88b1 303f 64ae 893e
000001f0: 2785 343f ceec 143f 3e71 213d b69d f3be
00000200: 610a ae3d b012 ce3f fa5d 70be f313 1641
00000210: 986e f33e 679f 703f a84d be3e 329e e13f
00000220: f808 5b40 81cc 97bf 2ae7 223f c6cd c7be
00000230: f10e acbe efde 273f 6d00 0d3f ed3d 0cbf
00000240: 0928 dd40 0c01 68be 9eaf 1e3e b892 4f3e
00000250: 5710 12be 9fad 72bf 4f1f 3ebd 7db2 afbe
00000260: 6167 7a3f de80 2fbe d5f8 573f 2be7 923f
00000270: 115c aa3e 8e83 a83f 0f9f 613e 0736 1c41
00000280: c48c 2f3f 852e 873d d236 073f b2c8 333f
00000290: bb4e 0fbd 1c6d cbbe c4c9 3e3e 7856 5c3f
000002a0: 97b0 143f fab2 b33f 8c55 ee3e 8095 7f3f
000002b0: a091 853e 3837 a2bf 7c01 033f 233b 983f
000002c0: 0114 6740 b7a4 173f 5c03 ac3f 6ae4 2940
000002d0: 6c58 b83e 9e24 813e ddb3 373e 4814 953f
000002e0: 878c ff3e 75e1 f1be 5ae3 b33f 135c c3be
000002f0: 2cf2 afbc 3b43 dd3e 43a0 723e 61c2 683f
00000300: 37e9 ff3f 1844 fa3f f653 c93e a1d4 e63f
00000310: f0e4 91bd 9793 1fbe 740a 413d 0cd4 3d3e
00000320: dbc5 e8be ce20 1341 79f0 f3bd ce71 26bf
00000330: 6478 96bd def6 dcbf 84ca 273f 370a 02bf
00000340: ff78 823e 4c62 313f 9020 1cbf 595d 08bf
00000350: 393b 6f3f 79a0 29be 0b4a 08be 8f3c dcbf
00000360: b789 d93e 20cf 893f 530a 383f 55bd 0940
00000370: f407 c4be 5c01 9e3e 4ef1 5b3d 32ed a2bd
00000380: 5af7 3e3f baaf d73f 8625 99be 0e05 903e
00000390: 64e9 a0bc e4ac e7be ae95 c03e 9e6f 6d3f
000003a0: 1032 3e3e 968b 0a41 1033 a8be decd 0841
000003b0: 19aa 8ebe 89c9 1abf b81f 2f3f f674 de3d
000003c0: c093 eb3e 6783 643f adde e5be 29a8 22c0
000003d0: cd2f 0e3f 7de8 a0bf 6643 9f3f a6ca a23f
000003e0: a304 10bd db52 1abf 42a0 ccbf d451 ecc0
000003f0: 0b9a c73d a80b 3ebf 6883 a93e 3eb6 993f
0.617669 -1.0900899 0.8124807 0.8704284 0.067617856 6.335313 2.2335894 -5.4969854
0.2058087 0.41255948 0.2948027 0.6773522 0.8441997 1.6653981 0.554939 -0.7140619
0.08301645 0.64006054 0.2487828 0.39782786 0.31734583 0.07882737 -0.40203762 -1.4106619
0.0038901705 -0.77727056 -0.2613934 0.66269594 0.5227238 1.7088213 0.616571 0.7171176
1.4325601 0.8579843 -0.48815808 9.950346 0.3061134 -0.5881552 0.3740665 0.10986874
0.1866581 0.3119342 0.2957907 0.38126257 -0.10526035 -1.0319941 1.1458503 -0.32001016
-0.13928682 -0.7049455 -0.19825397 0.61465514 -0.13500461 -0.5217596 0.43959597 0.36206985
0.06853662 7.4309053 1.3195018 4.615952 -0.18829685 0.37832063 1.1119968 2.1916552
-0.9967697 -7.1955695 0.59724444 0.3834805 0.10047717 -0.28333643 0.5370082 1.1758687
-0.27337095 -0.58036983 0.7319744 2.0291061 -0.4253991 7.7440166 -0.2452974 9.635737
-0.50754243 10.667745 -0.34477958 0.17520192 -0.2742984 -0.74152577 -0.09084102 -0.7080184
-0.3115671 7.8948812 -0.14378978 9.057317 0.26502857 0.8399375 0.5779825 -0.18437207
3.0142128 -8.956361 -0.03226948 -0.5537148 -0.41464457 -0.32925227 0.11027068 -0.29261962
-0.18846992 0.5134401 0.054145638 9.399806 0.17570844 0.02245424 0.15478796 1.2118517
-0.5428165 -0.33041638 0.5576754 -0.33128557 0.7105012 -0.46219864 0.5722565 -0.34468782
0.1816845 0.8861358 0.6902089 0.26890862 0.70515674 0.58173835 0.039414637 -0.4758126
0.08498073 1.6099453 -0.23473349 9.37987 0.47545314 0.9399323 0.37168622 1.7626402
3.4224224 -1.1859285 0.6363398 -0.3902418 -0.3360515 0.65574545 0.55078775 -0.5478199
6.911137 -0.2265665 0.1549668 0.20270813 -0.14264046 -0.94796175 -0.046416577 -0.34315863
0.97813994 -0.17139003 0.8436406 1.1476797 0.33273366 1.3165147 0.22033332 9.76319
0.68574166 0.0660067 0.52818024 0.7022811 -0.034987193 -0.3973168 0.18631655 0.8606944
0.58081955 1.4038994 0.46549642 0.99837494 0.26087666 -1.2673101 0.5117414 1.1893047
3.610596 0.5923571 1.3438525 2.6545663 0.3600496 0.2522325 0.17939706 1.1646814
0.499119 -0.47242323 1.4053757 -0.38156185 -0.021477781 0.43215355 0.23693947 0.909216
1.9993047 1.955203 0.3932187 1.8033639 -0.071237445 -0.15583645 0.04712911 0.1853792
-0.45463452 9.195509 -0.11911101 -0.650174 -0.073471814 -1.7262838 0.6554339 -0.50796837
0.25482938 0.69290614 -0.60987186 -0.5326744 0.9344974 -0.16565122 -0.13309495 -1.7205981
0.4248788 1.0766335 0.71890754 2.152181 -0.38287318 0.30860412 0.053696923 -0.07955398
0.7459618 1.6850502 -0.2991144 0.28128856 -0.01964254 -0.45249093 0.37614197 0.9274844
0.18573785 8.659079 -0.32851458 8.550261 -0.2786415 -0.6046377 0.68407774 0.10862152
0.46011162 0.89263004 -0.4489645 -2.5415137 0.5554169 -1.257095 1.2442443 1.2718093
-0.035160672 -0.6028268 -1.5986407 -7.384989 0.09746178 -0.74236536 0.33108068 1.2008741

fc1.bias f4 [128]
00000000: 76e0 0dbf c6ca 98be 44c9 9c3e f382 453f
00000010: 0dd3 dfbe 7405 e0be 5055 63bb f073 0dbf
00000020: 8419 42bf 4a93 4abf de34 31bf 5f63 3ebf
00000030: 3054 53bf 4501 f0be ab78 10bf 1cc1 0abf
00000040: 2857 fb3e 8984 49be db24 44bf 6063 2dbf
00000050: 80e7 b1be ce6d cdbe e853 a4bf 88b1 54bf
00000060: 0790 b5be 177a bdbe 7509 13be b151 34bf
00000070: 5472 803e 712e e13e 085d 26bf 84df 2bbe
00000080: a6c6 c63e 2d46 e2be be73 73bf 101d 3abf
00000090: 03fe 28bf f336 bebc 7577 da3b 1e90 463e
000000a0: 2e04 4cbe 0578 10bf a0f2 3dbf 8fd9 50bf
000000b0: 37b1 a03d 0d9a 3b3e 50c3 2dbf 3105 eabe
000000c0: 16f5 843f ba51 3bbe 04c1 0cbf fda7 0cbf
000000d0: a54c b9be a7ca a73e 1800 32bf c889 5ebf
000000e0: 0af8 1abf a675 09bf 309b 25bf 5bb1 40bf
000000f0: 41de 45bf a5c1 bcbe 2baa 18bf f16d ecbe
00000100: d229 51be 47f2 323e e71f 82bf 079c b3be
00000110: bfe7 943f 6486 05bf 434a f3be 6735 12bf
00000120: 8ef1 1ebf 62bd 1ebe ba13 3ebf 7c8d 1abf
00000130: 1d63 3ebf a4b8 4ebf 7657 1bbf 5a2a 063f
00000140: 95fd 41bf 3ed4 37bf 109a a8bd 4afc b6be
00000150: 542e 1fbe 76fe 07bf 9e13 22bf 1f61 5ebf
00000160: 30ab aabe b994 e63e 52d7 33bf 0c9d 6dbe
00000170: 5be0 00bf 34dd fc3e 4f3a 34bf de75 76bf
00000180: 6709 3fbe 0839 04bf 4e0d 4ebe 9b01 2dbf
00000190: 384b 34be e1f1 60bf ef42 51bf 5b9a 23bf
000001a0: be22 babe 6071 2abf 0f88 25bf 6a8d 3ebf
000001b0: d5fa cabe 7b17 21be dd9e ffbe 93d9 8abf
000001c0: 63b5 803e 8019 0ebf 1b32 14bf 5a7b fcbe
000001d0: 7a5a c73e cfc6 eabd d35b 26bf a46c 69bf
000001e0: f1dc 68bf fdba 47bf c64a 1abf 18e7 fe3d
000001f0: 58c8 09bf 06e8 03bf ec62 8dbf c527 38bf
-0.55420625 -0.29842204 0.30622303 0.7715294 -0.43715706 -0.4375416 -0.0034688301 -0.5525503
-0.75820184 -0.79130995 -0.69221294 -0.7437038 -0.82550335 -0.4687597 -0.56434125 -0.5420091
0.49089932 -0.19679464 -0.76618737 -0.6772976 -0.34746933 -0.40122837 -1.2838106 -0.8308339
-0.35461447 -0.3700721 -0.14359076 -0.7043715 0.25087225 0.43980744 -0.64985704 -0.16784483
0.38823432 -0.44194165 -0.95098484 -0.72700596 -0.6601259 -0.023219561 0.0066670724 0.19390914
-0.1992347 -0.56433135 -0.7419834 -0.8158197 0.07846301 0.18320484 -0.6787615 -0.45707086
1.0387294 -0.18292895 -0.5498202 -0.5494383 -0.36191288 0.327718 -0.69531393 -0.8692899
-0.6053473 -0.5369514 -0.6468992 -0.7527062 -0.7729226 -0.3686649 -0.59634656 -0.4617763
-0.2042611 0.17475234 -1.0165986 -0.35079977 1.1633223 -0.5215819 -0.47517595 -0.57112736
-0.62087333 -0.15501931 -0.7424885 -0.6037214 -0.74369985 -0.8075049 -0.6068033 0.52408373
-0.7577756 -0.7180823 -0.0823251 -0.35739356 -0.15545017 -0.5312265 -0.63311183 -0.86866945
-0.3333373 0.4503534 -0.7025043 -0.2320444 -0.5034234 0.49387515 -0.7040147 -0.962736
-0.1865593 -0.5164952 -0.20122263 -0.67580575 -0.17606819 -0.8786908 -0.8174276 -0.639074
-0.3635463 -0.66579247 -0.64660734 -0.7443453 -0.39644495 -0.15731613 -0.4992589 -1.0847648
0.25138387 -0.5550766 -0.57888955 -0.4931286 0.38936216 -0.11463701 -0.6498386 -0.911814
-0.9096213 -0.78019696 -0.60270345 0.124464214 -0.53821325 -0.51525915 -1.1045814 -0.71935683

fc2.weight f4 [3, 128]
00000000: 8717 24bf ea5c 733c b2a7 cdbf 0a77 2fbf
00000010: 089f 9d3d 3c9c 893c 9710 6ebe e4cf 0bbf
00000020: 902d b83e fd1b 423f fc38 18bf 3a58 353f
00000030: dc0e 353f 7d0d b33a b85f b43c f3d4 fd3e
00000040: 0e34 cfbe 10ce 81bf e62c 193f 319e 09bd
00000050: 3f2c 513d 4d32 463d 20a9 1bbf 8266 23bf
00000060: 2e31 9ebd 1220 c03c e8f0 993d 8685 94bc
00000070: 2dc2 82bf 9f81 33bf 4465 6f3d c379 a9bd
00000080: 561e 0240 9360 743c 165b 2b3f 3ed3 d33d
00000090: de6b b2bd 708e 9ebe b9e0 3fbf ef9b ccbf
000000a0: eafb 3dbf 49a1 903d 4f90 19bf f201 12bf
000000b0: 4642 4cbf 8dce dfbf dd37 3d3f 3edd 38b9
000000c0: 94de e4bf dfbd adbd 0a88 9e3c 91e0 0cbf
000000d0: 4a21 dd3c ca46 c9bf 4750 abbd 33db 0f3f
000000e0: 7089 9ebd 47da b63c 3875 3b3e 3be2 5d3e
000000f0: 9f5e 363f 91ff 543d 29be 153c 509d 34bd
00000100: 5ce7 40bd f46c abbf 75fd 783d 4ec9 0dbe
00000110: 9c1b 93bf e01d 3dbc f4c0 19bd af76 8f3b
00000120: b7c5 b1bf f3ef 9bbd 1948 7a3f 2229 763d
00000130: 1c16 d0be 2c10 92bd bdd3 173e 8135 10c0
00000140: 0647 74be 409b aa3e eb76 6d3d d9b3 be3d
00000150: 47a6 9cbe a773 df3e d6bb 30bf 6ff8 e13c
00000160: 9637 44bf cc7d d4be 3425 fb3e 28fd 4dbd
00000170: c477 26bf 5c2f c8be 0288 2abd ee08 453f
00000180: 6c72 0fbf 83b1 4abe c5a7 273d eb50 553d
00000190: e8a2 55bf 8509 11bf 0dfb 7a3f ec83 3dbc
000001a0: d621 303d 1ef2 613d c1cc afbf 5a07 7d3f
000001b0: bf7d f23d 2603 853d c624 7c3b d065 093f
000001c0: da84 5fbe 8ac3 413a acb1 203d 7319 b4bd
000001d0: 43e0 79c0 3787 45bf 001c 2ebd 5210 2e3e
000001e0: 476b 393e 72be c13e 9ab1 18bf bb46 bdbe
000001f0: 7030 17bd 5698 6a3f 5c49 10bf 4bf1 163f
00000200: f117 19bf 965f 423e 69e6 a93e 8f6d 6cbf
00000210: 01b6 2abd 130b 433d 9a49 003e 34bd 1cbf
00000220: b3e1 493e 6dd8 b9be 4a82 0abf da38 e9be
00000230: 635d fdbe 61d9 b4bd a899 863e c052 ed3e
00000240: f877 d6be 50b9 fabe ee33 29bf 7e12 27bd
00000250: cec6 66bd 1ada 6bbd a1df 0bbf a73f 223f
00000260: 9765 7dbd 7408 d0ba f1fc 993d 70b9 ca3d
00000270: 38b6 be3d 317d 39bf bc67 9ebd f312 e03e
00000280: 0ff2 61bc 238e cd3d 4e89 0fbf 0f54 943e
00000290: 1f50 25bd a28c 0a3d ae1b 44bc 6698 a63e
000002a0: b341 d5be 24d5 2cbd 8514 0f3f 7ad4 1a3f
000002b0: a2a1 db3d 8606 863e c74c 033f fa17 74bd
000002c0: 5a6c 8cc0 fc40 dbbb c745 27bd ef57 fdbd
000002d0: 72bc 823c 5283 9d3e dd88 27bd 9e83 19bf
000002e0: 3c76 cb3c a614 253c 6d50 3c3e 6d8e a53d
000002f0: c897 b53e c9e7 dd3c 4206 8ebd ffb5 71bd
00000300: 524e 30bd 4e2c 073e f08b 3bbe 1f5a 0abc
00000310: 64aa e2bf bb79 983d 2ba8 68bd a51d fa3c
00000320: 4d90 9c40 e933 043d 4bd0 a43e 01a0 dbbc
00000330: a8a2 9abe df18 5bbd 7b07 343e f17a 0b3f
00000340: 2b2f 9cbe 57ba 8f3e 7d9c 90bb cbc5 da3d
00000350: a3ca a33d 47db ce3e c015 e9be d237 99bd
00000360: a903 6b40 b45d 12bf c2f2 dd3e 5431 0d3d
00000370: 223a 22bf 6a4c 0abf 7b2d adbd c6fd f7be
00000380: ceec 0640 a8c9 2fbd d96c ab3d 40f0 bbbb
00000390: d107 bfbe 55fd 5abe 4639 bb3c 3268 883d
000003a0: 86d5 a73d a0a2 823d cb69 ae3d 6103 683e
000003b0: 2c07 563e 59a4 b93e 8aff 1e3c be47 20bf
000003c0: e632 59be dbf7 97bd fc2e b33d 49e6 463b
000003d0: 70cb 853f 4019 66be dc27 99bd cf73 d13c
000003e0: dcf3 27bd a951 21bf af67 00bf 6b2d 013f
000003f0: 5c7b fabb d29b f2bf 3eb9 14bf 951c d83e
-0.640984 0.014853695 -1.6066802 -0.68541014 0.076963484 0.016798131 -0.23248516 -0.5461409
0.3597226 0.75823957 -0.5946195 0.7083775 0.707258 0.0013660636 0.022018299 0.4957653
-0.40469402 -1.014101 0.59834135 -0.03359813 0.051067587 0.048387814 -0.6080494 -0.6382829
-0.07724224 0.023452792 0.07516652 -0.018130075 -1.0215508 -0.7011966 0.058446184 -0.08275177
2.0331016 0.014915603 0.6693586 0.103430256 -0.0871198 -0.30968046 -0.74952275 -1.5985087
-0.74212515 0.07062013 -0.5998582 -0.5703422 -0.79788625 -1.7484909 0.73913366 -0.00017630027
-1.7880425 -0.08483481 0.019351978 -0.5503016 0.026993413 -1.5724728 -0.08364921 0.56193846
-0.07741058 0.02232088 0.18306434 0.21668331 0.7123813 0.05200154 0.009139576 -0.044095337
-0.04709564 -1.3392625 0.06078859 -0.13846323 -1.1492801 -0.011542767 -0.03753753 0.004378162
-1.3888463 -0.07614126 0.9776626 0.06009782 -0.40641868 -0.07131991 0.14826865 -2.2532656
-0.23855218 0.3332157 0.057974737 0.09311647 -0.3059561 0.43642923 -0.69036615 0.027584283
-0.7664732 -0.41502225 0.4905182 -0.050290257 -0.650265 -0.39098632 -0.041633613 0.7696675
-0.5603397 -0.19794278 0.040931482 0.052079123 -0.834517 -0.5665515 0.98039323 -0.011567097
0.04300102 0.05516254 -1.3734361 0.9883934 0.118403904 0.06494741 0.0038474067 0.5367098
-0.21828023 0.00073915033 0.03923194 -0.087939166 -3.9043128 -0.77159446 -0.04250717 0.16998413
0.1810733 0.3784061 -0.59646 -0.36968026 -0.036911428 0.91638696 -0.5636194 0.58961934
-0.59802157 0.18981776 0.33183601 -0.92354673 -0.04167748 0.047617983 0.12528077 -0.612262
0.19715004 -0.36297932 -0.54105055 -0.45551187 -0.4948531 -0.08830524 0.26289105 0.46352196
-0.41888404 -0.48969507 -0.66094863 -0.04078912 -0.05634194 -0.057581045 -0.54638106 0.63378376
-0.06186446 -0.001587166 0.07518948 0.09898651 0.09312099 -0.7245665 -0.077346295 0.43764457
-0.013790621 0.10036876 -0.56068885 0.28970382 -0.040359613 0.033825524 -0.01196949 0.32538146
-0.41651687 -0.042195454 0.55890685 0.60480464 0.107241884 0.26176852 0.5128903 -0.05959318
-4.3882265 -0.0066910964 -0.04083803 -0.123702876 0.015958998 0.30764252 -0.040902007 -0.59966457
0.024836652 0.010075724 0.18390055 0.08083806 0.35467362 0.027088063 -0.06934787 -0.059011456
-0.043043442 0.13200495 -0.183151 -0.008444338 -1.7708249 0.07445093 -0.056801002 0.030531714
4.892615 0.032276068 0.32190165 -0.026809694 -0.30202222 -0.053490516 0.17580979 0.5448447
-0.30504736 0.28071854 -0.004413186 0.10682257 0.07997634 0.4040167 -0.45524406 -0.0748135
3.6720984 -0.5717423 0.43349272 0.03447087 -0.63369954 -0.5402285 -0.0845594 -0.484358
2.1082034 -0.042916924 0.083703704 -0.005735427 -0.3731065 -0.21385701 0.022854459 0.06660499
0.08195023 0.063786745 0.08516272 0.22657539 0.20901173 0.362582 0.00970448 -0.6260947
-0.21210822 -0.074203216 0.08749196 0.0030349663 1.0452709 -0.2247057 -0.07478306 0.025567917
-0.041004047 -0.6301523 -0.5015821 0.5045993 -0.0076441 -1.8953803 -0.5809516 0.42209306

fc2.bias f4 [3]
00000000: c669 58be e0b8 40be 39f1 8a3e
-0.211341 -0.18820524 0.27137163
