data/mountain_car_policy_30.pt (torch, 5232 bytes, 4 tensors)

fc1.weight f4 [128, 2]
00000000: be5e 4c3f ab87 613f 168b a73f a1e2 e63f
00000010: 6154 7b3e 1042 503f b6dc 823e 3b34 c23f
00000020: 6faf af3d 81c1 2b3f abf4 7d3f 72e0 e53f
00000030: 1ccd a13f ef5c 9d3f fd80 01be 5914 143f
00000040: 4d8b b53d a916 61be 544c ac3f 47cf 8f40
00000050: 0639 9b3e dd56 b53e ce4b 613f 2e1f debd
00000060: 0883 2dbc 8889 06bf e3d9 3b40 1804 2940
00000070: c583 583f 8f40 a33f 1742 e83d a6f2 fc3e
00000080: c075 763f c77f 133f eee6 f5be ab5d 0fbe
00000090: 26b2 ec3e 93f1 623d 76ed bb3f 8d1a 0940
000000a0: 15db e13f 86ce 5840 affc 5b3f d3ab 1bbd
000000b0: a3cd a73f 9369 82bf debd 89be e282 c13d
000000c0: e888 443f 5895 51be 1391 a6be ca35 b0be
000000d0: 4336 343f 2999 a4be 4a55 04bf 6f89 87bf
000000e0: c22a 293f be92 953e 4281 8d3c 49f3 12bf
000000f0: aaa9 a73f c5f6 203e 10ef ab3e d5a4 873f
00000100: 34cc 193f 6407 a43e f51b 863f 1053 933f
00000110: a1f7 3040 79cf 8b40 669e 103f 5577 2b3d
00000120: b236 ca3e cbdd d23f b782 9b3f 2f83 0a3f
00000130: a44e 8e3e 5e72 513d 7cb0 483e cdbe c940
00000140: 9483 1840 9ecf 3240 d017 31bf 4ba8 2b41
00000150: a9a3 d43e 962e 323f 43de cb3e 975d d3bd
00000160: d53a 9a3f 0876 dc3f e538 6dbd ced8 db3e
00000170: 3f49 0cbe 3f91 173d 5a3f 95be 29a5 0541
00000180: 6016 4e3f 7985 e2bd c090 fb3f e377 2b40
00000190: 55a5 bb3e 2d8d c0be 374a 1b3e ce6d 603f
000001a0: 67b7 a5bd 1b90 9cbe cf11 ea3e c406 ca3e
000001b0: b942 223d a2e3 313f 1fff 6abe 1d5f e63e
000001c0: 4629 9a3e 02a6 a13c b277 8d3f 3ff8 5a40
000001d0: c607 c43d 2f37 ce3f 7a40 9a3f 5918 283f
000001e0: fa62 4d3f 2538 9b3e 5cc3 2e3f 4085 493e
000001f0: 4fbb 783e 45f9 c93e 0cdd 0f3f 004c 83bf
00000200: 679b 8a3f cad5 89bf 2171 d43e 848a 553f
00000210: 9632 27be 3963 02bf 5a5b 03bf 287f c4be
00000220: 2df0 fa3e ca12 003f 49f3 dd3f 801e 4f40
00000230: 28e1 823e 9226 a83f ba49 11bd ce8b 943e
00000240: 283d ce3e d906 e6bd c0e1 babe 5e1a 083f
00000250: 5c4e 593f 8798 2bbd 5b17 b93d a592 193f
00000260: 5944 833f d90b b33f dc10 033f 2100 953f
00000270: e6b5 ba3d e3ee d33d bd31 4b3f fe23 b83e
00000280: 4aa8 e83e e820 67be 5ed9 9f3f 72f4 43be
00000290: b826 733e ce87 853e 8611 eb3e 6309 203f
000002a0: 7dcd d03e 9966 b639 4efe a13f 0430 85bd
000002b0: 4275 7a3e afb9 9a3e c42b 913d 45dc 6f3d
000002c0: 1814 293f bb3c e8be 9f02 623e b70a 48bd
000002d0: 918e a23e 0269 bb3e 9ef5 8e3f aac7 05bf
000002e0: abdd 003e 441f 313e fe73 983f 80f1 1a40
000002f0: caac 893f 95e8 5d3d e7ce d63e 1c76 44bf
00000300: 5a21 ae3f 0c34 e33e d5c9 ea3e 7f6c 32bf
00000310: 5c1d b5bd 9fb9 0641 e918 0bbf dbaf e4be
00000320: e7f9 53bd 9d83 9ebe 30c6 843f e9f0 bf3e
00000330: 8898 3f3f 147f 2a3e 5a96 2dbf 59c3 3041
00000340: ead3 efbe 1156 19bf 9d2f 283f d019 453d
00000350: 4f3c a0be d10e d3be 315c 11be bbe6 0b3f
00000360: bd3f 7fbb 11cb 643d 4d34 463f 248e 5e3e
00000370: 3a81 663f 0fa6 37bd 7f5b 04bd 65b3 9e3d
00000380: 1760 72bd b66c 0c3e 83e4 1fbe a630 24bf
00000390: 19a3 3d3f d078 473e 340c 0f3f e25f 1f3e
000003a0: e2f2 9d3e 2ac4 983d 3438 823f aff3 fdbe
000003b0: 50e6 c3bd b0e7 8dbd e4b3 81bc 9e34 c5bf
000003c0: 72e6 e53e 837e 8c3f 9de8 823f 8cc7 e1be
000003d0: 9b77 0c3e d974 c6be a541 a23e b43d 4b3f
000003e0: d3a2 823f ff36 8e3d 8b74 0fbe 95cb 1f3f
000003f0: 47a5 523e d6c5 1c3f 4c22 58bc c77e 1f41
0.79832065 0.8809764 1.3089321 1.8037912 0.24543907 0.81350803 0.25559014 1.517219
0.08578383 0.6709214 0.9920146 1.795912 1.264072 1.2293986 -0.12646861 0.5784355
0.0886446 -0.219813 1.3460793 4.4940524 0.30316943 0.35417834 0.88006294 -0.10845791
-0.010590322 -0.52553606 2.9351737 2.6408749 0.84576064 1.2754077 0.11340731 0.49403876
0.9627342 0.5761685 -0.48027748 -0.14000575 0.46229666 0.055406164 1.4681842 2.1422455
1.7644984 3.3876052 0.8593244 -0.03800566 1.310963 -1.0188469 -0.2690267 0.09448792
0.767714 -0.20467126 -0.32532558 -0.34416038 0.70395297 -0.32148102 -0.5169264 -1.0588816
0.6608087 0.29213518 0.017273549 -0.57402474 1.3098652 0.15719135 0.33580828 1.0597178
0.60077214 0.3203689 1.0477282 1.1509724 2.765114 4.3690763 0.56491697 0.04186185
0.39494854 1.6473936 1.2149266 0.5410642 0.27794373 0.05113446 0.19598573 6.304541
2.383031 2.793922 -0.6917696 10.728587 0.41531113 0.69602334 0.3981801 -0.10320585
1.2049204 1.722352 -0.057915587 0.42938846 -0.13699816 0.03700375 -0.29149896 8.352822
0.8050289 -0.11060614 1.9653549 2.6791923 0.36649576 -0.3760771 0.1516503 0.8766755
-0.08091622 -0.30578694 0.45716712 0.39458287 0.039614413 0.69487965 -0.22948883 0.4499444
0.30109614 0.019732479 1.1052153 3.4214017 0.09571795 1.6110591 1.2050927 0.6566215
0.8022915 0.30316272 0.68266845 0.19679737 0.24290203 0.3944799 0.56196666 -1.0257568
1.0828675 -1.0768368 0.4149256 0.83414483 -0.16327891 -0.5093265 -0.51311266 -0.38378263
0.49011365 0.5002867 1.733987 3.2362366 0.25562406 1.3136771 -0.0354707 0.29012913
0.40281034 -0.11231775 -0.3650036 0.53165233 0.8488519 -0.04189351 0.09037658 0.59989387
1.0255233 1.3987991 0.511976 1.1640664 0.091167256 0.103482984 0.7937277 0.3596496
0.45440894 -0.22571146 1.248821 -0.19136217 0.23745239 0.26080173 0.45911807 0.62514323
0.40781775 0.00034790186 1.2655733 -0.06503299 0.24458793 0.3021979 0.07088426 0.058559675
0.66046286 -0.45358834 0.22071312 -0.048838343 0.31749395 0.36603552 1.1168706 -0.5225779
0.1258456 0.17297083 1.1910398 2.42099 1.0755856 0.054176886 0.4195473 -0.7674272
1.3603928 0.44375646 0.4585711 -0.696968 -0.088434905 8.420318 -0.54334885 -0.44665417
-0.051751997 -0.30959788 1.0372982 0.37488487 0.7484212 0.16650039 -0.67807543 11.047692
-0.46841365 -0.5989695 0.6569765 0.04812032 -0.31296012 -0.41222242 -0.14195324 0.5464894
-0.0038947903 0.05585772 0.77423555 0.2173391 0.90040934 -0.0448361 -0.03231382 0.077490605
-0.05917367 0.13713345 -0.15614514 -0.6413673 0.7407699 0.1947968 0.55877995 0.1556392
0.30849367 0.0745929 1.0173402 -0.49599978 -0.09565413 -0.069289565 -0.015832849 -1.5406682
0.44902378 1.0976108 1.0227238 -0.44097555 0.13717501 -0.38761023 0.31690708 0.79391026
1.020594 0.069440834 -0.14009301 0.62420017 0.20570861 0.61239374 -0.013191771 9.9684515

fc1.bias f4 [128]
00000000: 643f a1be a435 b3be 1852 87bf ff40 31bf
00000010: 3a9c 91bf 9da3 f53b 00bb a9be e9ce 82be
00000020: d4e5 d3be 6084 19bd 42d5 31bf b6b3 34bf
00000030: 96da bfbe a104 2fbf e015 8dbe b107 d2be
00000040: 521a 08bf a188 1cbf 9061 32bf f252 393c
00000050: 3745 9e3e 0f43 47bf 05ae 6cbe 3500 00bf
00000060: a378 36bf bd01 33bf 0271 42bf 51c5 21bf
00000070: dee5 0bbf 32fd f7be 967b 9dbe 1f64 5fbf
00000080: f352 e6be 8b70 073d c97d 143c 65c6 29bf
00000090: eac9 9bbe 14bf 71be 8d68 6fbf 54da 043e
000000a0: 679d 283c da05 13be 0cd8 4ebf acb4 60bf
000000b0: aaff b4be 0a4a fabe 54f4 17bf 4c30 bcbd
000000c0: 9695 1cbf d7ea 6dbc 27ea a6be 9d16 68bf
000000d0: fe14 07be a468 0fbf 76cb 00bf e715 33bf
000000e0: e978 09bf 7174 213d f5fc 5dbf 6273 49be
000000f0: 43ac e4be c8cf e7be 0d54 44bf 7546 28bf
00000100: b9ec 2fbf d82b 47bf d202 2abf 10ff 1cbf
00000110: 54d3 5bbf 8c7f 283b 9df6 35bf 69c1 dabe
00000120: 17d0 d9be 2fa3 1bbf ef0f 25bf 9c27 a4be
00000130: a85c 57ba 41c1 fabd aba5 1fbe 3c7c 03bf
00000140: 294d 29bf 84ac 9cbe 5958 bdbe a087 48bf
00000150: 30bc 28bf 4f73 a6be da4e f4be a06e 01bf
00000160: 6cd1 74bf 6a88 6ebf 7775 babe b749 25bf
00000170: 89ec 2cbf c31d babe f6ff 1fbf 7c74 3dbf
00000180: 2b8f c0be 6e94 08bf 9ffb 253d 0764 36bf
00000190: fd19 a2bf 780b 2ebe 087d 21bf 4ae7 22be
000001a0: bd29 2cbf 76e7 1cbf e266 39bf 4566 8dbf
000001b0: c76b 37bd 2cf0 29bf 10b0 17bf 5695 a3be
000001c0: a31d 04bf ea52 f7be 0b6e 31bf 5682 03bf
000001d0: cd6e bdbe fb89 23bf 3996 12bf 74d9 6cbf
000001e0: c782 37bf 005f 52bf 2e89 d2bd 2aa5 60bf
000001f0: f197 09bf 66d5 8cbf 2ecc 54bf 507e ce3d
-0.31493676 -0.35001862 -1.0571928 -0.692398 -1.1375802 0.007496311 -0.33150482 -0.25548485
-0.41386282 -0.03747976 -0.6946603 -0.7058672 -0.37471455 -0.6836644 -0.27555752 -0.41021493
-0.5316516 -0.6114598 -0.6968012 0.01131128 0.30912182 -0.778367 -0.23113258 -0.50000316
-0.7127783 -0.6992453 -0.75953686 -0.63191706 -0.54647624 -0.4843536 -0.3075835 -0.8726215
-0.4498516 0.033066314 0.009063193 -0.6631835 -0.30427486 -0.23608047 -0.93518907 0.1297391
0.010291434 -0.14357701 -0.8079841 -0.87775683 -0.35351306 -0.48884612 -0.5935719 -0.091888994
-0.6116575 -0.014521322 -0.3260052 -0.90659505 -0.13191602 -0.56019044 -0.50310457 -0.69955295
-0.5370012 0.039417688 -0.86714107 -0.19672921 -0.44662675 -0.45275712 -0.7669075 -0.6573251
-0.68720585 -0.77801275 -0.66410553 -0.61326694 -0.85869336 0.002571079 -0.71079427 -0.42725685
-0.42541572 -0.60795873 -0.6447744 -0.3206147 -0.0008215406 -0.122438915 -0.15590541 -0.5136144
-0.6613336 -0.3060037 -0.36981466 -0.7833195 -0.6591215 -0.32509848 -0.4771641 -0.50559425
-0.9563205 -0.931769 -0.36417744 -0.64565605 -0.67548424 -0.3635083 -0.6249994 -0.74005866
-0.37609228 -0.53351486 0.040523168 -0.7124638 -1.2664181 -0.16996562 -0.6308141 -0.15908542
-0.6725119 -0.6129068 -0.7242261 -1.1046835 -0.04478052 -0.663821 -0.59253025 -0.31949872
-0.5160772 -0.48305446 -0.6930854 -0.5137075 -0.36998597 -0.63882416 -0.5726047 -0.9251931
-0.71683925 -0.8217621 -0.10280071 -0.8775202 -0.5374747 -1.1002624 -0.83124053 0.10082686

fc2.weight f4 [3, 128]
00000000: 9c07 943d 2ca6 e6bd ffa8 febc b617 ae3e
00000010: 61fa 0cbf 51d9 13bf d054 813d bec0 b7bc
00000020: 3774 0a3c 8bdd 5dbf e091 8cbd f281 b63e
00000030: 4c71 1bbd 1aa3 6abf dd11 51bd b9d0 863d
00000040: 3e61 823e fc30 90bd 9b28 22bf 23d9 d2be
00000050: 2313 493e 1e89 9c3e 4e84 da3d 4de8 323d
00000060: 6568 fe3e 8425 05bf 64f0 ad3d 21b2 09bf
00000070: 00ba cd3e 7d06 dcbc a24b b8bb a961 ae3e
00000080: 02f5 a8bd 7982 f0bc e49e bbbf c2cc 9fbc
00000090: 2e7d bdbd 2cfb 423d 768d 2abf daf6 cbbe
000000a0: 3e4f 95bf eb0c 8dc0 8b06 b53e 6598 c23e
000000b0: 34a7 ba3e 4dd5 1c3c 13dc eebc 5350 a8bf
000000c0: 3bb0 d13e d8bd 3ebf a5f5 3dbd 2a20 95be
000000d0: ea82 653d 8c42 0d3f 8666 a0bd 914c 353d
000000e0: 6422 cdbc d6f8 1fbe 6735 983e ee7a 093d
000000f0: d767 753e bedf d9bc f976 0a3f 3d5a 2dbf
00000100: c541 3f3e 603f ac3e 621c 483d 49e4 2fbf
00000110: da94 d63e 3cb4 4fbf 2365 e93e 8109 aabd
00000120: 4d55 00bd 3099 78bd 3bbe b83e 5ebd 49bd
00000130: ac84 81bd 062e 1fbd 13df b13d 5adc 7e3d
00000140: 95ae a93d 37ba e0bd 0261 80bd 7974 e43e
00000150: a203 233f 3300 8fbd 668e 12be 9b6d 493d
00000160: cb47 653e 988d d03e abb4 56be 704c 873e
00000170: ec2c 853d 045d 08be 82c2 82bc 1e9c 1abf
00000180: 7825 203e 1d7d 703d 457d bbbf 15d2 1cbf
00000190: 336c 15bf 700c 82bd 76f0 223e ce81 86c0
000001a0: e9dd 78bd 28ee 10bc c11b 18bf 3fef 8a3e
000001b0: aad7 a73d 3f51 b03e 2f01 bb3e f5e5 b33d
000001c0: 2d9a 863c 6306 4ebd aa7e de3e deb1 2d3d
000001d0: 126a 4abe 2d97 6abd f0a8 05bf 69fc 0ebf
000001e0: d565 123e d02a 853e c01f 863d fdef bc3e
000001f0: 4277 603e 4001 ca3e 0b99 2ebf 9ae6 a5c0
00000200: 769c 473d 973b 4d3f 423c c2be 48cc 9a3e
00000210: 53d0 12bf dd24 efbd 9798 e63e 2812 153c
00000220: 08ae cb3c 0f76 01be 1862 0a3d cb1e f0bd
00000230: d3c8 c93c fff0 2c40 cc74 2b3e a8eb 28bd
00000240: 927c afbd c8a0 ef3c 7d3f 1abf 4c19 bcbd
00000250: 6ec3 11c0 b772 2c3e eab1 203e 2705 04bd
00000260: 551b 48be 52fa 23bf f67d 843d de74 08bf
00000270: 5f7b b83e 0cc8 17bb d105 833e 4004 d4bd
00000280: af46 e0bc 80fb 9c3b a5cd bd3e ff14 0ebd
00000290: 6ea2 373c 06ed 933e 4c82 15bf 0ef2 98be
000002a0: 48ba 4d3e 95e7 da3e 1f50 b2be 66e7 b0be
000002b0: fbef 303f 2228 0ebc c741 9bbd 5eb1 0fbf
000002c0: 0379 773e c04e a33d cee6 20bd d555 ffbe
000002d0: b8f8 08bd ac1e bf3e 6614 9fba 6467 af3d
000002e0: 7c0b b33d cbc7 97be ea88 6a3e 6151 863e
000002f0: f4df 5c3e e809 68bd 199b b93e 1f0c 0abf
00000300: 1165 92be aef0 afbd e9ec 873d a3df 0ebf
00000310: 26b6 8bbd c5b7 c23d 17b2 c03e 7cbf 133d
00000320: d384 78bd f022 06bd 60ca 98be 51c3 803d
00000330: 8650 473d a5a7 a13d 87f0 d23c 7db5 cdba
00000340: da98 7c3d 26f2 323e d37f ad3d 2eae 88be
00000350: ef60 ea3e 3d78 0f3e c594 1bbe 29f4 203d
00000360: 1fa2 5d3e f92e bebe 55e5 74be 7be9 23be
00000370: 2380 813d 3b66 973f f870 17be 1e77 bebe
00000380: 0e15 953e d854 69ba 8e21 48be 3b16 2dbf
00000390: 2228 27bf 5086 b03d ba9d 303e 3cdb 053f
000003a0: e9dc 0c3d f16d 31bd 8345 1ebf fc65 803e
000003b0: 0440 ab3d d017 383e 8dcf 78be ce95 663c
000003c0: 5cb5 723d fd6f b53c 289f 7b3e df37 98bd
000003d0: 3622 8bbe bf99 46be 7ca9 0abf 1dbf ad3e
000003e0: 7a7e b8be 15e6 003c dda2 3cbd b123 9ebe
000003f0: 0dee 0dbe a357 a53e 110b 06bf c468 ba3f
0.07228014 -0.112621635 -0.031086443 0.34002465 -0.5506955 -0.57753474 0.06315005 -0.022430774
0.008450559 -0.8666617 -0.06863761 0.35646015 -0.037949845 -0.91655123 -0.051042426 0.065827794
0.25464815 -0.07040593 -0.6334321 -0.41181287 0.19636206 0.30573362 0.10669766 0.04367857
0.49689022 -0.5201037 0.084931165 -0.5378743 0.4018097 -0.026858563 -0.0056242505 0.34058884
-0.082498565 -0.02935909 -1.4657865 -0.019506816 -0.09252392 0.047602817 -0.666221 -0.3983677
-1.1664808 -4.407827 0.35356554 0.38006893 0.3645569 0.009572339 -0.029157674 -1.3149513
0.40954766 -0.7450843 -0.046376843 -0.29126102 0.056033053 0.5517967 -0.07832055 0.044262473
-0.025040813 -0.15622267 0.29728243 0.0335645 0.23965393 -0.026595946 0.5408779 -0.6771582
0.18677433 0.336421 0.048855193 -0.6870771 0.4191044 -0.8113439 0.45584974 -0.08302594
-0.03133135 -0.060692966 0.36082634 -0.04925286 -0.06324133 -0.03886225 0.08685126 0.062221862
0.08285252 -0.10973018 -0.06268503 0.44620112 0.6367742 -0.0698246 -0.14312133 0.049176794
0.22390668 0.40733027 -0.20967357 0.26425505 0.06502709 -0.13316733 -0.01596189 -0.60394466
0.15639293 0.058713067 -1.4647604 -0.6125806 -0.58368224 -0.063500285 0.15912041 -4.2033453
-0.060758505 -0.008845843 -0.5941735 0.27135655 0.081954315 0.34436986 0.3652434 0.08784095
0.016430939 -0.05029906 0.43456012 0.042405955 -0.19767025 -0.05727308 -0.52210903 -0.558539
0.14296658 0.26009226 0.065490246 0.36901847 0.21920493 0.3945408 -0.68202275 -5.1843996
0.048733197 0.8016905 -0.37936598 0.3023398 -0.5734913 -0.11676953 0.45038292 0.009098567
0.024863258 -0.12642692 0.033784956 -0.11724623 0.024631893 2.7022092 0.16743773 -0.041240364
-0.08568682 0.029251471 -0.60253125 -0.091845125 -2.277553 0.16840635 0.15692869 -0.032231476
-0.19541676 -0.64053833 0.06469338 -0.53303325 0.36031625 -0.0023160009 0.25590375 -0.10352373
-0.027377455 0.0047907233 0.37070957 -0.034687992 0.01120816 0.28891772 -0.5840194 -0.29872173
0.20090592 0.42754808 -0.34826753 -0.34551543 0.6911618 -0.008676561 -0.075809054 -0.56130016
0.24167256 0.07974005 -0.039282613 -0.49870172 -0.03344032 0.37328088 -0.0012136817 0.08564642
0.08742425 -0.29644617 0.22903791 0.26233962 0.21569806 -0.056650072 0.36251143 -0.53924745
-0.28592733 -0.08590828 0.06636984 -0.5580999 -0.068218514 0.095077075 0.37635872 0.036071286
-0.060673546 -0.032748163 -0.298419 0.06287254 0.048660778 0.07893304 0.025749458 -0.0015694347
0.061669208 0.17475185 0.08471646 -0.2669539 0.4577708 0.14010711 -0.1519347 0.03929535
0.21643876 -0.37145212 -0.23915608 -0.16007034 0.06323268 1.1828073 -0.14789188 -0.37200254
0.29117626 -0.00089008873 -0.1954405 -0.67612046 -0.6529561 0.08619368 0.17247668 0.5228765
0.034390364 -0.04331774 -0.61824816 0.25077808 0.083618194 0.17977834 -0.24297924 0.014073802
0.05925499 0.022148127 0.24572432 -0.074325316 -0.27174538 -0.19394587 -0.5416486 0.3393487
-0.36033994 0.007867356 -0.046053756 -0.30886605 -0.1386034 0.32293424 -0.52360636 1.4563222

fc2.bias f4 [3]
00000000: bc05 0640 72b7 8ebe 410f a1bf
2.0941 -0.27874333 -1.258278
