data/mountain_car_policy_1.pt (torch, 5232 bytes, 4 tensors)

fc1.weight f4 [128, 2]
000000 f6 d7 35 3f c9 61 64 be 19 28 e4 3e ed f1 12 3d
       0.71032655 -0.22302927 0.44561842 0.03587525
000010 4f e1 b8 be 48 30 9a be 39 17 b7 3f 8b fc 69 3f
       -0.36109397 -0.3011496 1.4303962 0.91400975
000020 00 68 10 3f db 81 f6 be ad 8e 78 3f 0c 79 6e be
       0.5640869 -0.48145947 0.97092706 -0.23288363
000030 d9 47 c4 be e5 8f ec 3d 79 07 67 bd 3a f6 33 3f
       -0.38336065 0.11550883 -0.05640361 0.70297587
000040 a0 32 ce 3e 1d 05 20 3f 0e 70 a6 3f 5d 1f d2 3f
       0.40273 0.625078 1.3002946 1.6415821
000050 9d ec ad 3f 5e fa 56 40 a9 89 c2 3f fe b2 1d 40
       1.3587834 3.3590312 1.519826 2.4640498
000060 49 88 83 3e 2a 24 8b 3f b5 05 4f 3f 2f fb 46 3e
       0.25689915 1.0870411 0.80868083 0.19431756
000070 17 d8 ce bd bd e1 25 3d b1 9e 3b 3e 2d a5 8f be
       -0.100998096 0.040498484 0.18322255 -0.28055707
000080 94 12 37 3f dc 74 cd 3f be 6e 23 bd a6 53 17 c0
       0.7151272 1.6051288 -0.039900534 -2.3644805
000090 e6 36 4e 3f 8e dc 06 3f 8b f0 28 3f b2 af 1b 3f
       0.8055252 0.5268029 0.6599204 0.60814965
0000a0 72 7b fa 3c 64 7c 0e 3e be 33 f6 3d 38 74 0d 3f
       0.030576441 0.13914639 0.12021588 0.5525546
0000b0 db 10 8b 3f e6 8a 83 40 b3 91 08 3f 26 93 84 3e
       1.0864519 4.1107054 0.5334732 0.25893515
0000c0 bf d2 f7 be 81 23 61 bf ec 00 6b 3f f4 6b 79 bf
       -0.48402974 -0.879448 0.9179828 -0.9743035
0000d0 50 77 3f 3f 60 9c 00 3f 48 37 f8 3e 1e 9b 59 bf
       0.7479143 0.5023861 0.48479676 -0.85002315
0000e0 c0 cc 70 3f 67 22 a7 3f 46 3b 16 bd 70 25 bc 3e
       0.94062424 1.3057374 -0.03667762 0.36747313
0000f0 40 c2 56 3f 3f 31 fe 3f 5b 85 58 3e 4f 73 8e bf
       0.8389015 1.9858779 0.21144621 -1.1128939
000100 78 47 8a 3f c0 e0 6d 3f 3e 16 c5 3f d5 03 0e 41
       1.080306 0.92921066 1.5397413 8.875936
000110 05 ad c2 3d 87 39 2b be 48 41 4a 3f 29 13 44 be
       0.09505657 -0.16721164 0.7900586 -0.19147934
000120 1d f8 c9 bd c1 ef 9b bf 9b b9 cf 3e 22 61 19 c1
       -0.09861777 -1.2182542 0.40571293 -9.586214
000130 06 29 38 3f 93 e8 a9 3f 0c 92 88 3f 62 b0 28 40
       0.71937597 1.3274101 1.066957 2.6357656
000140 6d 28 93 bd f5 0c df bf 56 f5 65 3f a4 e0 03 3f
       -0.07185445 -1.7425829 0.8982748 0.5151465
000150 7d 13 77 3f 64 1d 11 3f 8b 0e 44 3f 8e fd 96 3e
       0.9651411 0.5668547 0.7658469 0.29490322
000160 d9 9e 6f 3f d8 be 7d 3f 05 45 b3 3f f8 36 00 40
       0.9360176 0.9911933 1.4005438 2.003355
000170 2d 9b 32 3f 2d 0e ff 3c fe 08 25 3f 18 93 b5 3f
       0.6976803 0.03113469 0.64466846 1.4185514
000180 ae 23 84 3f d9 32 38 3e da 15 96 3e 7e b0 9f 3e
       1.0323389 0.17988147 0.29313546 0.3118934
000190 1e 61 4a 3f 2a 82 4b 3f bb 2d 54 3f 4d 6c 99 3e
       0.7905444 0.7949549 0.8288228 0.2996544
0001a0 6d 41 fd 3e 76 98 2e be 4a 86 30 3e c1 e2 c7 be
       0.49463978 -0.17050347 0.17238727 -0.39040187
0001b0 bd 6a 05 3e cb 02 c6 be e0 89 0a 3f 6b 64 2f bf
       0.13028999 -0.38674006 0.5411663 -0.685126
0001c0 c7 64 a5 3f ac 9e 98 3f 87 56 c7 3e 65 26 d0 3e
       1.292138 1.1923423 0.38933203 0.40654293
0001d0 be 15 03 3f 57 51 74 3e 89 1d 14 3f 71 9d e7 3f
       0.5120505 0.23859154 0.5785757 1.8094922
0001e0 62 53 21 3f f0 81 60 3f 76 aa 21 3f fe 92 14 3f
       0.6301786 0.8769827 0.6315073 0.5803679
0001f0 6e da 8c 3e 32 73 ee bf ef 2d 90 3f b0 b7 8b 3f
       0.275104 -1.8628905 1.1264018 1.0915432
000200 b2 60 18 3e d6 e1 84 3e c0 28 8a 3f b7 65 08 40
       0.14880636 0.2595355 1.0793686 2.1312082
000210 91 69 d5 3e 55 36 0d bf 97 ab 92 bd b0 30 cd be
       0.41682103 -0.5516103 -0.071616344 -0.40076208
000220 b5 e7 ff 3e 9d db 38 bf 49 75 fa 3e cd e3 a0 bf
       0.49981466 -0.72210103 0.48917606 -1.2569519
000230 fc 0d 63 3f e3 ce 53 bf 41 fa 60 be 98 61 81 bf
       0.88693213 -0.8273756 -0.21970464 -1.0107908
000240 b6 89 55 be 51 ce 44 bf 00 cc 58 3f a7 8d 2e 3f
       -0.20853314 -0.76877314 0.8468628 0.68184894
000250 e8 01 f7 3e ab 48 2f bf df 45 31 3f 82 32 0e bf
       0.48243642 -0.6847026 0.6924724 -0.5554582
000260 58 ff 21 3f b5 81 80 3f a4 23 31 3d 78 15 a2 be
       0.6328025 1.0039583 0.04324688 -0.31657004
000270 67 08 ee 3c 1d 0f 23 bf 66 25 80 3f a3 63 dd be
       0.02905674 -0.63694936 1.0011413 -0.4324008
000280 88 b8 34 bd 67 c6 d3 be ce 68 e8 bd 1f ca a0 be
       -0.044121295 -0.41362306 -0.11348115 -0.31404206
000290 94 85 42 3f 31 49 c6 3f 99 e5 9c 3e 95 2f 38 3e
       0.75985074 1.5491086 0.3064392 0.17986901
0002a0 fe 0a 89 3f f4 94 dc 3f e9 02 18 3f 2f 4d ed 3e
       1.070648 1.7232957 0.5937944 0.4634795
0002b0 77 bc 8d 3f f7 47 ac 3f ab 24 24 3c b6 e8 14 c1
       1.107314 1.3459462 0.010018508 -9.306814
0002c0 bc b5 8a 3e e1 62 a1 3e 96 a7 4e be b2 3c e0 3d
       0.27091777 0.3152075 -0.20181116 0.10949077
0002d0 40 ff 0a 3f 51 9c 8d bf 67 24 a3 3f 8f fa 69 3f
       0.5429573 -1.1063329 1.2745484 0.9139795
0002e0 bb cf 4f be 9f 43 b0 3e ab cb 49 3f d5 70 1c 3d
       -0.20294087 0.3442659 0.788264 0.038193543
0002f0 73 b4 0c bf 1e 0e 53 41 62 73 d4 3d 1d b6 d0 3e
       -0.54962844 13.190947 0.1037357 0.4076394
000300 eb ee 99 3e d4 dc 01 bf ae 1e b5 3e 23 06 30 bf
       0.30065092 -0.5072758 0.3537497 -0.68759364
000310 73 8d 8a 3f 9f 86 cd 3f 99 d7 2d 3e bb 35 69 be
       1.0824417 1.6056708 0.16976775 -0.22774403
000320 6b 27 04 3f 9e 01 94 3f 2d ea 2a 3f 1a 10 ed 3f
       0.5162265 1.1562994 0.66763574 1.8520539
000330 23 41 b7 3d c5 64 8e 3f 6e 3d 8d 3e 2f 22 9f 3f
       0.08947971 1.1124502 0.2758593 1.2432307
000340 3b 62 14 3f 07 1e 55 be c0 59 5d 3f 5b 87 d3 3f
       0.5796239 -0.20812236 0.8646507 1.6525682
000350 44 91 0b bf 4d 2d 2a 41 f1 8f 2f be bd da 2f be
       -0.5451853 10.63606 -0.17144753 -0.17173286
000360 ca fd 54 3f 8c 74 cc 3e ce 7d 33 bd c2 8f 52 3f
       0.8319975 0.39932668 -0.04382115 0.82250607
000370 af 10 e3 3d 29 ad 27 3e 8d 23 cb 3e f2 8d b5 be
       0.110871665 0.16374649 0.3967556 -0.35459858
000380 11 a2 52 3f 0a 37 cb 3f 49 a2 a8 3d b1 c0 d2 3d
       0.82278544 1.5876172 0.082340784 0.10290659
000390 a1 6b 8e 3f f9 2b 02 be db aa 99 3c e0 93 9e bf
       1.1126596 -0.12712087 0.018758228 -1.2388878
0003a0 01 fd 76 3f 8b 71 0e 40 03 a2 8a 3f b5 64 e5 3e
       0.96479803 2.22568 1.0830692 0.44803396
0003b0 15 6c 9f 3b 6c cc 24 bf e8 8d 2d 3e 57 c9 15 bd
       0.0048651793 -0.64374423 0.16948664 -0.036568966
0003c0 e8 af ac 3d 66 09 f6 3f 63 14 9d 3f df 24 19 40
       0.08431989 1.9221618 1.2271847 2.3928754
0003d0 f1 03 98 3f 32 65 0e 40 b8 8c a3 be c8 7e 76 3e
       1.1876203 2.2249265 -0.31943297 0.240718
0003e0 13 89 ef 3e 0f 60 c5 be b3 6d 18 be b7 b9 24 bf
       0.46784267 -0.3854985 -0.14885597 -0.6434588
0003f0 25 c4 a6 be f5 5a 8e bd e5 65 d1 3e 3b 75 18 c0
       -0.3257152 -0.069509424 0.40898052 -2.3821552

fc1.bias f4 [128]
000000 64 2f fd be 2e 6a 1f bf 7f 21 1e bf 82 ad 4e bd
       -0.4945022 -0.6227139 -0.6176986 -0.05045844
000010 49 e8 22 bf 0a 43 00 bf f7 56 13 bf 84 1a 26 bf
       -0.6363569 -0.50102293 -0.5755457 -0.6488421
000020 67 64 10 bf b9 a4 15 bd 78 16 da 3e 09 fc 76 3d
       -0.564032 -0.036534045 0.42595267 0.060298953
000030 ef 59 78 bf d0 da dc bd 46 b1 db be c7 22 e4 be
       -0.9701223 -0.10783923 -0.42908686 -0.44557783
000040 70 92 10 be 9e cd c5 be fc 7f b6 be 6b 65 34 bf
       -0.14118361 -0.38633436 -0.3564452 -0.7046725
000050 2e d4 09 bf a7 31 26 bf ed 74 9d 3e ff 31 e3 be
       -0.53839386 -0.64919513 0.3075327 -0.44374081
000060 74 45 12 bf 5e 91 17 bf a1 03 df be c4 fb 96 be
       -0.5713723 -0.5920619 -0.43557456 -0.29488957
000070 11 72 5d 3d cb 4a 0c be 89 1a 40 be f7 98 fc be
       0.05406386 -0.13700406 -0.18760122 -0.49335453
000080 f5 ef d1 be 68 bf 56 3f 8b 9b 1b bf 71 33 3d bf
       -0.41003385 0.8388581 -0.60784215 -0.7390662
000090 39 44 a4 bf 8f 25 c0 3f fd 74 bd be b4 23 89 3e
       -1.283332 1.5011462 -0.37003317 0.26785052
0000a0 44 90 4a bf 95 7a 07 bf 5b 67 e5 be 2c b5 39 bf
       -0.7912638 -0.5292142 -0.44805416 -0.7254207
0000b0 3d f1 e1 be d6 3d c4 3e ed 27 ba be 99 f3 1f bf
       -0.44129363 0.38328427 -0.36358586 -0.62481076
0000c0 84 f2 73 be 0d 02 3f bf 36 35 c5 be 46 62 91 be
       -0.23822981 -0.74612504 -0.3851716 -0.2839529
0000d0 2d 4f 99 be 47 a0 22 bf 97 a6 5b be 32 3e d4 be
       -0.2994322 -0.63525814 -0.21450268 -0.414537
0000e0 3e 76 91 3d 6f 2d fa be 83 a8 3a bf a9 f3 f1 3c
       0.07102631 -0.48862788 -0.7291338 0.029535132
0000f0 57 61 23 bf 5d 53 c1 be 71 17 18 be d1 02 74 ba
       -0.63820404 -0.37758914 -0.14852692 -0.0009308281
000100 0f 9c 2f bf c5 28 fc bd 13 92 e1 be 03 ae bc be
       -0.685975 -0.12312464 -0.44056758 -0.3685151
000110 68 24 27 bf c8 75 2d bf 7e da 1f bf 71 05 62 bf
       -0.65289927 -0.67757845 -0.6244277 -0.8828955
000120 ee fb 3e bf 26 bf e9 be d7 4b e3 be c2 15 1b bf
       -0.74603164 -0.45653647 -0.443938 -0.60580075
000130 89 f4 03 bf 38 95 04 bf 74 c6 06 bf e0 61 14 be
       -0.51545006 -0.5179019 -0.52646565 -0.14490461
000140 25 e6 8c bf 25 f3 26 bf 5a 48 c5 bd 2e 17 df be
       -1.1007735 -0.6521476 -0.096329406 -0.43572372
000150 dd 4c 10 3e c0 c8 20 bf 22 fa af be 5f 7e d7 3f
       0.14091821 -0.6280632 -0.34370524 1.683544
000160 af 80 0f be ff ba 59 be 82 90 c7 be 38 9a 95 3c
       -0.14013933 -0.2126274 -0.38977438 0.018262014
000170 22 04 a4 be 75 7b 6b bf f6 f7 fd 3d 51 eb 8c be
       -0.32034403 -0.91985255 0.124008104 -0.27523282
000180 f5 d0 ba be ab ba f8 be 1c f5 e8 bd 90 11 28 bf
       -0.36487547 -0.48579916 -0.11374876 -0.656518
000190 11 0a 0c be 17 89 0e be 0c 82 78 bf f4 14 21 bf
       -0.13675715 -0.13919483 -0.97073436 -0.62922597
0001a0 9c e1 41 bf b2 d5 ba 3d 68 ff aa bc 3a 0d 4a bf
       -0.7573488 0.091227904 -0.02087374 -0.7892643
0001b0 3f 9e 07 bf e6 7e 8c bf 21 6f d4 be 62 3a 5d bf
       -0.5297584 -1.0976226 -0.41491035 -0.8641721
0001c0 91 db 47 be e3 dd 2e bf e8 96 fe be 1a bc 2b bf
       -0.19517352 -0.6830732 -0.49724507 -0.67083895
0001d0 22 4f 57 3e ba 99 de be 71 8c 69 be eb a5 1c bf
       0.2102628 -0.4347666 -0.2280748 -0.6119067
0001e0 e1 fd 1c bf f2 18 95 3e 4e b5 6d 3e 5d af e5 be
       -0.6132489 0.29120594 0.23213693 -0.44860354
0001f0 ab 51 1e bf 03 df 1b bf 30 2f 12 bf 76 5a f7 be
       -0.61843365 -0.60887164 -0.5710325 -0.48311204

fc2.weight f4 [3, 128]
000000 9f 94 31 3e ee 5f c6 be 9e 2e 9b bd e5 62 c2 3d
       0.1734185 -0.38745064 -0.07577251 0.09491519
000010 16 8c 22 3d 53 84 99 3e 38 d2 22 3c 5e 63 51 3d
       0.039684378 0.29983768 0.009937815 0.051120155
000020 d8 1b 06 bc 76 15 09 bf 27 c3 53 be 3a dd 35 bf
       -0.008185349 -0.5354837 -0.20679913 -0.7104069
000030 77 fa c0 3e 4a c3 1b bc fe 20 3f bd 37 ea c0 bc
       0.3769109 -0.00950701 -0.046662323 -0.023549182
000040 f2 aa cd 3a 57 bc 6e be 39 9a 11 3f dc 15 8d 3d
       0.0015691204 -0.23314033 0.5687595 0.06888935
000050 f9 61 5c 3d bd 00 9e 3c 22 a3 a6 bf 5e 7d b4 bd
       0.05380437 0.019287461 -1.3018534 -0.088129744
000060 d4 de 03 bf eb 4a 76 be 94 5f d7 3e ab 0e 14 3f
       -0.51511884 -0.24052016 0.42065108 0.5783488
000070 d2 4c cc 3d 8e 6f 87 bd 9b 6f fa be 78 8e 88 be
       0.0997559 -0.06613074 -0.48913273 -0.26671195
000080 10 a3 57 3e c0 6c 54 c0 5d 07 1f bc 5b b4 be 3e
       0.21058297 -3.3191376 -0.009706345 0.37246975
000090 3e 8d 16 bf fc 55 a1 3f 2d 6a 28 3e 3c cc 23 be
       -0.5880927 1.2604365 0.16446753 -0.15995878
0000a0 f8 1c a4 be b8 2d cf 3e 22 44 ca 3e 89 9f 0d 3e
       -0.3205335 0.40464568 0.39505106 0.13830389
0000b0 a0 02 87 3e 17 99 98 bd 3c b2 fe 3e b7 7e 15 3f
       0.2636919 -0.074510746 0.49745357 0.58396477
0000c0 e7 d9 83 be cd 9c 1d bf 62 95 8e 3e 7b bd f5 3e
       -0.25752184 -0.61567384 0.27848345 0.47996125
0000d0 f5 a4 69 bd 3d ae fc bc f0 3f 91 3c 4e e3 17 bd
       -0.05704208 -0.030844802 0.017730683 -0.03708201
0000e0 2f d5 26 3d 71 c5 69 bd 4d 87 e8 3e 42 81 53 bd
       0.04073065 -0.05707306 0.45415726 -0.05163694
0000f0 e4 c3 8d 3e 69 c9 51 3d 40 1b 85 bc a8 6b 49 3e
       0.27688515 0.05121747 -0.016248345 0.19669974
000100 7f d7 de 3c 31 d9 44 bd f4 53 e6 3c 57 ef 71 3d
       0.027202366 -0.048058692 0.028116204 0.059066143
000110 4f 90 0c be 6e 84 2c be 2d df 7a 3e c8 00 48 3d
       -0.13726924 -0.16847393 0.24499197 0.04882887
000120 2e 75 2c bf c8 0a d7 3e 52 30 1f bd e7 ae a3 bc
       -0.673663 0.42000413 -0.03886444 -0.01998086
000130 13 02 f8 3e c0 d1 ae 3d 0c 32 98 bd 95 78 73 3e
       0.48439083 0.085361004 -0.07431421 0.23776467
000140 fb cf 03 bf a4 6a 4a 3c af dd c9 bc 4e 34 65 bd
       -0.5148923 0.012354527 -0.02464184 -0.055958085
000150 65 c2 0b be 1b 8a f7 3e 58 c2 0d bf cd 3e e4 3f
       -0.13648374 0.48347554 -0.5537467 1.7831665
000160 14 8f eb bd c4 3f 45 bd d9 e1 48 bd c0 0e d4 be
       -0.11501899 -0.048156515 -0.04904351 -0.41417503
000170 13 92 19 3c 8a 52 81 3e 6a 62 03 c1 e7 db 7e 3d
       0.009373206 0.25258285 -8.211527 0.062221434
000180 90 7a 8e bd 7e fa 35 bc 14 ac b9 be de e2 59 bd
       -0.06956971 -0.011107085 -0.36264098 -0.053194873
000190 e8 43 a5 3d 38 ff 37 3e c4 9a c6 3e 36 08 de 3e
       0.08069593 0.17968452 0.38789952 0.4336564
0001a0 ed da ea be 76 76 80 3c 66 2d e9 c0 02 23 1b bf
       -0.45870152 0.015681487 -7.286792 -0.6060029
0001b0 b2 65 dc 3d aa 84 bf 3e ea ce 18 bc 4d 97 c6 bd
       0.10761584 0.37405902 -0.009326676 -0.09696827
0001c0 69 99 88 3e b6 5d 1c bf 63 91 9d 3e e2 d6 01 be
       0.26679543 -0.6108049 0.30774984 -0.12679628
0001d0 8c 60 8a bc 4b a6 ad 3e fb 46 9b 3d 6f 61 03 bd
       -0.01689174 0.33915934 0.07581898 -0.03207534
0001e0 9e 53 dd 3e 1f be 5b be 0d d8 45 bf 75 9b a3 3d
       0.43227857 -0.21459244 -0.7728279 0.079886355
0001f0 40 5f 72 bd c5 95 03 bf ef 8c a0 3c 6e 31 bc bd
       -0.05917287 -0.51400405 0.019598452 -0.091891155
000200 c4 a5 31 3e 58 99 d3 3d d4 02 9d bd b7 f4 b9 be
       0.17348391 0.103319824 -0.07666555 -0.36319515
000210 2f 67 37 3b ad 12 1b 3e fe 81 e8 bc 24 c0 a0 3d
       0.0027985086 0.15143843 -0.028382298 0.07849148
000220 32 20 5b 3b 24 5a 89 bc 41 47 dc be 3c 76 22 bf
       0.0033435938 -0.016766615 -0.43023112 -0.6346166
000230 e7 7c a9 be 8d d8 3a 3e 4a ea c3 3c 3c 5a f2 3c
       -0.33103105 0.1824667 0.023915429 0.029584043
000240 9e 8d 1d 3e 81 31 88 3d 46 25 24 3c e5 eb 57 be
       0.15386054 0.06650067 0.010018652 -0.2108608
000250 1b 1c 98 bd 02 a8 86 3d 75 14 73 bf 94 d2 47 3b
       -0.07427236 0.06575014 -0.9495309 0.0030490505
000260 6c 56 03 bf 5e e3 21 be ae 8d 8d 3e ca 8e cf be
       -0.51303744 -0.1580939 0.27647156 -0.40538627
000270 26 27 2c 3e 73 0b 95 3d d0 6c 0b be 98 9e c5 3a
       0.16811809 0.072775744 -0.13615727 0.0015077172
000280 92 0d 47 3d 01 33 a2 c0 37 cb d5 3c 2b 8c 75 3e
       0.048596926 -5.068726 0.026097877 0.23979251
000290 82 52 19 3f b4 49 43 3e 10 75 24 3e 15 66 32 3d
       0.5989152 0.19071084 0.16060281 0.043554384
0002a0 ee 4b d9 bd f5 99 24 3e e1 af 1a be 1a 30 87 3e
       -0.106101856 0.16074355 -0.15106155 0.26403886
0002b0 1e 99 25 3e f0 51 4d bf f1 26 cd 3d 67 4a 5b 3e
       0.16171691 -0.8020315 0.10017193 0.21415101
0002c0 61 d5 cb be 20 11 1c 3f 2a 72 18 3e ff 39 32 3e
       -0.39811233 0.6096363 0.148873 0.17404936
0002d0 f4 72 cd 3b 80 f8 03 3c 0b 83 ff 3c 76 d5 87 3d
       0.006269807 0.0080548525 0.031190416 0.06632511
0002e0 dc 8a 56 bd b9 87 11 3d d8 f7 1b 3e fb 39 17 3e
       -0.05237852 0.035529826 0.15231264 0.14768212
0002f0 3a 34 e6 bc 1e 97 9f bd f8 7a 9b 3e a3 bb 89 bd
       -0.028101075 -0.07792495 0.30367255 -0.06725242
000300 e8 b6 fb bc fd 20 b6 bd 2b 65 a3 bb 0c c2 41 bd
       -0.030726865 -0.08893011 -0.0049864254 -0.0473042
000310 10 f4 48 3e bb f2 5c 3d d5 f4 3f 3e ad fd 60 be
       0.19624352 0.053942423 0.1874574 -0.2197177
000320 8b f9 06 bf 42 bd ac bd 6e fc fe bc e6 46 5f 3d
       -0.5272452 -0.084345356 -0.031126227 0.054510973
000330 11 fc 60 3e 3b f0 30 bd 4d e2 fe 3d 24 f8 7a 3d
       0.21971156 -0.04319785 0.12445507 0.0612718
000340 33 8b 11 3f 94 6a 58 bd 2e 09 dd 3d b9 a8 3f 3d
       0.56853026 -0.052836016 0.107927665 0.046791766
000350 aa 58 1f bd 95 17 86 3e 25 0f f4 bd 90 80 4b 3d
       -0.038902916 0.26189867 -0.11916951 0.049683154
000360 86 e6 94 3e 71 be 9a bc fc 50 11 3e 8f 25 32 bf
       0.29082125 -0.018889638 0.1419105 -0.6958856
000370 41 8c ad bd 38 18 2f 3e b9 99 be 3f c8 2b 4d bd
       -0.08474017 0.17099082 1.4890662 -0.05009058
000380 90 ab 76 3d 83 7f 5f 3d fd bc 3e bf a4 6f 81 bc
       0.06022221 0.054564964 -0.74507123 -0.015800305
000390 d8 70 32 3e cf 07 1e 3e 7c 72 a9 be c0 fb 03 3d
       0.17425859 0.15432666 -0.33095157 0.03222251
0003a0 be b4 95 3e c0 0e 33 3e 64 94 7b 3f 13 47 23 bf
       0.29239458 0.17486095 0.982733 -0.63780326
0003b0 6d e1 60 3e db 50 2f be 40 e0 46 3d 2c d6 6f 3d
       0.21960993 -0.17120688 0.048553705 0.05855386
0003c0 e4 3c fe 3d 1e 39 0d bf 28 d0 54 3e 58 7e df 3d
       0.12413958 -0.5516528 0.2078253 0.1091277
0003d0 d5 d4 98 3d d3 74 fa 3d 3d 31 a0 3d 04 49 0e bb
       0.074624695 0.12229314 0.078218915 -0.0021711001
0003e0 69 b2 05 3e 1b 8e 47 bd 2d e2 83 bf 0d ca 60 bd
       0.1305634 -0.048719507 -1.0303398 -0.05488019
0003f0 71 67 af 3d 8c be 2a bf 9c 56 b3 bc fb 27 f2 3d
       0.08564652 -0.66697 -0.021891885 0.11824032

fc2.bias f4 [3]
000000 54 f0 e5 3e 70 1f 18 3f c3 b3 f0 be
       0.44909918 0.5942297 -0.47012147
